mil/weights/20241120/fold_0_1.pth (torch, 481804 bytes, 8 tensors)

i_classifier.fc.0.weight f4 [2, 768]
000000 49 30 94 bc 2f 23 2d 3d 2f a0 bd 3b 14 0d 58 bd
       -0.01808943 0.04226988 0.0057869176 -0.052746847
000010 f0 52 23 bd 38 40 6f 3c 2f 10 70 3d 4d f8 42 3d
       -0.039874017 0.014602713 0.058609184 0.04760008
000020 06 8a 01 3c 4d f5 4d bc ef e1 95 bc 11 3e 0d 3d
       0.0079064425 -0.012570691 -0.01829621 0.03448302
000030 af ba b7 3c eb d4 45 3c a3 8f be bc e2 c8 96 3c
       0.022427885 0.012074689 -0.02326185 0.018406335
000040 7c 3c 06 bc dd 0c 18 3d 1d 58 d1 3c 70 e9 af 3b
       -0.008193132 0.037121642 0.025554711 0.005368404
000050 b4 57 c4 ba d9 51 15 3b 95 bd e3 3c bb 68 a2 3d
       -0.0014979751 0.002278438 0.02780036 0.07930132
000060 d9 47 35 3d 5e 1f 85 3d 76 1c 19 bd 68 57 09 bb
       0.044257972 0.065001234 -0.037380658 -0.002095664
000070 7a c7 98 bc 57 46 f7 bc d9 41 e4 3b ef f7 a7 bc
       -0.018649805 -0.030184908 0.0069658575 -0.020503966
000080 79 4a a9 3c 00 f8 b2 3c b7 cf 76 bc 13 6a 5c bc
       0.020665394 0.021846771 -0.0150641715 -0.013453024
000090 0e c7 e0 bc d1 13 01 3d c4 0e 5d 3b 3f 89 87 3c
       -0.027438667 0.03151304 0.0033730725 0.016544936
0000a0 bc f1 3a 3d a6 4c d3 bc a2 80 47 3d f5 e3 2e bd
       0.045640692 -0.025793385 0.04870666 -0.042697866
0000b0 3b 0d 70 bd dd dd ce bc 50 f3 8e 3d f8 05 92 bc
       -0.058606368 -0.025252277 0.06980002 -0.017825112
0000c0 4b 05 66 3c a2 cd e3 3c c8 97 b5 bb f4 2a d0 3c
       0.014039348 0.027808014 -0.0055417754 0.025411107
0000d0 fc d5 d2 bc af a5 03 3c f3 ef 11 3d 0a eb 2a 3c
       -0.025736801 0.0080351075 0.035629224 0.010432014
0000e0 cc 54 8f 3c 09 a0 49 bc 52 62 e2 3b c8 59 60 3d
       0.017496489 -0.012306222 0.0069086934 0.054773122
0000f0 c0 4b 14 bd 24 b2 73 bc e6 e9 62 bd ae 66 14 3d
       -0.036205053 -0.014874015 -0.055398844 0.036230735
000100 20 0a 0f 3d 51 19 1e bc c1 33 03 3d d1 cb 27 bb
       0.034921765 -0.009649591 0.03203178 -0.0025603662
000110 b2 06 67 3d 4e 8c db bc 7d ab 57 bb f4 1f 60 bd
       0.05640287 -0.0268003 -0.0032908611 -0.054717973
000120 ff 24 5c 3d 82 4d e3 3b 7e 8b 0f 3d 7e b7 27 bd
       0.05374622 0.00693673 0.03504514 -0.040946476
000130 6e af b8 3c 4d 6b 13 3c a0 32 f8 bc ff 5e 8a 3a
       0.022544589 0.0089977505 -0.030297577 0.0010556875
000140 36 26 00 be 5c 78 28 bd d7 3c ba 3b 35 b8 d4 bc
       -0.12514576 -0.04113041 0.005683522 -0.025966743
000150 12 2e ba bb d8 e6 ee bb 9c c4 73 bc 02 0b 69 bd
       -0.0056817615 -0.0072907023 -0.014878418 -0.056895263
000160 78 41 0e bd 65 90 65 3d 04 ba d8 bc e2 73 1d 3d
       -0.034730405 0.05604591 -0.026455887 0.038440593
000170 80 8c 78 bd a2 1a 20 ba b4 ab 53 3d cf c3 e3 bb
       -0.060680866 -0.0006107484 0.05167742 -0.0069508324
000180 f2 9e 03 3c 18 cc b3 bd 86 3d 9d bc 41 53 6d bd
       0.008033501 -0.08779162 -0.019194376 -0.057940725
000190 e2 70 99 3d d3 e8 a3 bb ba 3d 35 3d fb a6 13 bd
       0.07492234 -0.00500212 0.04424832 -0.036047917
0001a0 bf fb 8c 3d 39 f1 a3 bc a6 35 60 3d d3 31 16 3d
       0.06883954 -0.020012485 0.054738663 0.03666861
0001b0 07 2c 62 bc ae 3d b3 bc 76 26 0b bd de a0 3b bc
       -0.013804442 -0.021879997 -0.033972226 -0.011451928
0001c0 64 aa 1b 3d 4c bf 57 3c 6f 6b d1 3c 54 2c 5c bb
       0.038004294 0.013168167 0.025563924 -0.0033595758
0001d0 60 d2 0f 3d 7d 39 4a 3c ec f2 1f 3d fb b8 49 3c
       0.03511274 0.012342808 0.039050028 0.012312169
0001e0 1e 2a c8 3d 21 4d 20 bd a7 0e ed 3c 39 01 a5 3b
       0.09773658 -0.039136056 0.02893765 0.005035546
0001f0 da d6 52 3b 4f 66 c0 bc 32 ac b6 bc 91 fd a7 bd
       0.0032171519 -0.023486285 -0.022298906 -0.08202661
000200 1c e8 ad ba 34 db 59 bb 79 d5 a6 bb 1f c0 60 bb
       -0.0013268027 -0.0033242228 -0.005091366 -0.00342942
000210 75 65 6d bc da 8d 6e 3d 10 55 89 3d 90 ba 69 bd
       -0.014489521 0.05824075 0.067056775 -0.057062685
000220 26 77 80 3a 0c e1 35 bc e2 ec bf bd d1 95 a8 3c
       0.0009801134 -0.011101019 -0.09371354 0.02057925
000230 b0 c2 ed bb ad 31 17 bd cf 44 04 3d 6a 30 6c bc
       -0.0072558746 -0.03691261 0.032292183 -0.01441584
000240 bd 86 d6 3c f5 68 8b 3d 20 b1 8d bd 13 51 4a bd
       0.026187295 0.06807128 -0.069185495 -0.049393725
000250 a0 45 08 bd f0 d8 13 3d fb b4 5f bd d0 7a 0f 3d
       -0.033269525 0.03609556 -0.054615956 0.035029233
000260 ad e6 12 bd 2e f6 62 3d 59 80 b2 3c fe 92 1b 3d
       -0.03586452 0.055410556 0.021789717 0.03798198
000270 5a a7 29 3d 89 7b 01 3e c0 de df bc cb 12 0f bd
       0.041419365 0.12644781 -0.027327895 -0.03493003
000280 dc 66 e5 ba d2 20 77 3b c0 47 c7 3d 4e 92 91 bc
       -0.0017501968 0.0037708771 0.09730482 -0.017769959
000290 c2 e4 bc bd 02 9f f0 3d 40 ee 8b 3d ec 55 e9 bc
       -0.092233196 0.11749078 0.06832552 -0.028483354
0002a0 3d 11 70 3d 08 bc 3b bc 42 03 a6 bc 40 28 17 39
       0.05861019 -0.011458404 -0.020265225 0.00014415476
0002b0 ab 55 e8 bc 5f aa 08 bd 03 3e 99 bb f9 40 fa 3c
       -0.028361162 -0.033365604 -0.004676582 0.03054856
0002c0 ff a3 61 bd f4 23 26 bd ff 4d 57 bd 7f 3c 93 3d
       -0.05508804 -0.04056163 -0.052564617 0.07189273
0002d0 bc 30 29 bd 40 4a 39 bc cc 8c 1b 3b f3 31 ff 3c
       -0.041306242 -0.0113092065 0.0023735045 0.031151747
0002e0 72 9f 0f 3d 87 aa db 3d a6 2b 75 bd f0 65 fc 3a
       0.03506417 0.10725885 -0.05985608 0.0019256454
0002f0 a7 3b 88 bc a8 cc fd bc e6 89 26 bd 3a 7e fe 3c
       -0.016630007 -0.030981377 -0.040658854 0.031066049
000300 bd 5b 54 3c 79 6f 14 bd 3f 3e 03 3d cc f0 02 bb
       0.012961325 -0.03623912 0.032041784 -0.0019979952
000310 e1 56 0d 3d 66 de 76 bb 9d fc 12 bd 69 29 36 bc
       0.034506682 -0.003766918 -0.035885442 -0.011118271
000320 88 2e 9b bc 93 3f 35 3c 55 90 ad 39 4f 0d 7a bc
       -0.018943086 0.011062521 0.00033104667 -0.015261962
000330 9a a6 8e bd e8 a2 e4 ba 1c e9 ac bd 5b 32 d2 3d
       -0.069653705 -0.0017443569 -0.084428996 0.10263511
000340 78 90 23 bd 68 e4 90 3c ad 85 8c 3a b1 8e 9e bd
       -0.039932698 0.017687038 0.0010720991 -0.0774206
000350 fd 7e c1 bc b9 c1 f6 bc 5d f6 56 3d 5a 53 c1 bc
       -0.023620123 -0.030121671 0.052481044 -0.023599315
000360 80 e8 02 bd d5 3c 03 bd 63 1e 3d 3d c7 cc 2a 3c
       -0.03196001 -0.032040436 0.046171557 0.010424799
000370 3d 1d c2 bd 9e ac a0 3a da a1 73 3d 5e ba 67 3c
       -0.09478233 0.0012258475 0.059480526 0.0141435545
000380 12 da ad 3c 25 7a 32 bc 0a 99 8c bc ee d0 84 3d
       0.021222148 -0.010893379 -0.017162818 0.06485163
000390 ab cb 40 bd ff c1 0d bd 87 4c 74 3c c1 76 9f bc
       -0.047069233 -0.034608837 0.014910824 -0.019465806
0003a0 75 ea 11 bd 0c c5 48 3c 55 ab ba 3c 81 ee 75 bc
       -0.035623986 0.012254011 0.022786776 -0.015010477
0003b0 d6 ff eb 3c 5e e1 a4 bc f6 c4 cc 3c 69 68 1f 39
       0.028808516 -0.020126995 0.024996262 0.00015202317
0003c0 44 66 83 3c 73 87 39 3d 54 19 56 bd 6f 81 a1 3d
       0.016039975 0.04529519 -0.05227025 0.078860156
0003d0 25 b4 9b 3d 33 e7 6a 3c f1 3f 48 3d 42 23 8c bc
       0.07602719 0.014337349 0.048889104 -0.017106656
0003e0 37 56 31 3d 85 29 68 3d e8 4b 02 3d 7e 7e 25 bc
       0.04329511 0.05668022 0.03181067 -0.010100959
0003f0 ca 07 30 3d 2d 0b b3 bd 1c f9 35 bd ad 78 d4 3c
       0.04297618 -0.08742366 -0.044427022 0.025936449

i_classifier.fc.0.bias f4 [2]
000000 7f 87 45 bb 35 9a 0c bc
       -0.0030140576 -0.008581688

b_classifier.q.0.weight f4 [128, 768]
000000 58 da 96 b5 e4 a6 16 b5 08 7e 49 b4 58 b4 5f 34
       -1.1239417e-06 -5.612221e-07 -1.8765434e-07 2.0834102e-07
000010 80 57 14 b6 88 bf 89 b5 6c f9 e8 b5 52 f7 02 37
       -2.210465e-06 -1.0263038e-06 -1.7357938e-06 7.806188e-06
000020 33 76 90 35 5c eb 9a b5 5f 9f 27 b6 69 cb 0e b6
       1.0763237e-06 -1.1542393e-06 -2.4977705e-06 -2.127805e-06
000030 ba fa 8e b5 93 e8 84 36 e2 71 5f b6 0c 17 5c b6
       -1.0652795e-06 3.9609818e-06 -3.3295878e-06 -3.279597e-06
000040 ce 0e fd 35 6b a7 7f b6 1a f8 08 37 12 08 1f 36
       1.8854278e-06 -3.809541e-06 8.163997e-06 2.3697544e-06
000050 fd 66 8e b5 69 bb 84 35 61 08 8f b5 b3 ae 05 35
       -1.0609798e-06 9.88931e-07 -1.0656769e-06 4.980058e-07
000060 56 58 94 b5 4a 7e 41 b6 36 f4 87 b5 13 2b d9 b5
       -1.1052568e-06 -2.883275e-06 -1.0129359e-06 -1.6180296e-06
000070 75 86 00 36 88 53 ef b5 1d ac 7c 34 2a e6 91 b5
       1.915175e-06 -1.7831198e-06 2.3531943e-07 -1.0870328e-06
000080 d1 a1 85 b5 ba 6b 88 b5 69 33 21 37 4e 36 09 36
       -9.956367e-07 -1.0164142e-06 9.608318e-06 2.04462e-06
000090 db 70 81 b5 32 7d 10 b6 d7 31 19 36 4b fc 0c 36
       -9.644094e-07 -2.1530545e-06 2.2827787e-06 2.100848e-06
0000a0 71 ec 5a 35 8b 94 07 b6 15 32 92 b5 b3 34 85 b4
       8.1555396e-07 -2.020303e-06 -1.0892423e-06 -2.4811524e-07
0000b0 52 34 10 b6 ac fe fb 35 c5 52 89 b5 cc df 82 b5
       -2.1488127e-06 1.8775077e-06 -1.0231385e-06 -9.750888e-07
0000c0 ce c6 8d 35 c5 fe c6 35 7a a1 01 36 65 f1 98 b6
       1.0563178e-06 1.4826297e-06 1.931649e-06 -4.558055e-06
0000d0 81 d7 0a 36 48 78 92 35 4a 3a fe b5 b5 42 15 b6
       2.0689042e-06 1.0912854e-06 -1.8941439e-06 -2.2241559e-06
0000e0 6b 09 6e 36 8b e7 17 b6 5d 06 a4 b6 1c 3a 0f 36
       3.5470246e-06 -2.263553e-06 -4.8883217e-06 2.1342485e-06
0000f0 87 1f 8a b5 06 94 84 35 cd d4 fd b5 10 87 8d 35
       -1.0290977e-06 9.877847e-07 -1.8911902e-06 1.0544627e-06
000100 47 4f 96 35 d1 6f fa b5 04 ae 14 b6 e3 09 6b b4
       1.1198944e-06 -1.8658994e-06 -2.215501e-06 -2.1889677e-07
000110 c6 5e 0e b6 2d f9 76 36 29 12 1b b7 09 89 14 b6
       -2.1214814e-06 3.6801896e-06 -9.242948e-06 -2.2133484e-06
000120 26 46 06 36 38 ef 8b b5 4c 05 f4 36 6c ec fb b5
       2.0008388e-06 -1.0425929e-06 7.2723833e-06 -1.8769765e-06
000130 6f b6 3a 34 42 76 12 b6 83 39 08 36 1e ca af b5
       1.7388969e-07 -2.182453e-06 2.0299055e-06 -1.309734e-06
000140 ca 8a 8e b5 96 8b 84 35 c0 ed 0f 36 3e ab 4e 36
       -1.0620217e-06 9.875391e-07 2.144705e-06 3.0796068e-06
000150 95 dc 1c 36 64 d1 1c b5 46 bb 62 b5 d4 4d 8e 35
       2.3374207e-06 -5.841923e-07 -8.446408e-07 1.0602475e-06
000160 76 a1 39 b4 f6 a1 61 35 cb ea 44 b5 7e f5 04 b6
       -1.7288207e-07 8.4054716e-07 -7.335736e-07 -1.9812428e-06
000170 28 fe c2 34 98 fc 16 32 0b a4 0e b6 2e 95 5b b5
       3.632024e-07 8.788582e-09 -2.1255134e-06 -8.180094e-07
000180 1f 00 64 34 a9 62 1f 35 b6 43 98 b5 84 49 6e 35
       2.1234199e-07 5.9375685e-07 -1.1344589e-06 8.876889e-07
000190 0b 42 1a b4 14 fe 85 b6 95 0f 39 b6 26 33 13 b7
       -1.4366394e-07 -3.9932875e-06 -2.7576218e-06 -8.773792e-06
0001a0 38 7d 01 36 51 b1 15 36 d3 5c 29 35 c4 04 7d 34
       1.9295385e-06 2.2305942e-06 6.3092483e-07 2.3564195e-07
0001b0 34 70 8e b5 46 06 87 b5 cf a5 08 36 ff 94 84 35
       -1.061248e-06 -1.006011e-06 2.0362093e-06 9.87813e-07
0001c0 2b 09 85 34 69 13 06 32 47 32 1e b6 9a a2 8e b5
       2.477985e-07 7.80424e-09 -2.35731e-06 -1.0627148e-06
0001d0 4b da 31 b5 97 77 05 b4 0d b9 bd 35 fc d7 87 b5
       -6.6255296e-07 -1.2430097e-07 1.4135454e-06 -1.0121144e-06
0001e0 33 3b 15 b6 ee 2b 87 b5 38 b7 0e 36 de 74 1a 36
       -2.2237189e-06 -1.0071069e-06 2.1266296e-06 2.3015814e-06
0001f0 06 96 a2 35 28 00 13 36 2b d0 68 36 f9 8b 5a 34
       1.2113603e-06 2.1904798e-06 3.4691864e-06 2.0353754e-07
000200 f0 37 08 35 c2 bb 89 35 6c 8b 12 b6 3c d9 e4 36
       5.074535e-07 1.026194e-06 -2.183685e-06 6.820219e-06
000210 40 9e 01 36 b1 4f 78 b5 dd 82 30 36 cd c6 24 36
       1.9314612e-06 -9.2503166e-07 2.6302216e-06 2.4553622e-06
000220 31 f1 8b 35 2f c3 12 b6 27 c7 98 32 28 51 82 b5
       1.0426503e-06 -2.1869307e-06 1.7785693e-08 -9.709374e-07
000230 cd 72 89 35 7c bf 4a 34 d5 19 49 b5 0d 18 31 b6
       1.0240707e-06 1.8882378e-07 -7.4915926e-07 -2.6389055e-06
000240 7f aa 03 b6 6d a6 80 b5 f3 e6 38 b6 06 d2 18 35
       -1.9619763e-06 -9.58518e-07 -2.7552567e-06 5.6930037e-07
000250 2b 7c 83 b5 af ed 4e b5 ed 7f 86 35 57 14 50 b4
       -9.796398e-07 -7.7086855e-07 1.0021009e-06 -1.9378909e-07
000260 2a 7b b6 35 ba 38 39 b6 a6 f7 05 36 20 c3 a9 33
       1.3595902e-06 -2.7600167e-06 1.9962695e-06 7.905169e-08
000270 45 49 f3 36 66 22 8a 35 ee 17 54 b6 d8 3e 80 35
       7.250494e-06 1.0291812e-06 -3.160439e-06 9.555033e-07
000280 a0 4d d0 b5 06 db f0 35 f3 af 8a b5 45 6a bf b5
       -1.55198e-06 1.7945138e-06 -1.0333009e-06 -1.4261537e-06
000290 1f b2 0d 36 75 f3 b4 b4 df 91 2a 36 9c 1c 90 b5
       2.1114317e-06 -3.370475e-07 2.5416882e-06 -1.0737162e-06
0002a0 3d 55 40 36 a1 d5 08 36 46 22 05 36 6c 73 85 b5
       2.8659845e-06 2.0389928e-06 1.9838494e-06 -9.942864e-07
0002b0 e9 a7 0e b6 00 ec fe b5 c9 47 fc b6 db d4 8a b5
       -2.1257385e-06 -1.899316e-06 -7.518542e-06 -1.034375e-06
0002c0 93 d6 39 b4 56 15 7e 35 ed ee 5e 35 e8 53 06 37
       -1.7307529e-07 9.465342e-07 8.304913e-07 8.006558e-06
0002d0 49 7a 39 36 5b 6e 87 b5 3b 56 95 b5 28 89 f2 35
       2.7638328e-06 -1.0090401e-06 -1.1126461e-06 1.8070323e-06
0002e0 7e ae 88 35 28 3b 79 33 d0 cf 80 36 4b 40 8d 35
       1.0183574e-06 5.8028633e-08 3.83889e-06 1.052403e-06
0002f0 32 1f 9e 35 f9 03 d9 b6 03 71 8e 35 7e 6f 84 35
       1.1780996e-06 -6.4675664e-06 1.0612715e-06 9.867215e-07
000300 47 21 e1 35 de 7e 8a 36 e1 d0 16 37 1c f0 80 b5
       1.6773491e-06 4.12749e-06 8.98933e-06 -9.606624e-07
000310 cd 6d 14 b6 85 85 82 35 6d e7 8b 35 68 e2 90 35
       -2.211763e-06 9.724614e-07 1.0423661e-06 1.0794729e-06
000320 d4 3a 93 b5 dc 79 8f b5 9d 46 2a 36 1f b1 90 35
       -1.0969475e-06 -1.0689796e-06 2.5373076e-06 1.0780385e-06
000330 46 fb ff 35 a9 3a 0c 36 9d f0 0f b6 36 29 05 b6
       1.9072111e-06 2.089577e-06 -2.1448716e-06 -1.9842532e-06
000340 bb f2 d2 b5 e2 85 ef b5 09 20 e6 b4 1c 25 71 34
       -1.5716863e-06 -1.7845853e-06 -4.2864147e-07 2.2458374e-07
000350 78 ac cf b2 13 24 11 36 06 f1 1f 37 11 05 85 35
       -2.4176401e-08 2.1627682e-06 9.533256e-06 9.910747e-07
000360 38 02 9a b5 23 3b 8a b5 92 4f 96 b5 17 c1 82 35
       -1.147454e-06 -1.0299012e-06 -1.1199029e-06 9.741951e-07
000370 3f ed 66 b4 1f f7 07 36 95 46 ff 35 b9 b7 07 36
       -2.1506729e-07 2.026041e-06 1.9019523e-06 2.0223508e-06
000380 13 6f 02 b6 d2 12 e5 35 06 b4 46 36 6d 87 31 b6
       -1.9436163e-06 1.7067307e-06 2.9609087e-06 -2.6453883e-06
000390 5b ab 03 37 63 82 1d b6 1e 03 38 34 62 17 18 36
       7.848105e-06 -2.3470718e-06 1.713747e-07 2.2663376e-06
0003a0 ab 26 3d b4 5a f6 0f b6 c9 40 99 b6 6e 7b 44 36
       -1.7616064e-07 -2.1452056e-06 -4.5672973e-06 2.9278121e-06
0003b0 a6 f0 8c b5 db ec fe 35 fd a1 49 b4 5e e5 48 34
       -1.0500851e-06 1.8993409e-06 -1.8778515e-07 1.8709895e-07
0003c0 c4 92 4d 36 6c 5e 8e 36 6d 73 10 36 4b cb d9 b6
       3.063281e-06 4.242922e-06 2.1524859e-06 -6.4907704e-06
0003d0 d0 ff fc b5 15 26 8b b5 e6 98 8e 35 33 ff 76 b5
       -1.8849914e-06 -1.036739e-06 1.0624324e-06 -9.2013505e-07
0003e0 1a 05 10 b6 11 80 06 35 07 af 85 35 30 53 9b 35
       -2.1460642e-06 5.010525e-07 9.960212e-07 1.1572611e-06
0003f0 9c 87 97 b6 f7 29 03 b6 66 69 04 b6 83 32 85 35
       -4.5159377e-06 -1.9544948e-06 -1.9730883e-06 9.923973e-07

b_classifier.q.0.bias f4 [128]
000000 98 2f 9f 35 0d f7 13 b6 37 13 47 b6 f5 8b df b5
       1.1860275e-06 -2.204851e-06 -2.9664495e-06 -1.6655528e-06
000010 06 67 0f b5 81 6d 15 36 f9 e4 51 b6 12 6e 80 35
       -5.342157e-07 2.226647e-06 -3.1276707e-06 9.568778e-07
000020 ea df fe 35 5a b0 90 b5 97 21 88 35 8e 7c 83 35
       1.8989642e-06 -1.0780161e-06 1.0142566e-06 9.796511e-07
000030 08 04 85 35 b9 17 55 b4 71 0a 86 b5 ae b1 f4 b5
       9.910445e-07 -1.9845801e-07 -9.986817e-07 -1.8231128e-06
000040 c4 66 14 36 d9 75 09 b6 48 2a 4e 36 02 03 71 34
       2.2113536e-06 -2.0483187e-06 3.0721003e-06 2.2445968e-07
000050 5b 14 17 b7 c1 ae 10 b7 b8 9f 40 b4 f7 d8 18 b7
       -9.005041e-06 -8.623757e-06 -1.7939499e-07 -9.110422e-06
000060 f1 35 74 34 0b 03 13 37 c6 d5 13 36 4c 0c 5e b5
       2.2743895e-07 8.762591e-06 2.202914e-06 -8.271934e-07
000070 59 12 8b 35 6a 4a 02 b6 e5 34 8c 35 55 24 9c 35
       1.0361647e-06 -1.9414824e-06 1.0446207e-06 1.163348e-06
000080 a3 4c 90 35 cb d5 00 b6 5c 4a 25 36 94 34 59 b6
       1.075114e-06 -1.919793e-06 2.4630199e-06 -3.2366124e-06
000090 6e 9a 44 b6 14 40 38 34 de 5d 9a 35 f7 e7 11 36
       -2.9296166e-06 1.7159647e-07 1.1501213e-06 2.1741705e-06
0000a0 f4 26 00 36 39 03 13 36 37 3d 12 36 de 2b 9e 35
       1.909616e-06 2.1906583e-06 2.1791327e-06 1.1784684e-06
0000b0 a5 55 1b 36 c5 47 91 35 91 8e 06 b6 97 41 8c 34
       2.3146652e-06 1.082423e-06 -2.005054e-06 2.6124755e-07
0000c0 98 cc a7 36 21 b2 00 36 d3 a3 93 b5 22 40 05 b6
       5.0008057e-06 1.917717e-06 -1.1000033e-06 -1.9855875e-06
0000d0 38 c9 9a b5 ed d6 39 b6 1e 89 06 b6 08 42 47 35
       -1.1532456e-06 -2.7692251e-06 -2.0047369e-06 7.4229365e-07
0000e0 5b 69 27 b6 2e 22 97 b5 27 dd fa b5 4f f7 89 35
       -2.4946264e-06 -1.1260324e-06 -1.8690815e-06 1.0279272e-06
0000f0 0e a9 0a b6 d9 c2 eb 35 01 5f 6a 36 cb d4 a2 b5
       -2.0662005e-06 1.7565573e-06 3.4924017e-06 -1.2131871e-06
000100 ce 35 b2 35 61 b1 8d 36 c2 a2 ff b5 fc d3 a6 b5
       1.3277693e-06 4.222777e-06 -1.9046349e-06 -1.2429659e-06
000110 1d 60 97 b5 ce 66 09 36 ad 5c 91 33 d1 25 f1 b5
       -1.1278349e-06 2.047443e-06 6.768946e-08 -1.7966905e-06
000120 47 5f ae 35 80 b6 1b b6 da b1 8c 35 db 80 8e 35
       1.299174e-06 -2.3203029e-06 1.0482574e-06 1.0617326e-06
000130 82 be 6f b6 60 4f ef 35 d9 c0 3e b5 d2 e7 8c 35
       -3.5724665e-06 1.7829989e-06 -7.1061146e-07 1.0498281e-06
000140 31 52 39 b6 a6 8c 87 b5 61 83 94 b5 55 8c 82 b5
       -2.761499e-06 -1.0099218e-06 -1.1065096e-06 -9.726597e-07
000150 ec b5 8a b5 7c 32 5f 34 4c be 06 b6 b3 ab 62 b6
       -1.0334747e-06 2.078686e-07 -2.0078323e-06 -3.3776566e-06
000160 4a 43 25 b6 7e fc 94 b5 17 5c 3d b4 da dd 59 b4
       -2.4626083e-06 -1.1100344e-06 -1.7635499e-07 -2.0290409e-07
000170 e6 64 76 36 31 86 0e b7 d0 70 b6 b5 35 a8 be 34
       3.6715587e-06 -8.495103e-06 -1.359289e-06 3.5512645e-07
000180 01 27 24 b4 5c a5 92 b5 87 bb 42 36 94 cd ff 35
       -1.528788e-07 -1.0925974e-06 2.9017408e-06 1.9058812e-06
000190 73 8c 71 36 51 d6 86 b5 3b 79 8a b5 88 67 78 b5
       3.599355e-06 -1.0046152e-06 -1.0317084e-06 -9.253786e-07
0001a0 33 92 31 b6 5f 2b 99 b5 a3 4b 8c b5 1d 40 6f 34
       -2.6460154e-06 -1.1412011e-06 -1.0452826e-06 2.2281934e-07
0001b0 f2 1f 0f 37 84 9f 13 b6 a6 d1 0f 36 47 6d 6c 35
       8.530902e-06 -2.1997557e-06 2.1430692e-06 8.807587e-07
0001c0 06 52 14 36 ca 40 42 b6 39 d7 82 35 73 de 16 37
       2.2101462e-06 -2.8945965e-06 9.748393e-07 8.99249e-06
0001d0 65 8a 9f b5 1f ee f8 b4 f6 2d 00 36 6f 2d 04 b6
       -1.1886701e-06 -4.6366856e-07 1.910024e-06 -1.9695979e-06
0001e0 95 fc 03 35 5e b3 3e 36 ef 7a 48 34 10 1f 8d 35
       4.916886e-07 2.8416612e-06 1.8671174e-07 1.0514359e-06
0001f0 58 05 35 34 29 8a 4f b5 89 1c 2e b6 c9 d4 8d 35
       1.6858883e-07 -7.731456e-07 -2.594463e-06 1.0567247e-06

b_classifier.q.2.weight f4 [128, 128]
000000 4e dd 0f b6 79 ea bb b5 c5 15 1f 37 97 3c 07 36
       -2.1437477e-06 -1.4000826e-06 9.482207e-06 2.0151836e-06
000010 d6 70 07 b6 d0 b0 90 b6 d5 89 88 35 f5 01 55 35
       -2.0182247e-06 -4.312118e-06 1.0172904e-06 7.935153e-07
000020 4a d4 fe b5 1c cc 8e b5 8b f6 25 b6 44 e4 57 35
       -1.8986259e-06 -1.0639228e-06 -2.4730423e-06 8.042591e-07
000030 86 2d 64 b6 76 90 83 36 ef 16 bf b3 77 c9 d7 b4
       -3.4001146e-06 3.9209217e-06 -8.898302e-08 -4.0193456e-07
000040 e6 44 4b 35 4d 25 01 b4 fb 83 83 b6 67 8c 8c b5
       7.5723653e-07 -1.2027631e-07 -3.919469e-06 -1.0471675e-06
000050 a4 cf 27 36 7e 89 80 b5 f3 16 18 b6 26 3b 83 35
       2.5005802e-06 -9.576759e-07 -2.2663123e-06 9.777475e-07
000060 a4 4a 97 b5 7b 44 8b b5 81 c0 9c b5 ba c6 90 b5
       -1.12721e-06 -1.0376237e-06 -1.1678932e-06 -1.0786673e-06
000070 41 47 26 b6 b9 99 82 b6 d6 86 8a b5 7a 2e 17 b6
       -2.4777403e-06 -3.8921976e-06 -1.0321044e-06 -2.2527806e-06
000080 ed fa f8 35 79 44 7d 35 ac 7d 8c b5 e2 6f 52 35
       1.8550469e-06 9.4349485e-07 -1.0467388e-06 7.839391e-07
000090 5f e4 90 35 e1 0f 45 35 ae 8f 1c b6 24 a1 80 b5
       1.0795301e-06 7.3411326e-07 -2.3329444e-06 -9.583641e-07
0000a0 77 fb 04 36 95 76 57 35 87 4e 76 b4 fc 93 8e b6
       1.9815905e-06 8.02663e-07 -2.2939103e-07 -4.2491574e-06
0000b0 33 75 fd 35 00 38 b2 35 54 fd 92 35 79 c2 fa b5
       1.8884078e-06 1.3278332e-06 1.0951576e-06 -1.868305e-06
0000c0 3e 57 83 b5 ef 76 96 35 9a 28 08 b6 12 0f 3d b5
       -9.785651e-07 1.1210485e-06 -2.0289212e-06 -7.0429917e-07
0000d0 9a e4 97 b5 3f a1 14 b6 78 6e 12 b5 3f 55 ef b5
       -1.1316909e-06 -2.2147576e-06 -5.454999e-07 -1.7831698e-06
0000e0 4a 2e 83 b5 82 00 35 b4 be 44 16 36 16 69 1b 36
       -9.773732e-07 -1.6857123e-07 2.2391755e-06 2.3157968e-06
0000f0 35 bb 8c 35 eb af 3c b6 b1 42 00 b6 c8 5e a7 36
       1.0485297e-06 -2.811658e-06 -1.9112306e-06 4.988022e-06
000100 42 e7 25 b7 48 2a 12 35 83 c4 8f b5 17 88 8d b6
       -9.88861e-06 5.4450766e-07 -1.0711523e-06 -4.2179704e-06
000110 4c 9e 44 36 23 35 61 b6 ae 44 88 b5 8e 4d 0a b6
       2.9298417e-06 -3.3558542e-06 -1.0152778e-06 -2.0608745e-06
000120 5e 8d 4b b6 b6 0c ec 36 75 d6 13 36 a2 a7 07 b6
       -3.0331644e-06 7.034828e-06 2.2029537e-06 -2.0214143e-06
000130 c4 f8 8c 35 21 c0 e9 35 f9 6f 1f 36 e8 93 9d 35
       1.0503213e-06 1.741577e-06 2.3758023e-06 1.1740458e-06
000140 3d 70 1e 36 73 91 8e 35 41 dd 9c b6 42 e3 85 b5
       2.3609166e-06 1.0622156e-06 -4.6749196e-06 -9.975413e-07
000150 a0 33 07 b6 b9 8c 90 b5 25 08 58 b4 ca 29 01 b6
       -2.0146617e-06 -1.0769792e-06 -2.011953e-07 -1.9246822e-06
000160 bf 37 17 b6 45 17 76 34 03 22 8a b5 bf bc ba b4
       -2.2533202e-06 2.2919001e-07 -1.02917e-06 -3.478253e-07
000170 6d 33 89 b5 20 12 67 b5 b6 05 82 b5 f0 45 26 36
       -1.0222262e-06 -8.608058e-07 -9.687417e-07 2.4776637e-06
000180 d3 c5 ca b4 8b 75 1a 35 60 9b 00 b6 48 fb 32 36
       -3.7769368e-07 5.754052e-07 -1.9163926e-06 2.6670332e-06
000190 d4 0f 7d b5 73 26 2c 36 7a 87 02 b6 6c 8e 10 b6
       -9.427288e-07 2.5652378e-06 -1.9450367e-06 -2.1540573e-06
0001a0 32 f8 16 36 3f 81 26 36 c8 74 42 b6 da 4b 59 b6
       2.249621e-06 2.4811159e-06 -2.8976228e-06 -3.2379671e-06
0001b0 91 df 30 36 7a 78 f9 b5 bb c4 64 b5 36 d9 38 35
       2.6356176e-06 -1.8587009e-06 -8.52229e-07 6.8861425e-07
0001c0 93 39 03 b7 c0 4a 80 35 d7 e1 7f 35 0a e4 70 b6
       -7.8216135e-06 9.558498e-07 9.532354e-07 -3.5895523e-06
0001d0 c8 4a 6c b6 8b 41 7d b6 7d b5 84 b5 b4 49 05 b6
       -3.5210269e-06 -3.7738089e-06 -9.887586e-07 -1.9861445e-06
0001e0 48 0d 84 b5 05 1a 01 36 ed 2f 38 36 4d 15 0e b6
       -9.838632e-07 1.9237643e-06 2.7446033e-06 -2.1172048e-06
0001f0 f2 0a 79 b6 22 f4 81 b5 1c e2 24 36 a3 a4 25 b6
       -3.7110262e-06 -9.682301e-07 2.4569517e-06 -2.4682747e-06
000200 d6 ed 82 b5 3e 10 23 36 93 ec 91 b5 e1 2e 12 b5
       -9.754974e-07 2.4298347e-06 -1.0872194e-06 -5.4457456e-07
000210 ac e6 b1 36 7f 51 33 36 25 90 47 b5 33 c6 15 33
       5.301865e-06 2.6720516e-06 -7.4343035e-07 3.4872027e-08
000220 ef ed 90 b5 13 e0 72 b5 8c 52 89 b5 0b 70 96 36
       -1.0798084e-06 -9.0478096e-07 -1.023132e-06 4.483392e-06
000230 86 d6 09 36 bd 9a 23 36 75 02 a1 b5 2f d9 32 36
       2.053946e-06 2.4378962e-06 -1.199615e-06 2.6650484e-06
000240 11 9e 4c 35 6c 4f 9b b5 e9 58 e1 34 8a f6 c8 35
       7.622594e-07 -1.1571515e-06 4.1974207e-07 1.4972914e-06
000250 0d be 40 35 99 43 14 36 8a 3d 21 37 9b 61 1e 36
       7.1802134e-07 2.2093066e-06 9.610676e-06 2.3600649e-06
000260 c4 60 97 34 da d1 89 36 cd a9 0a 36 51 3a 29 36
       2.8196348e-07 4.107348e-06 2.066244e-06 2.5216907e-06
000270 8b 69 07 b6 3b e6 a0 35 a7 d2 14 36 14 a0 95 35
       -2.0178002e-06 1.1987935e-06 2.2176334e-06 1.1147954e-06
000280 d5 ed 3e 36 79 ef 62 b6 34 d6 13 b6 be 95 8b b5
       2.8450643e-06 -3.3816016e-06 -2.202939e-06 -1.0399888e-06
000290 5a 2a 80 35 4c b4 16 b6 7b aa 02 b5 13 36 8a 35
       9.549069e-07 -2.2456688e-06 -4.8676856e-07 1.0297539e-06
0002a0 86 81 44 35 50 1c 8d b5 23 ab 8b b5 1a 12 8c 34
       7.320417e-07 -1.0513559e-06 -1.0406114e-06 2.6090203e-07
0002b0 c6 85 11 b6 18 39 92 36 7f b2 94 b5 7b f7 5a b5
       -2.168455e-06 4.3577857e-06 -1.1078808e-06 -8.157146e-07
0002c0 2f 4e 5e b6 56 b4 65 b6 c7 9f 6b b6 90 6f 35 34
       -3.3126087e-06 -3.4228628e-06 -3.5110731e-06 1.6897525e-07
0002d0 67 03 0b b6 6d 35 d4 b6 f8 61 70 36 a6 fe 33 b6
       -2.0714594e-06 -6.324312e-06 3.5819812e-06 -2.6821303e-06
0002e0 97 04 2f b6 5c c5 98 b5 4a df 83 b5 58 74 8c b5
       -2.6079704e-06 -1.1382322e-06 -9.825246e-07 -1.0464673e-06
0002f0 18 66 10 36 1a 3c 8f 36 d1 62 93 b5 b4 d1 0b 36
       2.1517099e-06 4.268729e-06 -1.0981113e-06 2.0834677e-06
000300 9b 85 88 35 76 7a 81 35 03 2a d8 b4 fe 27 84 35
       1.0171674e-06 9.64689e-07 -4.0263703e-07 9.846406e-07
000310 a7 40 0b 35 81 10 cb 35 ce 73 9b 35 c2 e5 42 b5
       5.1875617e-07 1.5129482e-06 1.1582104e-06 -7.2604973e-07
000320 cb f0 80 b5 00 73 b2 b5 15 18 75 35 4a 3b 11 b6
       -9.606823e-07 -1.3295503e-06 9.1304656e-07 -2.1641195e-06
000330 33 a8 77 36 48 87 86 35 5c 57 de b5 60 55 16 b6
       3.6903773e-06 1.002315e-06 -1.6565714e-06 -2.2401437e-06
000340 61 5b e6 b5 af 8a 79 35 e1 63 28 36 06 27 20 b7
       -1.716293e-06 9.296154e-07 2.5092088e-06 -9.545829e-06
000350 6e f7 93 35 77 fa 13 36 cf b5 7b b5 df 22 8f b5
       1.1024365e-06 2.2050497e-06 -9.376935e-07 -1.0664479e-06
000360 72 74 44 b6 dc 8a 14 b6 1a 93 7b b6 e3 31 8c b5
       -2.9274056e-06 -2.2134545e-06 -3.748754e-06 -1.0445332e-06
000370 a2 1e 9a 35 df 8e bf b5 1b 04 2b b6 37 2a 0f b6
       1.148281e-06 -1.427219e-06 -2.5483375e-06 -2.1333233e-06
000380 03 6c 86 b5 fa a9 0d 36 93 ea 8c b5 fb a0 14 36
       -1.0015214e-06 2.1109577e-06 -1.0499083e-06 2.2147422e-06
000390 db a1 a1 35 ce 23 61 b5 65 31 0b 36 66 1f 23 36
       1.2042541e-06 -8.3871134e-07 2.0741365e-06 2.430717e-06
0003a0 b6 d1 01 36 04 b9 0b b6 8a b9 82 b5 5f 52 8e 36
       1.9344566e-06 -2.0820307e-06 -9.739754e-07 4.241519e-06
0003b0 36 cf 66 b6 1b f0 a9 b5 d4 c9 0a b6 8b 9e 5d 36
       -3.4393283e-06 -1.2661361e-06 -2.0681082e-06 3.302385e-06
0003c0 8d 2e 4c b4 a3 98 88 b5 c5 ac 34 b5 6e 22 88 b5
       -1.9015916e-07 -1.0177213e-06 -6.730664e-07 -1.014281e-06
0003d0 40 65 02 36 d0 23 e3 b4 6a 1b 03 36 09 95 97 b5
       1.9430445e-06 -4.2308102e-07 1.9536478e-06 -1.1293752e-06
0003e0 64 65 c1 b6 63 e4 22 36 ac ba 87 b5 ab 14 02 b6
       -5.7636516e-06 2.427282e-06 -1.0112612e-06 -1.938354e-06
0003f0 36 d2 14 36 eb b7 5c b6 cb ba 5a 35 da 71 97 b5
       2.2176077e-06 -3.288961e-06 8.148315e-07 -1.1283512e-06

b_classifier.q.2.bias f4 [128]
000000 f6 a8 15 36 80 08 b3 35 41 29 01 36 66 e5 1e 36
       2.2301078e-06 1.3339013e-06 1.924651e-06 2.3677362e-06
000010 70 93 11 36 7d 60 02 36 b9 c9 8b 35 e0 f0 35 b6
       2.1692504e-06 1.9427673e-06 1.0415016e-06 -2.711131e-06
000020 96 e8 8e b5 30 d8 0b b6 e8 d8 fc b5 75 f6 96 35
       -1.0647516e-06 -2.0838452e-06 -1.8838591e-06 1.1247599e-06
000030 97 16 26 36 14 6a 12 34 6a cf f6 35 0f 6f 33 b6
       2.4749077e-06 1.36359e-07 1.8388794e-06 -2.6737723e-06
000040 4f 6a e6 b6 aa 5d e1 b5 2f 0b 18 36 31 6e e8 33
       -6.86691e-06 -1.6791066e-06 2.2656275e-06 1.08233856e-07
000050 16 f1 1e b6 68 9a 88 36 5f 5d 93 b5 79 bb 94 b5
       -2.3684165e-06 4.071091e-06 -1.0979528e-06 -1.1081421e-06
000060 c2 29 f1 b5 9b 46 06 b6 33 2c 04 b6 ac fb 1e 37
       -1.7968052e-06 -2.0008654e-06 -1.969526e-06 9.476131e-06
000070 30 43 8b b5 46 81 34 36 89 d6 7f b4 56 32 c0 b5
       -1.0375861e-06 2.6897337e-06 -2.3826773e-07 -1.4319764e-06
000080 aa de 7a b3 ac 3e 81 35 0e 2c da b6 df c1 6a b6
       -5.8410173e-08 9.629489e-07 -6.502035e-06 -3.4981565e-06
000090 13 ce 3d 36 33 4b 13 b6 ed 1c a2 35 59 9d 86 b5
       2.8283146e-06 -2.1948479e-06 1.2078359e-06 -1.0029572e-06
0000a0 f6 80 a2 b5 e4 48 a0 35 61 5e 87 b5 96 8b 03 36
       -1.2107473e-06 1.1942143e-06 -1.0085752e-06 1.960177e-06
0000b0 5c 5d a4 35 c2 6c f2 b4 46 77 79 b6 81 62 00 b6
       1.2246123e-06 -4.5155144e-07 -3.7173318e-06 -1.9130823e-06
0000c0 ec 5e 7a b5 3e 14 90 b5 03 ff 8c b5 6c a5 8a b6
       -9.3270387e-07 -1.0734727e-06 -1.0505031e-06 -4.131978e-06
0000d0 37 a1 1b b6 f0 8c 9c 35 3e 1b be b5 27 29 63 b6
       -2.319064e-06 1.1663924e-06 -1.4164032e-06 -3.384959e-06
0000e0 08 00 21 36 36 a4 3c 36 59 4e 87 35 19 9d 22 36
       2.3990888e-06 2.8109766e-06 1.0081086e-06 2.4231324e-06
0000f0 e4 4e 6e b6 df 86 92 35 db 60 01 b6 c7 e0 17 b6
       -3.5510684e-06 1.09171e-06 -1.9278875e-06 -2.263159e-06
000100 cf e4 8c b5 88 d3 d2 36 14 1e 0e b6 02 90 63 36
       -1.0497405e-06 6.283113e-06 -2.1177157e-06 3.390946e-06
000110 ef 6e 01 36 40 65 05 36 9e d4 0e 36 e1 ec 8a 35
       1.928707e-06 1.987748e-06 2.1283408e-06 1.0350742e-06
000120 46 dd 95 b5 8e d3 e9 35 f1 68 d7 b5 21 3d 97 35
       -1.1165764e-06 1.7421423e-06 -1.604929e-06 1.1268168e-06
000130 36 d2 d8 b5 4e 51 6f b6 b7 0a 9b b6 eb 32 79 35
       -1.6154434e-06 -3.56611e-06 -4.6206073e-06 9.2833824e-07
000140 c1 2e 1d b7 a6 17 c3 b5 f5 be 03 36 b9 3c 87 b5
       -9.368815e-06 -1.4535515e-06 1.9631673e-06 -1.0075956e-06
000150 e7 00 21 b7 2c a4 85 b5 f4 b7 1b b6 66 8a 02 36
       -9.596558e-06 -9.957052e-07 -2.3203875e-06 1.9452068e-06
000160 0e 23 2b b6 f7 c1 30 b5 47 e7 10 b5 3e 00 02 b6
       -2.550139e-06 -6.5847365e-07 -5.3980733e-07 -1.937165e-06
000170 68 46 16 36 9c 47 08 36 4c 68 1b 35 59 4b 72 b6
       2.2392724e-06 2.0307261e-06 5.789377e-07 -3.6104668e-06
000180 50 e8 1f b6 03 46 5b b5 b6 79 17 b6 35 e6 1b 36
       -2.382807e-06 -8.168574e-07 -2.2571598e-06 2.3230798e-06
000190 1c 7b 3b b6 74 94 97 b5 69 c5 12 b6 88 c2 39 b6
       -2.793683e-06 -1.1293582e-06 -2.1870603e-06 -2.768038e-06
0001a0 27 5c 0b b6 81 07 10 37 06 18 4c 36 a9 67 35 b6
       -2.0766254e-06 8.584816e-06 3.0412352e-06 -2.703144e-06
0001b0 26 d9 00 36 64 bd 86 b5 dd 1e ff 35 eb e3 03 37
       1.9199883e-06 -1.0038898e-06 1.9007963e-06 7.861275e-06
0001c0 fc 62 86 b5 f6 89 00 36 a5 e6 94 b5 68 be 8e b6
       -1.0012586e-06 1.915379e-06 -1.1093986e-06 -4.254096e-06
0001d0 2f 02 50 35 25 cd 18 36 bc 33 6e b5 7c 43 37 b5
       7.7489216e-07 2.2769175e-06 -8.873719e-07 -6.8271015e-07
0001e0 37 ca 4f b4 27 a3 90 b5 2a 2f 11 b6 58 81 1c b6
       -1.9351943e-07 -1.077632e-06 -2.1634137e-06 -2.33211e-06
0001f0 2d c1 3d 34 24 25 35 36 5a be 29 b4 fa 12 f2 b5
       1.7672274e-07 2.699272e-06 -1.5808601e-07 -1.8035928e-06

b_classifier.fcc.weight f4 [2, 2, 768]
000000 3a c5 3d bb 64 8c cd 3b 56 37 aa bb e1 ce 11 bd
       -0.0028956668 0.0062728394 -0.005194585 -0.035597686
000010 0f f9 9b 3c 6d a7 a8 3c 8e 99 1c 3d 10 13 2e bd
       0.019039659 0.020587647 0.03823238 -0.04249865
000020 b3 e4 a8 ba 9a 49 5e bd 65 28 3f 3c b0 7e c4 3b
       -0.001288554 -0.05426941 0.011667346 0.0059965476
000030 d1 db 51 3c 03 42 e7 bc e7 80 94 3b 04 3f cb 3c
       0.012808756 -0.028229719 0.004531968 0.024810322
000040 aa be 0e bc 9a 65 c8 3b 99 12 06 3d 0a 87 2e bd
       -0.00871245 0.0061156275 0.03273258 -0.042609252
000050 7b ac b8 ba 77 b1 48 3b 3a 36 02 ba bf 16 cc 3b
       -0.0014089489 0.0030623355 -0.0004967187 0.0062282975
000060 60 ab 1b bb b8 f8 40 bd db d6 7c 3b 61 92 d7 3c
       -0.002375327 -0.047112197 0.0038580212 0.026314916
000070 a8 3c c7 3c 93 4c 82 bc 11 fb a4 bb 52 10 f3 39
       0.024320915 -0.015905654 -0.0050348123 0.0004636073
000080 3c 74 d0 3b 82 a6 e4 bc ae 01 c1 3c dd 34 ab bc
       0.0063615125 -0.027911428 0.023560371 -0.02089923
000090 c4 5a c7 bb 46 82 9b bc 43 00 fb bb 29 39 25 3c
       -0.006083818 -0.018983018 -0.0076599433 0.010084429
0000a0 87 27 f5 3a 04 c4 19 3b 2b b0 e7 bc aa 0d bb 3c
       0.0018703797 0.0023462782 -0.028282246 0.022833664
0000b0 a0 83 d5 bc 72 c6 12 3c 6d ff 21 39 e2 a1 80 3c
       -0.02606374 0.008958446 0.0001544931 0.015702192
0000c0 0c 4a 24 bc 8f 91 3b bd 6a 46 2f 3c d2 72 72 3c
       -0.01002742 -0.045793112 0.01069794 0.014797883
0000d0 b1 4e aa bc c5 81 5f bc cf 3d bd 3c 84 db f8 bc
       -0.020789476 -0.013641779 0.023100762 -0.03037811
0000e0 39 de b4 3c f6 8b 09 3c 02 c9 06 bd 80 d9 7f 3c
       0.02207862 0.008395186 -0.03290654 0.015615821
0000f0 78 f2 e8 3b fd b5 a6 bc f9 91 53 bb 8f 9a 8e bc
       0.0071089827 -0.02035045 -0.0032283051 -0.017407684
000100 f9 ff 27 bc 81 b8 3a ba c6 1c 69 bb 4f d2 07 bd
       -0.0102539 -0.000712283 -0.0035570129 -0.03315955
000110 db fc a3 39 02 22 9d 3b 7c cc e9 3c 3d f2 de 3b
       0.00031278175 0.004795314 0.028539889 0.0068037794
000120 1e cc 08 3d 15 08 71 bb 59 15 24 3c 41 99 e8 bc
       0.033397786 -0.00367785 0.010014855 -0.02839339
000130 54 9f 3c ba 8b e9 0e bc 25 ce 72 bc cb 23 73 3c
       -0.00071953726 -0.008722673 -0.0148196565 0.014840077
000140 fb b8 d0 bc 34 4b 55 3d 1d 51 c4 3b 58 85 ed 3c
       -0.02547883 0.052073672 0.005991115 0.028994247
000150 a1 4c c1 b9 3b 6e f3 bc cb f2 3a 3c 7c 3a 10 bd
       -0.00036868922 -0.029715648 0.011410425 -0.035212025
000160 5a 4e da 3c 41 d4 b9 3c d4 d9 0b 3d 1c 99 67 3b
       0.026648689 0.022684218 0.034143284 0.0035339063
000170 9c 9d fe 3b 28 29 05 bc a1 68 17 bc a7 e5 33 3c
       0.0077702533 -0.008127488 -0.009241254 0.010980046
000180 e8 27 80 bc fd ae 12 3c 40 48 ff bb e9 76 9c bb
       -0.015644029 0.008952853 -0.0077905953 -0.0047749174
000190 8c 7e 9e 3b 96 47 ac bc 78 4b a2 39 75 62 4f 3d
       0.004836863 -0.021030229 0.00030955276 0.050631005
0001a0 da 32 40 bc 82 3b e3 3b df f3 b9 3c 5f 05 59 3c
       -0.011730874 0.006934584 0.022699295 0.0132459095
0001b0 78 70 72 3c f6 e6 8b 3c 83 bc b9 bb 2f 8c 0e bc
       0.014797322 0.017077904 -0.0056682243 -0.008700415
0001c0 e1 9f a8 3c 7d 78 fd bb 0a d1 cf bc a2 d9 ca 3c
       0.020584049 -0.0077353106 -0.025368232 0.024761979
0001d0 46 73 12 bd 0a 28 d6 bc e3 54 c0 3c ea 1e f5 3c
       -0.035754465 -0.026142139 0.023477977 0.029921968
0001e0 44 66 5b ba ef 18 01 bd 7b bd 96 bc f3 5d 08 bb
       -0.0008369426 -0.03151792 -0.018400898 -0.0020807951
0001f0 0a b0 3a bc 69 48 5d 3c 7a b0 04 3d 9d 64 55 bd
       -0.01139451 0.013506033 0.032394864 -0.052097905
000200 3e 9a ca 3c f3 c5 3b 3b 53 bd 47 3d 24 fa 22 bc
       0.024731752 0.0028651922 0.048764538 -0.0099473335
000210 dc b7 c3 bb 93 22 f2 3a 4f e8 da 3a 4e bd c5 3c
       -0.0059728455 0.0018473439 0.0016701313 0.02413812
000220 b6 40 ab bc 2b 97 e1 bc a8 f3 fc bc e8 06 9f 3c
       -0.02090488 -0.027537903 -0.030877903 0.019412473
000230 ee 59 ca bc 4a e3 75 3c c5 dc fa bb e6 8f 67 3a
       -0.024701085 0.015007803 -0.0076557123 0.0008833393
000240 0f 13 d7 bb e5 3f cd bc a8 f4 ce 3c 88 61 78 bc
       -0.0065635513 -0.025054881 0.025263146 -0.015159972
000250 72 7c c6 bc 86 23 34 3d 8b 1d 47 3d c7 18 8a bb
       -0.024229262 0.04397919 0.04861216 -0.0042143795
000260 3f b9 90 bc c0 fc ca bc ee 86 38 bb 70 28 ee 3b
       -0.017666457 -0.024778724 -0.0028156596 0.007268004
000270 6e 80 35 3c 75 8e 8b bc b5 1c 25 3c f0 26 8d bc
       0.011077983 -0.017035702 0.010077645 -0.01723048
000280 65 53 da 3c 18 cc 19 bc b3 42 40 bd f0 84 bc bc
       0.026651094 -0.009387039 -0.04693861 -0.023012608
000290 08 e7 58 bc d3 1f 08 bc 57 79 b6 3b 83 30 4c 3d
       -0.013238676 -0.008308369 0.005568664 0.049850952
0002a0 5f 13 18 bd f8 91 4c bd fe 72 1a bd 2f 53 eb 3c
       -0.03712785 -0.049943894 -0.03770732 0.028726188
0002b0 a8 a8 9f 3c 59 26 84 3c 03 61 03 bd 9d 3b 8f 3a
       0.019489601 0.016131567 -0.03207494 0.00109278
0002c0 c4 5b 63 3b ef c2 d3 3c 3d 4b a7 bc ab 20 f6 3b
       0.0034692148 0.025849788 -0.020421619 0.0075112185
0002d0 2b 66 2b 3b 2a f5 fd bc cf 1f f0 3b 37 4c 33 bd
       0.0026153426 -0.031000692 0.0073280106 -0.043773856
0002e0 71 1e 05 3c 02 0e 3b 3a 69 ec ec bb d1 f8 61 3c
       0.008124934 0.0007135571 -0.0072303307 0.013792233
0002f0 fe ba 12 bc f3 07 e2 3c 7f 2f 1f bc aa 28 34 bc
       -0.008955715 0.027591681 -0.009715914 -0.010996023
000300 44 11 af bc 9b b6 78 3c c4 b8 9f ba 99 57 05 3c
       -0.021370538 0.015180255 -0.0012185802 0.008138561
000310 f9 29 01 3d ae c7 7e bc ec 2b 9f bc 35 f5 f3 bc
       0.03153417 -0.015550537 -0.019430123 -0.02978001
000320 a8 d8 25 3c 4e e8 81 3c a7 39 ea ba c8 72 1f 3d
       0.010122456 0.015857842 -0.0017869965 0.038927823
000330 f9 62 9a bc 04 d7 8d 3d 06 20 f7 3c 82 d5 80 bc
       -0.018846022 0.069257766 0.030166637 -0.015726808
000340 d4 a1 96 3c 49 cc 3c bd 49 3a bc bc 38 65 29 3d
       0.018387713 -0.04609326 -0.022977011 0.041356295
000350 cd 7a 2f 3c 12 32 9b 3c 52 7c 4c bc 21 89 cf bc
       0.01071043 0.018944774 -0.012480812 -0.025333943
000360 ae ab b0 bb 79 b7 9b bc 24 81 68 bd 39 26 8a bc
       -0.0053915596 -0.019008385 -0.056763783 -0.01686393
000370 a2 f5 eb bb aa 0f 3d bc b1 e0 16 bb e9 24 9f bc
       -0.0072009126 -0.011539379 -0.002302211 -0.01942678
000380 07 e5 9c ba de 88 5b 3b 27 8c 2b 3c 7a 7f 41 3b
       -0.0011970111 0.0033498327 0.010470427 0.0029525445
000390 81 d1 85 bb 8c 37 f1 3c 6e 5f 33 3d 97 10 1a 3d
       -0.0040838127 0.029445432 0.04379218 0.037613478
0003a0 5c 0d 15 3c 2a d2 7b 3c 22 60 13 bc 73 8f dc bb
       0.009097423 0.015369931 -0.008995088 -0.0067309677
0003b0 0f bb e6 3b 29 21 80 bb 0f 7e 2e bc 7f 68 17 bd
       0.007041342 -0.003910203 -0.010650172 -0.03696489
0003c0 88 fa ca 3c 7b 63 c7 3b dc 7d 86 38 5f 81 1e 3d
       0.024777666 0.006084857 6.413061e-05 0.038697597
0003d0 6c c0 f6 bc 10 e8 ff bc 0d f2 29 3d 85 a6 84 3c
       -0.03012105 -0.031238586 0.041490603 0.016192684
0003e0 fd 69 d6 ba 7d fe e4 3b 78 04 2b 3d 50 73 05 3c
       -0.0016358491 0.006988345 0.04175231 0.008145168
0003f0 74 d1 03 3d cf 9e 7f 3c ca 84 74 bd b3 55 00 bd
       0.032182172 0.015601828 -0.05969695 -0.03133173

b_classifier.fcc.bias f4 [2]
000000 45 c6 41 39 01 52 93 ba
       0.00018479775 -0.0011239649
