mil/weights/20241120/fold_0_4.pth (torch, 481804 bytes, 8 tensors)

i_classifier.fc.0.weight f4 [2, 768]
0.04837134 -0.06220916 0.012180453 -0.02162446 0.0014405324 -0.01166041 0.025512544 0.004004763
0.07417278 -0.027808579 -0.086921245 0.021827439 -0.013862769 0.02495206 0.0045932215 -0.031780634
-0.0004369603 -0.016192788 0.03886672 0.038793985 -0.1046288 -0.035018682 0.018034903 -0.0048251892
0.033598494 -0.044728346 -0.06488793 0.038151037 -0.04166336 0.043502335 -0.040718198 -0.041601885
-0.004045819 -0.06402287 -0.018798724 -0.021245625 -0.04056361 -0.00061449804 0.00975967 -0.043053117
0.0062293247 0.017211141 0.040762644 -0.032326985 -0.051431533 -0.043998767 -0.10428827 -0.0051083406
0.04473008 0.03961035 -0.028655991 -0.070403226 -0.044928115 -0.01898786 0.040149868 -0.033874653
0.020060241 -0.053517792 -0.0027724504 -0.0406543 0.028747339 0.047658652 0.04719814 0.007555697
0.023929313 -0.0023763308 -0.044809144 -0.019885376 -0.007990321 -0.018624807 -0.03660133 -0.05663792
-0.0060789892 -0.0028473425 -0.015392643 -0.02127165 0.010829285 -0.010050176 0.003589672 -0.0070601916
-0.011638159 -0.01550415 -0.054680057 -0.011160467 -0.017004818 -0.06653041 0.039533526 0.057693157
-0.04755876 0.00862227 0.01327116 0.07115018 -0.06202473 -0.005882003 -0.08346272 0.09640808
0.050017178 0.066698395 -0.03160633 0.025473112 0.016186405 0.009938267 -0.02383503 0.023571448
-0.027899569 -0.01648457 -0.013130981 0.050493903 0.0037422422 -0.027000487 0.01698989 0.018033005
0.025201343 -0.023002822 0.057250667 0.01779551 -0.011772522 -0.029159276 0.07742278 0.021218395
-0.0647273 -0.04427109 -0.0068857525 -0.041588437 0.01495835 -0.008584067 0.03316108 0.075882226
0.023789149 -0.009319872 0.00070970785 -0.066896625 -0.0042516547 -0.015802316 -0.022560624 0.011028849
-0.009968697 -0.018957581 0.05121259 0.044347323 -0.037368137 0.0037945416 -0.03056217 -0.05910526
0.03138571 5.0769126e-05 0.0011422996 -0.007984205 -0.03435546 0.06290949 0.008130919 -0.047605667
0.016356388 -0.02375892 0.033168513 -0.019478448 0.017255208 -0.019461261 0.010285902 -0.02406399
0.10072141 -0.007959738 -0.034449328 -0.0022642335 -0.040342625 0.025303181 0.0089865895 -0.012421198
0.036468968 0.05257318 0.0038872017 -0.034329474 -0.052110374 -0.007101652 0.026506975 0.017478965
0.050825756 0.0051265475 0.059761494 -0.0128721 0.038080994 0.029702123 0.03901256 0.04472305
0.0069577433 -0.010212288 -0.013322795 0.047043145 0.02624317 -0.047771204 0.047798168 0.042541385
-0.023496846 0.0065327524 0.051126394 -0.035881683 0.020419601 -0.039928574 -0.012472304 -0.059874356
0.010028481 0.029196542 -0.073227905 0.0551353 -0.020236447 -0.0010594485 0.0043789125 -0.0606395
0.03237615 0.048067357 -0.008684651 -0.031717278 -0.0020557453 0.052104328 0.011043346 -0.0048567806
-0.06201434 0.04867968 0.034401923 0.020688508 0.03925372 0.06013014 0.07204197 0.0026742811
0.033233214 0.0134327505 0.0012172958 0.02833664 -0.03232831 0.030665714 -0.030066714 -0.0774508
0.0052135047 0.008686945 0.0038327246 0.0015753171 0.06768894 -0.03430033 0.030617492 0.024234775
-0.010782198 -0.019065028 0.0083126435 -0.014796045 -0.026501693 -0.023604913 -0.00039930004 0.06554921
-0.0058365935 0.016673014 0.041819196 -0.0029753358 -0.01324233 0.024828117 0.0446899 0.044961307
00000000: 0721 463d 08cf 7ebd 8690 473c c825 b1bc
00000010: 3fd0 bc3a 4e0b 3fbc afff d03c 633a 833b
00000020: e6e7 973d d1ce e3bc c403 b2bd 75cf b23c
00000030: ab20 63bc 4368 cc3c bc82 963b 692c 02bd
00000040: d217 e5b9 bda6 84bc b632 1f3d 71e6 1e3d
00000050: a047 d6bd c06f 0fbd efbd 933c 9f1c 9ebb
00000060: 939e 093d 1235 37bd f7e3 84bd 4344 1c3d
00000070: 33a7 2abd 812f 323d 20c8 26bd bd66 2abd
00000080: ca92 84bb 6c1e 83bd c8ff 99bc 4e0b aebc
00000090: 0726 26bd 4416 21ba 06e7 1f3c 7758 30bd
000000a0: 5d1f cc3b 61fe 8c3c bbf6 263d 4d69 04bd
000000b0: dfa9 52bd 0d38 34bd 1795 d5bd de63 a7bb
000000c0: e336 373d 763e 223d f8bf eabc 912f 90bd
000000d0: 8b06 38bd 6e8c 9bbc 3074 243d 26c0 0abd
000000e0: 6055 a43c 7935 5bbd 00b2 35bb 2085 26bd
000000f0: 8a7f eb3c b835 433d d652 413d c895 f73b
00000100: 6807 c43c 37bc 1bbb cb89 37bd a8e6 a2bc
00000110: d6e9 02bc 0d93 98bc 47eb 15bd 2afd 67bd
00000120: 4232 c7bb 7b9a 3abb 6d31 7cbc e241 aebc
00000130: 506d 313c 7ea9 24bc b440 6b3b 2e59 e7bb
00000140: faad 3ebc 1e05 7ebc 32f8 5fbd 64da 36bc
00000150: b04d 8bbc 1841 88bd e8ed 213d a94f 6c3d
00000160: f9cc 42bd 6c44 0d3c 486f 593c 30b7 913d
00000170: a50d 7ebd d1bd c0bb 81ee aabd 9971 c53d
00000180: d0de 4c3d 2b99 883d a475 01bd fdac d03c
00000190: 5a99 843c 1dd4 223c ae41 c3bc e918 c13c
000001a0: a38d e4bc a60a 87bc 5323 57bc b2d2 4e3d
000001b0: 6840 753b 2030 ddbc 622e 8b3c f4b9 933c
000001c0: 0c73 ce3c 6a70 bcbc ad7f 6a3d e4c7 913c
000001d0: 89e1 40bc 6fdf eebc d68f 9e3d 33d2 ad3c
000001e0: bf8f 84bd 9a55 35bd e1a1 e1bb a358 2abd
000001f0: de13 753c 30a4 0cbc ead3 073d 2468 9b3d
00000200: 76e1 c23c 60b2 18bc b00b 3a3a 1901 89bd
00000210: 7751 8bbb dc73 81bc 0fd1 b8bc 58b2 343c
00000220: bf53 23bc ee4c 9bbc 4bc4 513d 8aa5 353d
00000230: 550f 19bd d8ad 783b 845d fabc 5b18 72bd
00000240: 4d8e 003d eff0 5438 37b9 953a 2fd0 02bc
00000250: 50b8 0cbd b1d6 803d 8c37 053c 29fe 42bd
00000260: d5fd 853c 11a2 c2bc b5db 073d 4491 9fbc
00000270: cb5a 8d3c 396d 9fbc 3386 283c d821 c5bc
00000280: 0747 ce3d 9069 02bc bd1a 0dbd 8963 14bb
00000290: 4f3e 25bd 9e48 cf3c 7d3c 133c 4882 4bbc
000002a0: 7c60 153d fa56 573d 6cc0 7e3b 109d 0cbd
000002b0: b071 55bd fab4 e8bb 2825 d93c 0c30 8f3c
000002c0: ab2e 503d 99fc a73b 78c8 743d 80e5 52bc
000002d0: d1fa 1b3d de51 f33c a2cb 1f3d 842f 373d
000002e0: c8fd e33b 7151 27bc da47 5abc 50b0 403d
000002f0: ebfb d63c bdab 43bd 03c8 433d e03f 2e3d
00000300: 757c c0bc b310 d63b e969 513d acf8 12bd
00000310: 0247 a73c 258c 23bd a258 4cbc d03e 75bd
00000320: 7f4e 243c 962d ef3c 83f8 95bd 8dd5 613d
00000330: e8c6 a5bc 31dd 8aba fb7c 8f3b 2061 78bd
00000340: db9c 043d 47e2 443d 114a 0ebc fae9 01bd
00000350: afb9 06bb 596b 553d 26ef 343c a125 9fbb
00000360: c002 7ebd 5864 473d 08e9 0c3d f27a a93c
00000370: 82c8 203d 064b 763d be8a 933d fe42 2f3b
00000380: 8d1f 083d 0a15 5c3c ab8d 9f3a 3e22 e83c
00000390: b16a 04bd aa36 fb3c 784e f6bc 869e 9ebd
000003a0: 0cd6 aa3b b053 0e3c 732e 7b3b df7a ce3a
000003b0: 80a0 8a3d 817e 0cbd 89d1 fa3c 0288 c63c
000003c0: d1a7 30bc 432e 9cbc c131 083c 1c6b 72bc
000003d0: 141a d9bc 175f c1bc 2559 d1b9 aa3e 863d
000003e0: e540 bfbb d895 883c 9b4a 2b3d dafd 42bb
000003f0: 5cf6 58bc 5664 cb3c c20c 373d 5929 383d

i_classifier.fc.0.bias f4 [2]
-0.0072612124 0.0034356285
00000000: 77ef edbb 4828 613b

b_classifier.q.0.weight f4 [128, 768]
-0.0035516615 0.003864888 0.03285746 -0.0017205289 0.0019747133 0.009895048 0.0016151463 -0.007854294
-0.009219735 0.0022520227 -0.0041471133 0.003160112 0.0073989364 -0.0044330503 0.0032152026 0.0018091614
-0.002881865 -0.00078740524 -0.004248303 -0.004979952 0.010726237 0.0043134405 0.004897306 0.0013473007
-0.008744754 0.006775357 0.0011672899 0.0063441363 -0.007569094 0.007357399 -0.0034409005 -0.0066996436
-0.0023231208 0.0042229528 -3.0798135e-05 0.008629282 0.0046375315 -0.010470765 -0.0040326314 0.0027624522
-0.0031844527 0.025492875 -0.008693377 -0.0042100656 0.0087056905 0.0015884563 0.0015872804 0.011060451
-0.0045471154 -0.008688645 -0.003643558 0.0044900565 -0.004833671 0.006927587 -0.0047668996 0.0018588456
-0.006504022 0.0036945078 -0.0017169525 -0.002891445 0.007559854 -0.006840256 0.004191326 0.003993897
-0.002266966 -0.020684008 0.0029884905 -0.0042798496 0.002555288 0.004132315 -0.0027396742 0.0017382397
-0.0013918033 0.003928306 0.009224715 0.0032981348 -0.0020755893 0.00446135 0.0032396282 -0.038578328
-0.008902855 -0.006394181 -0.0020737802 0.002051476 0.0033601797 0.009962017 0.0012563107 0.0036216793
-0.007979838 -0.005454333 -0.0010059446 -0.008586076 0.007284239 -0.0075366516 -0.00044526003 -0.00128074
-0.004579106 -0.0050947233 -0.005055245 -0.00092195405 0.00081465073 0.007888694 0.004396376 0.0006520745
0.0024356712 0.005155131 -0.0024447583 -0.0012624287 -0.002622802 -0.0018950221 0.0015637444 -0.00069025124
-0.004785509 0.0013618042 -0.007858993 -0.006095824 0.009510639 -0.003703545 0.006066981 0.004644116
-0.0025163032 0.0020600753 -0.0024599286 -0.00380779 -0.00087167235 0.003977606 0.004240049 0.008617223
-0.0022668287 -0.00054431206 0.007728245 -0.0046141995 0.0043046405 0.0048949006 0.0019071964 -0.003307111
-0.0043264017 0.0022140362 -0.0025419223 0.0026223396 0.002211095 -0.0053656586 -0.0025047343 -0.006451717
0.00074216793 0.0076933284 -0.006802938 -0.015581542 0.0012128848 -0.00973643 0.0024945193 0.0041591437
-0.0044814344 0.00013209917 -0.00075536896 -0.0020610166 -0.0005611151 0.004220127 0.008198534 -0.006940805
-0.006967717 0.0038339382 -0.0085868 -0.003638577 0.0040676403 0.0116815325 -0.00078858226 -0.006115461
0.0083028115 -0.019517653 0.0075013074 -0.001350573 -0.0011807533 0.0039297254 0.0023854543 -0.004646241
0.007973679 0.00071084057 -0.004721913 -0.0010584127 -0.019860357 0.00028328886 0.0077777123 0.004162846
-0.008250898 0.003093079 0.005217759 -0.015068312 -0.0058625904 -0.004946728 -0.0029439614 -0.0033023134
0.0063776923 0.011010215 0.0010605232 -0.0010324635 -0.023991404 0.0062844655 0.00048662676 -0.0049519166
0.0018033334 0.0056977947 -0.004016586 -0.004766895 0.001924603 -0.002643385 0.003485877 0.0072942046
-0.005694213 -0.006220293 -0.0040555242 0.006403962 -0.0023793492 -0.0012880625 0.001655819 -0.023082862
0.0012439513 -0.0046631983 0.012725432 0.0026257313 0.0014424308 -0.0007582153 -0.010696802 0.007282307
0.0021625557 -0.008170405 -0.0035949822 -0.0005586417 0.0061950246 0.026163163 -0.0064881113 0.010588285
-0.00040960714 -0.001836632 0.019043736 0.0025749027 -0.009280275 0.011220189 -0.0042064628 0.0024601524
0.0041503594 -0.0051141116 -0.0085728215 -0.005645344 -0.0025946854 -0.00929397 -0.0051268656 0.0030141175
-0.00085200765 -0.0017241263 -0.012056353 -0.00040104406 0.00077603065 0.008615271 0.011143527 -0.011158443
00000000: fec2 68bb 104a 7d3b 8b95 063d 5f83 e1ba
00000010: 316a 013b d71e 223c 51b3 d33a 4caf 00bc
00000020: 5f0e 17bc ac96 133b 82e4 87bb e219 4f3b
00000030: c772 f23b 1f43 91bb 26b6 523b 6221 ed3a
00000040: acdd 3cbb df69 4eba 5935 8bbb dd2e a3bb
00000050: 19bd 2f3c c357 8d3b 9579 a03b e997 b03a
00000060: 2846 0fbc d003 de3b c0ff 983a 79e2 cf3b
00000070: 2a06 f8bb 5616 f13b bb80 61bb af88 dbbb
00000080: 803f 18bb b260 8a3b 3f2d 01b8 d561 0d3c
00000090: 6ff6 973b 928d 2bbc 2a24 84bb 420a 353b
000000a0: 40b2 50bb 6fd6 d03c aa6e 0ebc 97f4 89bb
000000b0: 50a2 0e3c c033 d03a 4b0c d03a e536 353c
000000c0: f8ff 94bb d25a 0ebc c2c8 6ebb 5321 933b
000000d0: c563 9ebb d000 e33b a733 9cbb 82a4 f33a
000000e0: b11f d5bb 8e1f 723b 5e0b e1ba 667e 3dbb
000000f0: a7b8 f73b 3a24 e0bb 6457 893b 3cdf 823b
00000100: 6191 14bb 8271 a9bc 8dda 433b fb3d 8cbb
00000110: 9e76 273b 5f68 873b 1b8c 33bb a5d5 e33a
00000120: 2b6d b6ba 05b9 803b 4223 173c 8525 583b
00000130: 9c06 08bb 8430 923b f14f 543b 4f04 1ebd
00000140: 48dd 11bc 4786 d1bb 42e8 07bb 0e72 063b
00000150: 7636 5c3b ba37 233c cbaa a43a b259 6d3b
00000160: debd 02bc 43ba b2bb e6d9 83ba 9dac 0cbc
00000170: a0b0 ee3b 04f6 f6bb ca71 e9b9 81de a7ba
00000180: 530c 96bb a3f1 a6bb 78a6 a5bb 4aaf 71ba
00000190: 498e 553a 953f 013c 7a0f 903b fbef 2a3a
000001a0: c89f 1f3b 60ec a83b 3d38 20bb 1478 a5ba
000001b0: 51e3 2bbb 6462 f8ba 8ef6 cc3a faf1 34ba
000001c0: c2cf 9cbb 917e b23a 01c3 00bc 7abf c7bb
000001d0: 83d2 1b3c 2db7 72bb 86cd c63b ab2d 983b
000001e0: 90e8 24bb 5402 073b c136 21bb 1e8c 79bb
000001f0: f180 64ba 9456 823b 1cf0 8a3b 412f 0d3c
00000200: 138f 14bb 2ab0 0eba 383d fd3b b632 97bb
00000210: f10d 8d3b 6765 a03b e4fa f93a 1ebc 58bb
00000220: 7dc4 8dbb 5d19 113b 6196 26bb 8fdb 2b3b
00000230: 05e8 103b 68d2 afbb 7826 24bb ed68 d3bb
00000240: 0c8e 423a 5118 fc3b 2eeb debb b949 7fbc
00000250: a9f9 9e3a 8c85 1fbc 177b 233b 6d49 883b
00000260: ffd8 92bb 1a84 0a39 f403 46ba 1f12 07bb
00000270: cc17 13ba fe48 8a3b 2553 063c b16f e3bb
00000280: 7251 e4bb cf42 7b3b a6af 0cbc 3175 6ebb
00000290: d749 853b e663 3f3c dcb8 4eba 3464 c8bb
000002a0: 8408 083c 7ce3 9fbc 87cd f53b b605 b1ba
000002b0: 82c3 9aba edc4 803b 4855 1c3b 7f3f 98bb
000002c0: 09a4 023c b457 3a3a 47ba 9abb 70ba 8aba
000002d0: 30b2 a2bc 6386 9439 2edc fe3b 7c68 883b
000002e0: c62e 07bc 41b5 4a3b bcf9 aa3b 15e1 76bc
000002f0: f91a c0bb 2918 a2bb 7aef 40bb a06b 58bb
00000300: f6fb d03b 3064 343c 4101 8b3a ba53 87ba
00000310: 9f89 c4bc ebed cd3b f021 ff39 b043 a2bb
00000320: d45d ec3a 91b4 ba3b 919d 83bb 9d33 9cbb
00000330: f642 fc3a a43c 2dbb 5073 643b 3904 ef3b
00000340: 8596 babb 9ad3 cbbb 34e4 84bb 54d8 d13b
00000350: dbee 1bbb 35d4 a8ba 1108 d93a 4518 bdbc
00000360: 140c a33a becd 98bb 557e 503c 7614 2c3b
00000370: f20f bd3a f8c2 46ba a441 2fbc 6ba0 ee3b
00000380: aab9 0d3b 2add 05bc cb99 6bbb cf71 12ba
00000390: a2ff ca3b 2154 d63c 399a d4bb 7c7a 2d3c
000003a0: 8ac0 d6b9 25bb f0ba 9c01 9c3c b3bf 283b
000003b0: 4b0c 18bc e2d4 373c 5ed6 89bb 823a 213b
000003c0: bdff 873b 4794 a7bb 0575 0cbc 94fc b8bb
000003d0: 990b 2abb bc45 18bc 44ff a7bb 8088 453b
000003e0: 4459 5fba 14fc e1ba 0288 45bc 3943 d2b9
000003f0: 896e 4b3a 1127 0d3c 5793 363c e7d1 36bc

b_classifier.q.0.bias f4 [128]
-0.003941741 0.03812604 0.0012018484 0.03912325 -0.0039948863 0.031138958 0.028479274 -0.0072533847
0.03276521 0.04188999 -0.0018331913 -0.0015829105 -0.0013196747 0.023817932 -0.0015841464 0.039064802
0.014387975 -0.0024693927 0.042974632 0.03190277 -0.00010017978 0.039361946 -0.0032185544 0.0062858523
0.039928943 0.03426359 -0.0029642105 0.010605686 -0.0024940157 0.041833337 -0.0017036683 0.03753728
0.02305456 -0.008515877 0.03386166 -0.0030216025 0.03755847 0.013835081 -0.00074151874 0.040959794
0.019576661 -0.0051811836 0.03527574 0.008113304 0.036500968 0.00040009452 -0.0067836633 0.026593287
0.00039682174 0.026266642 0.032386355 0.04130446 -0.000638536 -0.0032641292 0.041072816 0.03770694
-0.000281073 -0.0020818259 0.015292184 -0.0039191586 -0.001829249 0.040298633 0.028157767 -0.006432374
0.03800117 0.027883003 0.03744687 0.030323476 0.018001704 -0.0036172299 0.034049075 0.036511082
0.0008541016 -0.0068325363 0.03594907 -0.0044644126 0.037532862 0.015743647 0.037118737 -0.0023850694
0.023299567 -0.0038683368 0.020278472 0.031012988 -0.00082803785 -0.0014018777 0.036769196 0.036608826
0.042637277 0.022078812 0.020949865 0.041084554 0.0364839 0.025767101 0.036894176 0.029170103
-0.0058484483 0.03320397 0.025877299 -0.0016036785 0.013189781 0.0132415695 0.012122896 -0.004082669
0.04034696 0.019696884 -0.0010697531 0.030637437 -0.0034662136 0.024615219 0.0010912103 0.041865785
0.041414496 0.014636259 0.037590474 0.025259161 0.03570738 -0.0041266144 -0.0030331584 0.039910823
0.021745324 -0.0024252438 -0.0037660482 0.039366208 -0.00068020535 0.021306058 0.0061699823 0.039032582
00000000: b829 81bb 0d2a 1c3d 5787 9d3a b33f 203d
00000010: 89e7 82bb 2117 ff3c 5e4d e93c cdad edbb
00000020: d034 063d d794 2b3d b147 f0ba aa79 cfba
00000030: eff8 acba d31d c33c 22a3 cfba 6a02 203d
00000040: 8bbb 6b3c 89d5 21bb 2b06 303d 7bac 023d
00000050: 9c17 d2b8 fe39 213d 62ee 52bb 8df9 cd3b
00000060: 888c 233d fa57 0c3d 3343 42bb 79c3 2d3c
00000070: a472 23bb 6f59 2b3d 9f4d dfba b1c0 193d
00000080: ebdc bc3c 2d86 0bbc 86b2 0a3d 1406 46bb
00000090: e9d6 193d 89ac 623c 7b62 42ba 75c5 273d
000000a0: 3c5f a03c ebc6 a9bb 4b7d 103d aaed 043c
000000b0: 0a82 153d c7c3 d139 7e49 debb 2ada d93c
000000c0: 830c d039 242d d73c 8ea7 043d de2e 293d
000000d0: 6d63 27ba 00eb 55bb f83b 283d 9872 1a3d
000000e0: fb5c 93b9 3e6f 08bb 128c 7a3c 496c 80bb
000000f0: 69c3 efba 2e10 253d 1eab e63c aac6 d2bb
00000100: 1da7 1b3d e56a e43c e461 193d f068 f83c
00000110: 4f78 933c 0c0f 6dbb 0b77 0b3d a58c 153d
00000120: cae5 5f3a 78e3 dfbb 553f 133d 354a 92bb
00000130: 0fbc 193d d2f8 803c d109 183d d34e 1cbb
00000140: bcde be3c ec83 7dbb 0a1f a63c f30e fe3c
00000150: ae10 59ba 36bf b7ba 4c9b 163d 23f3 153d
00000160: 6da4 2e3d a0de b43c 0d9f ab3c 4748 283d
00000170: 2470 153d 8715 d33c 591e 173d 24f6 ee3c
00000180: 57a4 bfbb e300 083d a1fc d33c 8532 d2ba
00000190: f419 583c 2bf3 583c 1c9f 463c e9c7 85bb
000001a0: db42 253d 5c5b a13c f536 8cba 5dfb fa3c
000001b0: 6a29 63bb dba5 c93c f106 8f3a 757b 2b3d
000001c0: 3fa2 293d ebcc 6f3c 78f8 193d 4dec ce3c
000001d0: e741 123d 8d38 87bb f4c7 46bb 8879 233d
000001e0: 4023 b23c d7f0 1ebb cecf 76bb 763e 213d
000001f0: cf4f 32ba 0b8a ae3c 902d ca3b a1e0 1f3d

b_classifier.q.2.weight f4 [128, 128]
-0.011118467 0.029048482 -0.021767123 0.07467319 -0.008154766 0.026859926 0.062070176 -0.027589252
0.027228901 0.054076742 -0.0074971938 -0.12517585 -7.006361e-05 0.048244033 -0.0031847365 0.061431248
0.013312722 -0.06751823 -0.06158724 0.026665183 -2.6901869e-06 0.030988123 -0.010503434 0.0073858867
0.068338454 0.023957115 0.053989407 0.008329558 0.057018567 0.113817155 -0.17539385 0.07092316
0.047289435 0.09659398 0.028075235 -0.0033751172 -0.011908151 0.013303514 -0.009431852 -0.033922113
0.019022658 0.0034652832 0.038183942 0.0054078978 0.029012244 -0.011646705 -0.014482038 -0.012058937
-0.0055103316 0.044904258 0.02572867 -0.03089001 -0.12230216 -0.00890085 0.032025956 0.031185063
4.0194178e-07 -0.013529951 -0.023810683 0.024720665 -0.0068744025 0.035314977 -6.7804685e-05 -0.018832155
0.04571649 0.08611888 0.028771497 -0.025435228 -0.027895266 0.012582409 0.0124929845 0.024429163
-0.006615142 -0.03788704 0.10395136 0.10130518 0.05962835 0.013721977 0.028508978 1.5897539e-06
0.00037004513 -0.04936319 0.019169632 0.12749231 -0.008036382 -0.10007969 0.029610522 0.029880954
0.031163141 0.021048097 0.098569565 -0.0028855812 0.027721569 -0.019719629 0.04010936 -0.0040189745
-0.008077852 0.032925334 -0.025869315 -0.006438534 -0.024752378 0.057122253 0.008397846 0.040169995
0.033228833 0.0180523 0.07494496 0.030376965 -0.013212926 0.020464357 -0.019032652 -0.003915801
0.1306158 -0.08654114 0.07798956 0.0225271 0.028437372 -0.018436352 -0.013978831 0.030007774
0.036414 0.09139833 -0.0004446768 0.053306457 -0.008633669 0.020900423 0.005124655 0.030699812
-0.005052603 0.02113495 -0.006380644 -0.064493194 -0.0056402707 0.025717285 0.01108167 0.010015187
0.017606921 0.045721862 -0.013185664 -0.001915565 0.038179997 0.018818423 -0.0013687003 -0.014672368
0.013992152 -0.048509203 0.045798216 -0.043388754 -0.053038403 -0.08462182 -0.04769865 0.036582116
0.026196532 0.00016063341 -0.0059865974 0.010514676 -0.0027775655 0.026964394 -0.0053594876 0.021226564
0.020277552 -0.004310921 0.020730369 0.096187234 0.1049104 0.013762831 0.11069963 -0.10225006
0.017801793 -0.07971077 0.0057975003 0.05614332 0.106200255 -0.048605796 -0.0064911502 0.020086505
-0.0039867405 0.054336865 0.0049268343 -0.027176252 1.7731123e-05 -0.003981648 0.076606184 0.02851433
1.1296348e-06 -0.009530716 0.013796131 -0.004645952 -0.0029849017 -0.035744824 0.020131798 0.09536555
-0.014892878 0.018708475 0.020762926 -0.025851497 0.01715913 -0.00274947 0.12626424 0.059385687
-0.0021261398 -0.032907456 0.02083098 0.017420499 0.021273443 0.014579855 -0.004143758 5.357605e-07
0.018814879 -0.09925746 0.018448077 0.037194353 -0.04795526 -1.5745436e-06 0.020952463 0.02370305
0.021930685 0.0028710864 0.03633803 0.021961816 0.00683174 0.01958321 0.04558342 -0.040525325
-0.0032378868 0.020921754 -0.09909283 -0.0028311296 0.01211561 -0.007403276 0.10504497 -0.0035261647
0.022197416 0.07028423 -0.115078844 0.021099698 -0.005605809 0.018223 -0.004969028 0.04956152
-0.0020657163 0.028744575 0.047065027 0.084741175 0.02071009 0.0046800124 -0.0047396943 0.021430919
0.028868848 -0.015985882 -0.0037566859 -0.02036556 -0.0048531233 -0.0476328 0.006475351 0.08293189
00000000: 3b2a 36bc 15f7 ed3c f750 b2bc 42ee 983d
00000010: 919b 05bc 5909 dc3c 4c3d 7e3d db02 e2bc
00000020: 250f df3c 937f 5d3d 05ab f5bb 192e 00be
00000030: 1def 92b8 899b 453d 03b7 50bb 559f 7b3d
00000040: 9a1d 5a3c ff46 8abd e742 7cbd f170 da3c
00000050: 0f89 34b6 ceda fd3c 9816 2cbc 4f05 f23b
00000060: 08f5 8b3d b641 c43c ff23 5d3d b378 083c
00000070: 4d8c 693d f818 e93d 729a 33be 2940 913d
00000080: 91b2 413d 11d3 c53d 09fe e53c 1231 5dbb
00000090: 681a 43bc fbf6 593c 0e88 1abc eaf1 0abd
000000a0: 68d5 9b3c ce19 633b c466 1c3d bc34 b13b
000000b0: 16ab ed3c d2d1 3ebc 1246 6dbc d992 45bc
000000c0: 0390 b4bb 87ed 373d efc4 d23c 0c0d fdbc
000000d0: 8e79 fabd dfd4 11bc a62d 033d d177 ff3c
000000e0: 75ca d734 baac 5dbc 9f0e c3bc fe82 ca3c
000000f0: ab42 e1bb 70a6 103d 5d32 8eb8 e445 9abc
00000100: 3741 3b3d 185f b03d 34b2 eb3c 8a5d d0bc
00000110: 9d84 e4bc 7326 4e3c 60af 4c3c ab1f c83c
00000120: d5c3 d8bb 712f 1bbd 73e4 d43d 1779 cf3d
00000130: db3c 743d 25d2 603c a98b e93c 875f d535
00000140: 9e02 c239 0e31 4abd a209 9d3c 588d 023e
00000150: 07ab 03bc 95f6 ccbd c491 f23c e7c8 f43c
00000160: d849 ff3c 0f6d ac3c d7de c93d 051c 3dbb
00000170: 5818 e33c 0f8b a1bc b649 243d 9ab1 83bb
00000180: f858 04bc b7dc 063d e3eb d3bc 56fa d2bb
00000190: 80c5 cabc 06f9 693d 1e97 093c 4b89 243d
000001a0: f51a 083d 6be2 933c be7c 993d 1dd9 f83c
000001b0: 077b 58bc dea4 a73c 5dea 9bbc 1f50 80bb
000001c0: 26c0 053e 7b3c b1bd feb8 9f3d c18a b83c
000001d0: 7ef5 e83c d507 97bc 7707 65bc ddd2 f53c
000001e0: d926 153d 0c2f bb3d 8323 e9b9 df57 5a3d
000001f0: 3b74 0dbc 5d37 ab3c b9ec a73b 2c7e fb3c
00000200: 4e90 a5bb 3423 ad3c b914 d1bb 0215 84bd
00000210: 05d2 b8bb 0ead d23c e58f 353c bd16 243c
00000220: 643c 903c d946 3b3d af08 58bc b213 fbba
00000230: a162 1c3d 1829 9a3c f665 b3ba 5f64 70bc
00000240: 573f 653c 96b1 46bd e996 3b3d 68b8 31bd
00000250: cc3e 59bd 344e adbd a95f 43bd 21d7 153d
00000260: 1c9a d63c b46f 2839 382b c4bb bf45 2c3c
00000270: d107 36bb 6fe4 dc3c a49e afbb 55e3 ad3c
00000280: 1c1d a63c a042 8dbb bcd2 a93c d0fd c43d
00000290: 44db d63d 7f7d 613c 7db6 e23d 7b68 d1bd
000002a0: 11d5 913c 663f a3bd f5f8 bd3b 8af6 653d
000002b0: 857f d93d df16 47bd b7b3 d4bb 748c a43c
000002c0: 34a3 82bb 5590 5e3d 4871 a13b bba0 debc
000002d0: 4cbd 9437 7c78 82bb b4e3 9c3d e296 e93c
000002e0: f59d 9735 b826 1cbc 2b09 623c 123d 98bb
000002f0: 579e 43bb 2a69 12bd 71eb a43c 034f c33d
00000300: 4201 74bc 8442 993c 0317 aa3c 85c6 d3bc
00000310: 4e91 8c3c 7430 34bb 6a4b 013e 683e 733d
00000320: b556 0bbb f8c9 06bd bba5 aa3c 6fb5 8e3c
00000330: a545 ae3c 58e0 6e3c 5dc8 87bb 2ed1 0f35
00000340: a921 9a3c 7f47 cbbd 6c20 973c 1b59 183d
00000350: bc6c 44bd e854 d3b5 80a4 ab3c e62c c23c
00000360: fba7 b33c d628 3c3b 30d7 143d 44e9 b33c
00000370: cadc df3b f86c a03c aeb5 3a3d e2fd 25bd
00000380: ba32 54bb 1964 ab3c 2ff1 cabd 798a 39bb
00000390: 8d80 463c 2e97 f2bb d121 d73d 3a17 67bb
000003a0: 5bd7 b53c 2ef1 8f3d 75ae ebbd 46d9 ac3c
000003b0: efb0 b7bb 6748 953c 3ad3 a2bb 0501 4b3d
000003c0: f860 07bb be79 eb3c 42c7 403d c88c ad3d
000003d0: 35a8 a93c ca5a 993b 704f 9bbb e58f af3c
000003e0: 5d7e ec3c d3f4 82bc bb32 76bb add5 a6bc
000003f0: f306 9fbb 9c1a 43bd 2e2f d43b 32d8 a93d

b_classifier.q.2.bias f4 [128]
0.03823828 0.028933555 -0.01891522 -0.039917756 -0.024730291 -0.035416327 -0.034649547 0.034274593
0.03323699 0.019329451 -0.036374804 0.032279976 -0.035863332 -0.040066604 -0.02791017 0.025610523
0.029702961 -0.026413525 0.02514192 0.025899334 -0.03152248 -0.026122175 0.03866181 -0.037062272
-0.031995926 -0.03569374 -0.03864347 0.039932262 -0.03704272 -0.036174614 0.025949746 0.03309993
-0.03252559 0.033629782 0.026157342 -0.0170084 0.040358827 -0.018910026 0.03642695 -0.032836672
-0.036362477 0.03719672 0.02647583 -0.028951906 -0.019914355 0.036122084 0.035518344 -0.032839987
0.03476483 0.035868507 -0.02511724 -0.033638347 0.03886552 0.029435664 0.033027306 -0.024833772
-0.0324919 -0.031084338 -0.025936957 0.037676174 -0.022491127 -0.032325022 -0.022560421 -0.035764076
-0.036970492 0.03716902 0.040102188 0.03673607 0.033625294 -0.03858888 -0.03226216 0.02839102
0.030308912 -0.03067845 0.034061655 0.03383662 -0.021740623 0.04120468 -0.036018025 -0.03414791
-0.03818585 0.039862968 0.027373483 -0.03372968 0.03917889 0.038535643 0.03610642 0.033917904
0.039144594 -0.039044473 -0.033028807 -0.033273406 0.02727711 0.025095467 -0.041408572 0.00911319
-0.037305925 0.035063814 0.024785839 -0.03391532 0.03880296 -0.03780806 0.030301765 0.03761016
-0.037010733 0.035457272 -0.030149998 -0.032846287 -0.032737598 -0.041007314 -0.04022325 0.03529955
0.030969152 -0.026220713 0.027991787 -0.02852834 0.039190706 -0.034667008 0.029006183 0.02643524
0.036530476 -0.036570568 0.03891791 -0.031015953 0.02269754 0.036549065 0.03563787 -0.008325749
00000000: be9f 1c3d 1006 ed3c 17f4 9abc cd80 23bd
00000010: 2e97 cabc b610 11bd afec 0dbd 8463 0c3d
00000020: 8323 083d cc58 9e3c bffd 14bd 0238 043d
00000030: 6ee5 12bd e11c 24bd dea3 e4bc 29cd d13c
00000040: a053 f33c 2d61 d8bc 6ef6 cd3c d72a d43c
00000050: b71d 01bd 2cfe d5bc d95b 1e3d 9cce 17bd
00000060: 290e 03bd 9933 12bd 9d48 1ebd 0390 233d
00000070: 1bba 17bd d52b 14bd 9094 d43c cb93 073d
00000080: 8e39 05bd 62bf 093d ec47 d63c 3355 8bbc
00000090: 4c4f 253d 33e9 9abc 6d34 153d bf7f 06bd
000000a0: d2f0 14bd 965b 183d d7e3 d83c 8c2c edbc
000000b0: 6e23 a3bc c0f4 133d af7b 113d 3983 06bd
000000c0: 9165 0e3d dbea 123d acc2 cdbc 5dc8 09bd
000000d0: 7431 1f3d 1023 f13c a447 073d 3270 cbbc
000000e0: 3a16 05bd 95a4 febc be79 d4bc 5552 1a3d
000000f0: 503f b8bc 3e67 04bd a2d0 b8bc 5a7d 12bd
00000100: 5f6e 17bd 8b3e 183d 3142 243d 9078 163d
00000110: adba 093d 600f 1ebd 5425 04bd 4994 e83c
00000120: 654a f83c 5f51 fbbc 3c84 0b3d 4598 0a3d
00000130: 6419 b2bc 3dc6 283d a387 13bd aede 0bbd
00000140: c468 1cbd 5a47 233d 5b3e e03c 2228 0abd
00000150: 0b7a 203d 8dd7 1d3d 53e4 133d 80ed 0a3d
00000160: 1556 203d 19ed 1fbd 3749 07bd b249 08bd
00000170: 3f74 df3c 0295 cd3c 099c 29bd 7d4f 153c
00000180: 19ce 18bd 139f 0f3d ac0b cb3c caea 0abd
00000190: daef 1e3d a0dc 1abd 683b f83c 1c0d 1a3d
000001a0: 9198 17bd a53b 113d 21fd f6bc d489 06bd
000001b0: dc17 06bd 49f7 27bd 22c1 24bd 4396 103d
000001c0: 05b3 fd3c d2cc d6bc 084f e53c 44b4 e9bc
000001d0: 6f86 203d fefe 0dbd 609e ed3c b78e d83c
000001e0: fba0 153d 05cb 15bd 6368 1f3d 2b15 febc
000001f0: 31f0 b93c 79b4 153d 04f9 113d b968 08bc

b_classifier.fcc.weight f4 [2, 2, 768]
-0.023823222 0.051268954 0.014021721 -0.032480296 0.041307278 0.01096685 0.037350092 -0.031661008
-0.020661538 -0.01680236 -0.026973853 0.041468386 0.070234254 -0.03645633 0.011346775 0.025473854
-0.040938426 0.011434677 -0.029686457 -0.0428193 0.03839081 0.027136402 0.029700495 -0.006403955
-0.0077239303 0.0011345854 -0.03913877 0.016995316 -0.03380293 -0.008289416 -0.028796427 -0.0022208414
-0.046571262 0.045926996 0.03056084 -0.023694372 0.091397874 -0.03844261 -0.061529722 0.00022983913
-0.018453415 -0.032586742 0.0029006791 -0.008530587 0.038813855 -0.015810372 -0.004922545 0.022696992
-0.026037859 -0.059834357 0.0009461951 0.041371685 -0.017846229 -0.0031353675 0.002220456 0.03235391
0.011368893 -0.010539458 -0.0013926656 -0.04162386 0.013739402 0.037307538 0.013675486 -0.02717607
-0.045375332 -0.018381737 0.050527483 -0.04711229 -0.0077565173 0.029455107 -0.01310834 0.026752727
-0.023096368 -0.009471492 0.031239156 0.0038475539 -0.004546418 0.002926178 0.007872782 0.037949152
-0.021630706 -0.043100048 -0.032084487 0.004565848 0.037491404 0.028748015 0.04997126 0.03207186
-0.032418862 0.006728328 -0.017913414 -0.024177814 0.016921537 -0.006923984 -0.014550015 0.012600741
-0.027579593 -0.013695882 -0.010564992 -0.023743961 0.06497743 0.022815818 0.0038497152 -0.0467453
0.04450423 0.02408043 -0.026575983 0.00056257163 -0.0026736178 -0.042399008 -0.015524824 -0.04758856
0.0031782247 0.00654539 0.004805962 0.029577719 0.021832446 0.0052467356 -0.006876642 0.04034616
-0.013650601 0.025006676 -0.0057040732 0.05281981 -0.028219702 0.031067377 -0.007133764 0.019597212
-0.02406086 -0.03295477 -0.0124432305 -0.044536896 0.016454654 0.013753936 0.006846009 -0.030790538
-0.031413365 0.026725648 -0.035388846 0.051492028 0.042789284 -0.03608263 -0.0021877422 -0.06679379
0.0136476625 0.046269897 -0.013464906 -0.013614666 0.035236496 -0.0038297276 0.040545013 -0.0027223881
-0.034924366 0.011362424 0.05066412 -0.044697594 0.005769131 0.020498285 0.0049490426 -0.025957052
-0.005026722 0.011895101 -0.06536256 -0.019450055 -0.02472852 -0.07008006 -0.009862 -0.039748244
-0.033722386 0.00072086824 0.029463151 -0.025821747 -0.05179056 0.03823443 -0.02312776 0.014060339
0.04550694 0.04176799 -0.011671828 -0.0006107445 -0.0022204272 -0.0030008391 0.048803564 0.05868082
-0.0023694579 0.004814783 -0.018392393 -0.03227969 -0.04579192 -0.019480154 -0.047435626 -0.048739426
0.007918483 0.04580656 -0.00081086747 -0.02047967 -0.041458257 0.010381711 0.0016957527 0.0016007292
0.014962219 0.030026617 -0.035226814 -0.02892186 0.021342088 -0.0061404672 -0.010532715 0.008293126
-0.019075805 0.021110788 0.015629036 0.039701447 -0.036308 0.0097157825 0.03797298 0.0019621013
-0.05700973 0.013395582 0.038074438 0.015546985 0.018347455 -0.009768146 0.001048904 -0.012610058
0.06094492 -0.040279813 -0.023915658 0.035206746 -0.007181428 0.03169532 -0.0090648355 0.038015988
-0.009904694 -0.044136375 0.005436505 -0.0054463116 -0.06639432 -0.0050685424 -0.014112271 0.006436972
-0.0014057371 -0.047163796 -0.025513338 0.0009895278 -0.03356746 0.045392994 -0.026389973 0.008089342
0.02128924 0.03241082 -0.06317394 -0.052390438 0.033843685 0.008599872 0.027564429 0.007167092
00000000: eb28 c3bc 65ff 513d 5cbb 653c 0f0a 05bd
00000010: d231 293d 4eae 333c 69fc 183d f9ae 01bd
00000020: 6342 a9bc 1aa5 89bc 45f8 dcbc c1da 293d
00000030: fad6 8f3d 3c53 15bd d3e7 393c 8bae d03c
00000040: 0daf 27bd 8358 3b3c 0331 f3bc 4a63 2fbd
00000050: af3f 1d3d 294d de3c 744e f33c 45d8 d1bb
00000060: 0619 fdbb 5eb6 943a fa4f 20bd c339 8b3c
00000070: f174 0abd 55d0 07bc 7ce6 ebbc 898b 11bb
00000080: 82c1 3ebd f21d 3c3d ba5a fa3c b31a c2bc
00000090: cf2e bb3d 0076 1dbd 9706 7cbd f900 7139
000000a0: 9e2b 97bc ad79 05bd 5219 3e3b e0c3 0bbc
000000b0: 47fb 1e3d c184 81bc 4d4d a1bb 0bef b93c
000000c0: 594d d5bc df14 75bd 140a 783a 5b75 293d
000000d0: 4132 92bc bd7a 4dbb 1285 113b 8985 043d
000000e0: 9844 3a3c b1ad 2cbc 1a8a b6ba c87d 2abd
000000f0: 3b1b 613c cacf 183d 250f 603c 59a0 debc
00000100: 7cdb 39bd 4c95 96bc e8f5 4e3d d1f8 40bd
00000110: 622a febb d64b f13c 5dc4 56bc 8928 db3c
00000120: 9834 bdbc 512e 1bbc 42e9 ff3c 3e27 7c3b
00000130: 1efa 94bb 1fc5 3f3b d7fc 003c 9270 1b3d
00000140: e132 b1bc ad89 30bd 066b 03bd 1c9d 953b
00000150: 9690 193d f580 eb3c aaae 4c3d c85d 033d
00000160: a4c9 04bd 4e79 dc3b 27bf 92bc 8d10 c6bc
00000170: 099f 8a3c 96e2 e2bb 3063 6ebc 5773 4e3c
00000180: 99ee e1bc b164 60bc ca18 2dbc b282 c2bc
00000190: e312 853d 3de8 ba3c 814b 7c3b 0078 3fbd
000001a0: 114a 363d 5244 c53c e0b5 d9bc 8b79 133a
000001b0: dd37 2fbb 95aa 2dbd d55b 7ebc 39ec 42bd
000001c0: c349 503b b67a d63b 557b 9d3b f94c f23c
000001d0: f5d9 b23c cfec ab3b 7455 e1bb 0442 253d
000001e0: c5a6 5fbc cdda cc3c 3ce9 babb 9659 583d
000001f0: 012d e7bc 0381 fe3c 5ac2 e9bb 558a a03c
00000200: 481b c5bc 95fb 06bd b1de 4bbc 526c 36bd
00000210: e9cb 863c 3058 613c 7c54 e03b 703c fcbc
00000220: 4dab 00bd bfef da3c e5f3 10bd 4ee9 523d
00000230: d143 2f3d 61cb 13bd 3960 0fbb 2fcb 88bd
00000240: 729a 5f3c 8185 3d3d e99b 5cbc 0c10 5fbc
00000250: 2554 103d 2bfc 7abb 8712 263d 186a 32bb
00000260: da0c 0fbd 7629 3a3c 2e85 4f3d d314 37bd
00000270: fa0a bd3b 05ec a73c 942b a23b e2a3 d4bc
00000280: 33b7 a4bb abe3 423c cedc 85bd b955 9fbc
00000290: 7793 cabc 2286 8fbd 3a94 21bc 0ecf 22bd
000002a0: 7c20 0abd a6f8 3c3a b55c f13c 2188 d3bc
000002b0: 5722 54bd b59b 1c3d 6e76 bdbc 565d 663c
000002c0: 7c65 3a3d e914 2b3d 323b 3fbc 5f1a 20ba
000002d0: 9684 11bb baa9 44bb 3fe6 473d 4d5b 703d
000002e0: e848 1bbb 54c5 9d3b a5ab 96bc b537 04bd
000002f0: 4f90 3bbd d894 9fbc dc4b 42bd fea2 47bd
00000300: 86bc 013c a99f 3b3d 6590 54ba fbc4 a7bc
00000310: 22d0 29bd 0d18 2a3c 0544 de3a 8fcf d13a
00000320: 1824 753c 61fa f53c fe49 10bd 89ed ecbc
00000330: 9ad5 ae3c f935 c9bb 6991 2cbc e4df 073c
00000340: dd44 9cbc 88f0 ac3c 7708 803c fc9d 223d
00000350: b3b7 14bd f22e 1f3c 8e89 1b3d 9996 003b
00000360: 0983 69bd 2579 5b3c f1f3 1b3d c8b8 7e3c
00000370: 674d 963c 930a 20bc 617b 893a 6b9a 4ebc
00000380: 61a1 793d 72fc 24bd c5ea c3bc f334 103d
00000390: 2f52 ebbb f4d2 013d ad84 14bc a7b6 1b3d
000003a0: 4c47 22bc 58c8 34bd b624 b23b f976 b2bb
000003b0: bff9 87bd 0416 a6bb 2837 67bc 3ced d23b
000003c0: b640 b8ba d32e 41bd 5901 d1bc 0bb3 813a
000003d0: 087e 09bd 01ee 393d c92f d8bc 2989 043c
000003e0: c666 ae3c 35c1 043d 5761 81bd 5b97 56bd
000003f0: ad9f 0a3d 7ae6 0c3c ccce e13c edd9 ea3b

b_classifier.fcc.bias f4 [2]
-0.007296274 0.0068241013
00000000: 9515 efbb b69c df3b
