mil/weights/20241120/fold_0_6.pth (torch, 481804 bytes, 8 tensors)

i_classifier.fc.0.weight f4 [2, 768]
00000000: 1666 9a3a 1f90 953b 92b6 583d 42e8 b9bc
00000010: d54f 2bbd 6a8b 85bc dbf7 b4bb dca4 98bc
00000020: 9c11 8b3c dce6 9b3a 12c2 eebb c06e 853c
00000030: 4c50 1f3d 1a69 2b3d 1bed 8bbc 485c c0bc
00000040: 6c2e 35bd 77b4 023d 5a4a 4c3c a774 e23c
00000050: c6d5 b2bd 2a82 c53c 1cc5 46bc 28ae 05bd
00000060: 31f5 903d 7d4d 4c3c 7e0e 0e3d 546b 4cbb
00000070: 7253 de3c e393 9abb e5b4 983d 3202 9cbc
00000080: bfdf a1bc d959 5fbb 6240 e2bd 0a1c c2bd
00000090: 6a65 7b3d 1221 6abc faf4 0abc d6c1 95bc
000000a0: f8ea 953c 5eb7 d83b 9eb7 c23c 9246 973d
000000b0: bc4b 933d 35d1 26bc 1d4c e13c 62f7 c0bb
000000c0: 20a5 a9ba 2fed 6f3c fa8f ac3b cd16 3ebb
000000d0: d6d3 babc 14ec 043b 8a04 943c 9bbf 2b3c
000000e0: 416a 1b3c 5601 ab3c 18d7 f73c 8cfe 5abd
000000f0: d225 36bd 871b bdbc 71a3 0c3d 2f72 913c
00000100: 19de 7cbb d130 9d3d 6b35 df3b 197b e7bc
00000110: a2c0 913c 9953 43bc e01a c33c eab7 883b
00000120: 5de3 7cbd 91f5 a5bb 97ea 2a3d 7c62 9cbd
00000130: 7458 293d bbd4 943c 79d6 233c 39cb 5dbc
00000140: 105a 68bd e5c4 4a3d 7395 82bc 84fb dfbb
00000150: a89b a6bc b71e ca3c 1b4a 6fbb fef3 ac3c
00000160: 7f8d 7a3d 2528 4e3c 4e1a 143c 9f65 ddbc
00000170: 19ac cebc 0c19 acbd a96d 12bd 25b9 e5bc
00000180: aa7e 623c 5b1f a1bc 0865 d33c 46dc 3d3c
00000190: fb1f cdbc 434f 493d abda 873c 6710 a03c
000001a0: d989 abbc 173b a93c 5f8c b13c e5d9 023d
000001b0: 03ac 80bc 2899 a7bd 6719 383d ecfc 6cbc
000001c0: ab89 0ebd 2371 f53b 6f74 fdb9 e69b cebc
000001d0: 815b a2bc 9ea1 23bd 083f 85bc d473 6e3d
000001e0: 8eb6 fa3c b7c1 7c3c 9b82 c73d 849d 17bd
000001f0: ea0b 1a3d 7bc1 773c a7e2 f6bc 8ef0 8fbd
00000200: bbe9 b33b dbcb 8bbc 40f8 08bd f884 a83c
00000210: e4b2 13bd f95d 953d 7c7f dd3c 2107 553d
00000220: a993 a43c a2bd df3c 67c3 593b 9903 4a3c
00000230: dd3c 383c b1ce 72bc 890e 413c 84f0 a139
00000240: 7163 443c 48ae 9fbc 8e13 7aba 32db 113c
00000250: d9f5 44bc 35ca a93c 5289 4e3c 4211 683c
00000260: 1cb5 31bc aca4 e13c 7b00 debc a96c e63c
00000270: 9d73 9abc 737c a2bc 73f5 2e3c e13a 00bd
00000280: 354d f1bc 640e 21bc 982c 95bc cc17 963c
00000290: d3cf e33c 0fc1 23bd 815f c5bc e233 49bd
000002a0: fb36 cd3b be0d 2dbd fb71 a03c df14 8e3c
000002b0: 31ba 483d 3d35 9a3c f2be 80b9 c254 3c3c
000002c0: e039 1fbc 1c2b 843c 5c8d fcbc c3fd 03bd
000002d0: 4d41 acbb 8281 ccbc 186d f73c a6a6 8dbb
000002e0: 3d35 05bd 83d3 0bbc 34ee d83b b88f 4a3c
000002f0: bb49 df3c f152 74bc 1c71 0abd 2f6e 59bc
00000300: 08e5 cf3b 6823 793d 0a1c 363d 6e9a febc
00000310: 5713 963c 5a5e 193d 27b2 0f3d 2963 01bc
00000320: b007 373d cbf7 c83d c626 45bd bbd9 69bc
00000330: 5290 b3ba 6b15 d23c facf 7b3d e418 e33c
00000340: cedc 363c d161 fdbc 4c56 773c f11e 04bd
00000350: a14c 093c 9a44 b7bb bcfb 933c ad36 bcbc
00000360: 33f5 2dbd b269 1d3c 1c48 273d ad80 ac3c
00000370: cc54 46bc b265 80ba ed2e 013c 7939 a03c
00000380: f095 8cbc 95e6 77bd ee50 b9bc b8c4 80bc
00000390: 323c ccbc c36a 5fbd 3b9b 11bc 79e9 373c
000003a0: bf77 13bd 87c2 1b3d ca2f 203c 66b6 1ebd
000003b0: 4bfb 68bb ce9a 263d 3396 c83c 51b2 0abd
000003c0: 6657 ae3c cee3 643d 363c 063d cd47 413d
000003d0: 87b0 9bba 2540 20bd 22a6 2a3c 3c70 7cbc
000003e0: 5939 24bb 3a22 283c 9ae7 1f3d 49c6 bb3c
000003f0: 1802 573d 587b 0a3d a258 0abd 4888 963c
0.0011779692 0.0045642997 0.052908488 -0.022693757 -0.04182418 -0.01630183 -0.0055227107 -0.018633299
0.01697617 0.0011894363 -0.0072863186 0.016288161 0.038894936 0.04184828 -0.017080834 -0.023481503
-0.044233724 0.031910386 0.012468899 0.027643515 -0.0873218 0.024109919 -0.0121319555 -0.03263679
0.070780165 0.0124696465 0.03468179 -0.0031191902 0.0271394 -0.0047173365 0.07456378 -0.019044016
-0.01976001 -0.0034080653 -0.11047436 -0.09478004 0.061376013 -0.014290111 -0.0084812585 -0.018280905
0.018300518 0.006613656 0.023769196 0.07386507 0.071921796 -0.010181715 0.027502114 -0.0058888653
-0.0012942888 0.014643951 0.005266187 -0.002900529 -0.02280609 0.0020282315 0.01806857 0.010482694
0.009485782 0.02087466 0.030253932 -0.05346541 -0.044469662 -0.023084415 0.034335557 0.017754642
-0.003858453 0.076753266 0.006811788 -0.02825694 0.01779205 -0.011921787 0.023816526 0.004172315
-0.061740268 -0.005064674 0.04172763 -0.07635972 0.04134412 0.018167844 0.009999865 -0.013537222
-0.056726515 0.04950418 -0.015940404 -0.006835403 -0.020337895 0.02467285 -0.0036512676 0.021112438
0.061170097 0.012582813 0.009039475 -0.027025996 -0.025228547 -0.08403215 -0.03574911 -0.028042385
0.013824144 -0.019668272 0.025805011 0.011588162 -0.025039664 0.049147855 0.016583761 0.019539071
-0.020939754 0.020658059 0.02167338 0.03194608 -0.015707022 -0.08183509 0.0449461 -0.014464598
-0.03479926 0.0074902936 -0.0004834267 -0.025220823 -0.019819023 -0.039949052 -0.016265407 0.05821593
0.030604627 0.015427045 0.09741708 -0.037015453 0.03760902 0.015121813 -0.030137373 -0.07028304
0.0054905093 -0.01706498 -0.033439875 0.020571217 -0.036059275 0.072933145 0.027038328 0.05200875
0.020089941 0.027312104 0.003322804 0.012329959 0.01124498 -0.014819787 0.011783251 0.0003088751
0.011986599 -0.019492283 -0.0009539657 0.008902358 -0.012021505 0.020726303 0.012605982 0.014164271
-0.0108464025 0.027544342 -0.027099838 0.028127985 -0.018853957 -0.019834733 0.010678637 -0.03130615
-0.02945576 -0.009830091 -0.01820974 0.018321894 0.02780906 -0.039979037 -0.024093391 -0.049121745
0.0062626577 -0.042249434 0.0195856 0.017343936 0.04900569 0.018824214 -0.00024556328 0.011494817
-0.009718388 0.016133837 -0.030829124 -0.032224428 -0.005256808 -0.024964098 0.030203387 -0.0043228446
-0.032521475 -0.008534315 0.006620193 0.012363367 0.027256837 -0.014912353 -0.033799276 -0.013270899
0.0063444413 0.06082478 0.044460334 -0.031079497 0.018319769 0.037443496 0.03508201 -0.007897177
0.044685066 0.09812888 -0.04813268 -0.014273102 -0.0013699627 0.025644979 0.06147764 0.02772183
0.011161042 -0.030930432 0.015096258 -0.03225607 0.008380086 -0.0055928947 0.018064372 -0.02297529
-0.04247017 0.009607719 0.040840253 0.021057451 -0.012105178 -0.0009795933 0.007884723 0.019558655
-0.01716134 -0.060522635 -0.022621598 -0.015718803 -0.024931047 -0.054545175 -0.0088871075 0.011225098
-0.03600287 0.038027313 0.009777019 -0.038748167 -0.0035550173 0.040674977 0.024485683 -0.033861462
0.02128191 0.055881314 0.032772265 0.047187615 -0.0011878171 -0.039123673 0.010415586 -0.015407618
-0.0025058596 0.0102620665 0.03903923 0.022921698 0.05249223 0.033809036 -0.033775933 0.01837553

i_classifier.fc.0.bias f4 [2]
00000000: f0ca 94bb 1f13 1b3d
-0.0045407936 0.037860032

b_classifier.q.0.weight f4 [128, 768]
00000000: b310 14b7 d27d 08b7 8a65 1ab7 c1d4 3cb6
00000010: 44c1 05b7 c4de 1db7 276b 7db6 cd70 2437
00000020: 56df 2137 aabe 52b7 c9da 4537 c3ce 4eb7
00000030: fe22 3cb7 c029 5b37 89f9 56b7 c196 98b6
00000040: 624d bd36 b12d 9036 2c25 4037 94da 5a37
00000050: 7b5c 50b7 6c5a 4fb7 ddff b034 fa81 4cb7
00000060: cd34 3437 3171 55b7 5461 51b5 0d94 3cb7
00000070: 53eb 1b37 46c0 0db7 fedb a1b6 c22b 5437
00000080: f04e c6b6 b50f 23b7 75e4 9536 cd97 21b7
00000090: 303a 4bb7 9994 a7b5 1c53 4937 739c 20b7
000000a0: 3a61 2c35 890a 48b6 58d8 3d37 8c8e 4b37
000000b0: 5308 3db7 a534 3bb7 b3b8 0cb5 c2a6 e4b6
000000c0: 2638 2837 fa96 5837 5608 10b7 e85e 57b6
000000d0: ff5e e536 ac7a 35b7 be80 4437 2beb 24b7
000000e0: 2518 4437 fc1a fdb6 caab 4d37 124b 9a36
000000f0: 84d1 17b7 70a5 5237 bb91 53b7 06b2 5ab7
00000100: 58af b3b5 2f38 b135 011c 05b7 1be0 4937
00000110: fc50 36b7 f973 27b6 f873 3737 2372 0936
00000120: b5a4 2436 67a4 96b5 bc9e 1bb7 f556 14b7
00000130: bba0 8d34 8e10 5bb7 026f c2b6 af71 dfb5
00000140: d055 1037 82da 4e37 e083 1535 e60c 6b35
00000150: e6a9 38b7 4b1e 05b7 8571 d1b6 b80a 31b7
00000160: ef5c 2b37 7adc a1b4 e9ad 3637 08eb 1537
00000170: 2279 1cb7 5738 0e37 bd5e f135 44f0 49b7
00000180: 5ef9 3837 1667 5737 16bb 1f37 0636 0cb7
00000190: 61f1 06b6 082b 43b7 b82d 5bb7 555c 84b6
000001a0: e36c b4b6 bc59 58b7 3a7f 4937 19ac 7936
000001b0: c56c 9f36 bd1a bcb6 181a 8cb6 a30a fc36
000001c0: b1b5 37b5 fc64 95b6 b982 4335 7da4 4a37
000001d0: 208e 2fb7 f401 4e37 0e30 48b7 c88c 2b37
000001e0: 0559 0e36 dbf7 67b5 39d5 1037 f2a7 2eb7
000001f0: 6991 2836 9a9d 54b7 614b 53b7 4ed2 0436
00000200: 9e41 0a36 3f07 4037 f480 41b7 8cfa 4137
00000210: 5973 57b7 7a11 5bb7 f993 5ab7 8efb 4736
00000220: 4f73 5137 20a0 9934 90d6 0837 ca44 54b7
00000230: 22fe 0cb6 c72b 5837 3b80 5937 73fd 1a37
00000240: cbed 6bb6 990d 2fb7 8cf5 5a37 c404 ff36
00000250: 0ecf 4fb6 2fb8 3537 2900 1036 6983 54b7
00000260: 61fc 3737 c356 91b6 ccb0 1f36 a17e 1c37
00000270: dd03 acb5 e215 4ab7 47e6 29b7 4fbf 5337
00000280: 69f3 1f37 2810 0eb7 06b6 3f37 e4e4 5437
00000290: 27ad e4b6 aac9 0db7 4e50 19b6 bb32 fd36
000002a0: 44bc 44b7 f567 15b7 b0f8 5ab7 b196 1d37
000002b0: c8b6 2037 84db 59b7 86b4 24b7 a630 0b34
000002c0: 7625 39b7 b314 52b7 dded 0c37 388c 2337
000002d0: c8b3 a636 a5e6 9436 fa9f 1cb7 62e3 52b7
000002e0: 5407 5b37 5f77 fdb6 f29c 55b7 0aae 9b36
000002f0: 2912 2037 bea7 5937 210b 39b6 bba6 3e37
00000300: 1b6b 23b7 98d9 0eb7 64d6 14b7 95f6 77b4
00000310: 7fdd cb36 9278 13b7 bdd7 4cb7 4942 8136
00000320: 4c56 f036 af11 4bb7 91bf 5437 70c4 98b6
00000330: b4a2 f3b5 8cf8 5a37 597a ed35 f70a 56b7
00000340: 8252 1437 f2a4 67b6 f9a3 5037 3b22 f035
00000350: 2b9b fe35 2445 77b6 67fe 2137 116d 2cb7
00000360: 240b 1e37 6937 3437 5b7b 01b7 a0f8 51b7
00000370: d52e 42b7 03c0 38b6 4eb1 dcb6 6ee4 3fb7
00000380: df8e 4ab7 86e0 0d37 c05d 3e37 4e47 aa36
00000390: b358 b636 6d3b f335 8af6 b535 e866 49b7
000003a0: de33 f936 ff11 4437 6e5d 4d37 ace9 3db7
000003b0: 2fc6 4337 819c 2336 1cc6 5937 c809 b436
000003c0: deab 2fb7 c759 5537 7476 1537 7ce9 4f37
000003d0: 5e9e 4737 abea bb35 2024 5937 ba6a 53b7
000003e0: f47e 9836 0757 fe35 286a 3d36 2ead 8636
000003f0: dda2 c134 5de1 36b7 6389 0fb7 9b34 2e37
-8.8253755e-06 -8.1355265e-06 -9.202757e-06 -2.8138022e-06 -7.972416e-06 -9.409796e-06 -3.7762309e-06 9.801425e-06
9.648347e-06 -1.2561368e-05 1.1793055e-05 -1.2326697e-05 -1.12138205e-05 1.3063138e-05 -1.2813493e-05 -4.547503e-06
5.6416475e-06 4.2968536e-06 1.1452747e-05 1.3044704e-05 -1.2419298e-05 -1.2359214e-05 3.296872e-07 -1.218961e-05
1.074113e-05 -1.2722144e-05 -7.80002e-07 -1.1240144e-05 9.293511e-06 -8.449022e-06 -4.8237844e-06 1.2646373e-05
-5.9100494e-06 -9.719214e-06 4.467142e-06 -9.631692e-06 -1.2113291e-05 -1.2485717e-06 1.1999884e-05 -9.573169e-06
6.4216476e-07 -2.9808455e-06 1.1315649e-05 1.2132932e-05 -1.1267216e-05 -1.1158326e-05 -5.2422837e-07 -6.8143427e-06
1.0026653e-05 1.2909755e-05 -8.58501e-06 -3.209274e-06 6.835791e-06 -1.08170025e-05 1.17124855e-05 -9.829916e-06
1.1688132e-05 -7.543129e-06 1.225895e-05 4.598297e-06 -9.049083e-06 1.2555494e-05 -1.2610511e-05 -1.3035262e-05
-1.3387571e-06 1.3203879e-06 -7.933938e-06 1.2032712e-05 -1.0866901e-05 -2.4952444e-06 1.0934651e-05 2.0481027e-06
2.4533776e-06 -1.1223718e-06 -9.275678e-06 -8.841734e-06 2.6380243e-07 -1.3057272e-05 -5.7945736e-06 -1.6647881e-06
8.603049e-06 1.2329432e-05 5.569873e-07 8.756309e-07 -1.1006812e-05 -7.934471e-06 -6.241901e-06 -1.0552518e-05
1.0214032e-05 -3.0149005e-07 1.0888537e-05 8.935815e-06 -9.326528e-06 8.476977e-06 1.7983472e-06 -1.2036475e-05
1.1025315e-05 1.2839e-05 9.520698e-06 -8.357229e-06 -2.0108057e-06 -1.1632925e-05 -1.3064062e-05 -3.9446554e-06
-5.377094e-06 -1.2895496e-05 1.2010156e-05 3.7204065e-06 4.7512317e-06 -5.6059494e-06 -4.175363e-06 7.5114235e-06
-6.843721e-07 -4.452302e-06 7.283339e-07 1.2078436e-05 -1.0463904e-05 1.2279012e-05 -1.1932118e-05 1.0225172e-05
2.1211465e-06 -8.6414883e-07 8.632714e-06 -1.0410311e-05 2.511859e-06 -1.2672879e-05 -1.2594131e-05 1.9791946e-06
2.0601797e-06 1.1445779e-05 -1.1533721e-05 1.1562031e-05 -1.2841855e-05 -1.3057486e-05 -1.3028265e-05 2.9799735e-06
1.2484218e-05 2.8614977e-07 8.156188e-06 -1.2652201e-05 -2.100955e-06 1.2884796e-05 1.2964064e-05 9.238126e-06
-3.5156143e-06 -1.0433979e-05 1.3050983e-05 7.600147e-06 -3.0965925e-06 1.0831324e-05 2.1457765e-06 -1.2666781e-05
1.09664115e-05 -4.331437e-06 2.3795756e-06 9.327808e-06 -1.2816123e-06 -1.2045233e-05 -1.0126801e-05 1.2621123e-05
9.533812e-06 -8.467621e-06 1.1426868e-05 1.2689477e-05 -6.815087e-06 -8.4512085e-06 -2.284552e-06 7.5458934e-06
-1.1726344e-05 -8.905296e-06 -1.3051715e-05 9.393015e-06 9.5793e-06 -1.2985318e-05 -9.817193e-06 1.2963082e-07
-1.1035581e-05 -1.2521795e-05 8.400032e-06 9.748204e-06 4.968115e-06 4.4375943e-06 -9.335572e-06 -1.2569917e-05
1.3055123e-05 -7.553884e-06 -1.2732331e-05 4.639621e-06 9.540971e-06 1.2973263e-05 -2.7573626e-06 1.13637025e-05
-9.7404945e-06 -8.514522e-06 -8.871404e-06 -2.3093374e-07 6.075657e-06 -8.789955e-06 -1.2209578e-05 3.852216e-06
7.1626037e-06 -1.210386e-05 1.2680787e-05 -4.5528213e-06 -1.8152264e-06 1.3051682e-05 1.7693484e-06 -1.2757947e-05
8.840698e-06 -3.4517693e-06 1.2435944e-05 1.7891356e-06 1.8969635e-06 -3.6846113e-06 9.6555805e-06 -1.0277393e-05
9.420128e-06 1.0741737e-05 -7.71772e-06 -1.2515258e-05 -1.1574205e-05 -2.7529902e-06 -6.577152e-06 -1.1437673e-05
-1.2073403e-05 8.456531e-06 1.134671e-05 5.0746958e-06 5.4343486e-06 1.8122206e-06 1.3557303e-06 -1.2004493e-05
7.4268164e-06 1.16867e-05 1.22407055e-05 -1.1319684e-05 1.1669049e-05 2.437999e-06 1.2980334e-05 5.3655567e-06
-1.0470829e-05 1.2716692e-05 8.908672e-06 1.2392524e-05 1.1898197e-05 1.4000883e-06 1.2942619e-05 -1.2601429e-05
4.5447323e-06 1.8949803e-06 2.8224986e-06 4.013672e-06 3.606755e-07 -1.0900517e-05 -8.555452e-06 1.0383456e-05

b_classifier.q.0.bias f4 [128]
00000000: 4b4c 28b7 d34a 59b6 de2c 08b6 e819 3837
00000010: de1c 03b7 e0de d735 9a53 e536 6f2d 04b7
00000020: 6cfb c935 c100 07b6 729d 44b6 e3e7 5a37
00000030: 7c5f 0d36 5ea7 3137 622b b636 9486 3cb6
00000040: d8f2 d636 fe5c 5537 b868 cab6 f9df 7535
00000050: 30e9 2e37 dc9f 0037 0515 31b7 8ba7 ef35
00000060: 6a47 52b7 1e42 8335 503d b835 0ff0 64b6
00000070: 9ada 14b7 900f 1137 d957 3a37 7768 f4b5
00000080: 278a 1736 8277 3236 5d68 55b7 33b9 03b6
00000090: 5e2b 46b6 04ef 5d36 808b 18b6 f5de a636
000000a0: 1301 2fb3 2c67 19b7 5955 0b37 55c0 f836
000000b0: 7173 d036 29f9 5437 7fb6 1937 e83b e536
000000c0: a583 0c36 69da f935 44d7 0cb7 53d4 e0b5
000000d0: 8948 70b6 d2bc 4d37 9904 dd35 02db 9a36
000000e0: 7cc3 4a37 5a14 0337 ae8f 32b5 4ed9 bf36
000000f0: 1614 26b7 ef24 09b7 644f c0b5 bdb2 4c37
00000100: 2307 0736 b9a9 01b6 0614 5735 4a1e 2c36
00000110: c708 0c34 fb05 f735 d771 0eb6 f358 1e36
00000120: e62c 25b6 8274 46b7 0f03 9635 f420 35b7
00000130: 94a7 86b6 e409 44b6 4fbd 0a36 eb0b 0836
00000140: 7333 2636 96fd 5237 026e 4eb6 719f 81b6
00000150: aaec 1ab6 a4a8 1936 2302 04b6 e7fd 6036
00000160: 2765 5437 48d5 0336 06d8 01b6 e573 d9b6
00000170: 19d1 95b5 8938 5937 2b55 4737 8b1b b3b5
00000180: 5dc1 0736 b611 d536 cc57 15b6 a0ad f3b5
00000190: db86 36b7 c529 5b37 2f47 f3b5 62d2 a336
000001a0: 1384 4d37 9410 53b7 db7b ce35 ab24 3937
000001b0: 9ec1 abb6 9dda 0837 d01c 3236 9d1d 0336
000001c0: eb3c efb5 04aa d5b5 516f bcb5 6f3b 55b6
000001d0: 9709 9c36 2f9f 28b7 2927 5a37 7354 07b6
000001e0: b4a8 03b6 a51e 9eb6 98e1 0836 6ef1 4637
000001f0: 2456 1636 3474 07b7 d15c d9b5 c165 0437
-1.0031344e-05 -3.2379073e-06 -2.0291695e-06 1.0973286e-05 -7.81493e-06 1.6083613e-06 6.8344643e-06 -7.878391e-06
1.504884e-06 -2.0117006e-06 -2.9297921e-06 1.3047803e-05 2.1066217e-06 1.058899e-05 5.429073e-06 -2.8092518e-06
6.4059677e-06 1.2717441e-05 -6.03226e-06 9.1595535e-07 1.0425501e-05 7.666615e-06 -1.0554916e-05 1.7855649e-06
-1.2533603e-05 9.779503e-07 1.3726913e-06 -3.411438e-06 -8.872385e-06 8.646297e-06 1.1106918e-05 -1.820982e-06
2.2581169e-06 2.659363e-06 -1.2720088e-05 -1.9628321e-06 -2.9529542e-06 3.3070692e-06 -2.2730965e-06 4.973141e-06
-4.074634e-08 -9.143532e-06 8.304917e-06 7.4133663e-06 6.212322e-06 1.2694197e-05 9.162001e-06 6.831706e-06
2.0938253e-06 1.8615511e-06 -8.394771e-06 -1.6751095e-06 -3.5805008e-06 1.2262915e-05 1.6467121e-06 4.6150535e-06
1.2085653e-05 7.812947e-06 -6.651925e-07 5.717541e-06 -9.899048e-06 -8.174436e-06 -1.432822e-06 1.2200963e-05
2.0120722e-06 -1.932129e-06 8.012288e-07 2.5647628e-06 1.3041709e-07 1.8404675e-06 -2.1225912e-06 2.359561e-06
-2.461305e-06 -1.1828846e-05 1.1176761e-06 -1.0796113e-05 -4.01302e-06 -2.9212033e-06 2.0673795e-06 2.0272516e-06
2.4765875e-06 1.2576018e-05 -3.0760425e-06 -3.863061e-06 -2.3085545e-06 2.2896938e-06 -1.9670777e-06 3.3526392e-06
1.2659736e-05 1.9644667e-06 -1.934824e-06 -6.480596e-06 -1.116222e-06 1.2947371e-05 1.1881154e-05 -1.3344555e-06
2.022912e-06 6.3499565e-06 -2.2253835e-06 -1.8155442e-06 -1.0879444e-05 1.3063142e-05 -1.8125628e-06 4.8822703e-06
1.2249703e-05 -1.258044e-05 1.5384243e-06 1.1035397e-05 -5.118737e-06 8.157132e-06 2.6540838e-06 1.9537758e-06
-1.7824617e-06 -1.5919218e-06 -1.4039489e-06 -3.1774068e-06 4.6502787e-06 -1.0050643e-05 1.300293e-05 -2.0165724e-06
-1.961872e-06 -4.7123344e-06 2.0396892e-06 1.1857932e-05 2.2401882e-06 -8.073683e-06 -1.6194773e-06 7.8915045e-06

b_classifier.q.2.weight f4 [128, 128]
00000000: 9542 b3b6 0735 1db7 5288 d7b5 3198 dd36
00000010: a423 45b7 dbb8 0136 d50c 0ab6 19d2 e335
00000020: 78d7 0737 2ec4 4237 18dc 78b6 391c 0937
00000030: 3ecc 30b7 129c 0536 0755 1936 3455 2137
00000040: 25bf e736 2fcc 08b6 6d7b e435 e763 b0b6
00000050: b27d 2ab6 2535 4636 9daf 2537 e3ec 03b7
00000060: c1ec deb6 f172 c836 6e17 fe35 6df5 9536
00000070: 027c 04b7 2c4b 14b7 b3cd 01b7 5693 55b7
00000080: e643 67b6 f4d8 3eb7 5bc2 bb36 0093 4e34
00000090: 7a90 9f36 e8c3 f636 5881 f2b5 16f3 aeb4
000000a0: 379c 5837 9378 3037 2606 86b6 3d1e 5737
000000b0: 642a 5437 6c19 3436 8e67 ed35 2b9f aeb5
000000c0: 5ab1 1937 3c3d 28b6 8529 14b7 ac44 5a37
000000d0: c809 5b37 ac0c c9b5 7712 29b6 a22e 8c36
000000e0: 3d32 d835 e558 4136 8171 e136 5904 62b6
000000f0: e492 6935 52af d336 e73a b036 4dae 1eb6
00000100: 2a87 cdb6 941a 0a36 68a7 0c36 9144 02b6
00000110: 4b91 a1b6 5f04 1336 acef a0b4 3121 a035
00000120: 6f4b 4cb6 93b7 2336 0511 2fb7 3315 02b6
00000130: 4c53 4c36 7d89 16b6 1051 3fb7 bdf7 32b7
00000140: 8e14 4337 0f9b 25b7 ab35 5936 0dd1 ef35
00000150: ae46 77b5 16c2 8a35 50ab 3d34 518c 2237
00000160: aabe 1036 a738 4ab6 347e a2b6 dab7 aeb5
00000170: 2ccd 57b7 4bd5 b536 4a7e 0f36 8efd 5a37
00000180: 71fe af36 b080 41b6 4ef4 2db7 da0e c135
00000190: 3bad acb5 d556 d3b6 e551 ccb5 829f 9ab6
000001a0: 889c ab34 aedb 8eb5 9074 5737 64e4 0037
000001b0: 1e3d 31b5 886d fd35 3b6e 03b6 da9b 18b6
000001c0: d79b b3b6 a85a 06b6 a14b 2436 86c6 e7b5
000001d0: aa91 0037 4907 71b6 f8d7 0037 ef50 dcb6
000001e0: 37b9 4937 63da 0a37 dfc0 16b7 7de6 1636
000001f0: d089 28b7 f02d f4b6 701d ec35 3b0c 87b6
00000200: 0cab 99b4 cfd5 88b5 0947 5136 28b6 cf36
00000210: e021 1d36 7026 ccb6 db33 0337 38ae d736
00000220: 99d4 f7b5 7223 edb6 67f9 6536 64c0 adb6
00000230: 1ce0 9536 640a e6b5 49e6 1236 4662 bd36
00000240: 3c3b e236 7b74 56b7 3b98 1cb7 9f96 5bb6
00000250: 6d90 ffb6 9fa1 3db6 0b77 0d36 260f 05b6
00000260: 45ca d3b4 92a6 4736 6043 f535 425b 2537
00000270: 4725 4ab6 bfa2 bd36 0ac8 1337 9b94 07b6
00000280: 4164 5137 6d68 4437 3334 6836 5baa 38b3
00000290: bfb2 14b7 5ff6 19b5 2985 0cb7 9be7 e2b6
000002a0: 0e1a f8b5 6a79 4b37 0494 5037 4643 ffb6
000002b0: d622 5837 3663 96b6 22b0 2b37 6cbc 14b6
000002c0: 1e0a fcb5 0638 3ab6 9469 32b6 7759 29b7
000002d0: e425 0036 31aa 2537 359e 60b6 8956 a836
000002e0: c831 8136 c988 9735 a6ab 1e37 f9bb 1337
000002f0: 3734 32b7 65ff 0436 b91e 2cb6 17b2 80b6
00000300: 8e32 89b6 62ce 1337 c93e 85b6 20c8 ceb6
00000310: 5721 0637 2c55 0137 8e59 36b6 4146 4a37
00000320: bc86 f5b5 15eb 0536 7959 28b7 f92e 4a35
00000330: 7e21 1eb6 4c4c 5b37 59cd 2d36 a8a6 20b7
00000340: 5948 4937 c904 1c36 51dd dab6 12e3 8b35
00000350: 2f35 f9b6 5c55 4f37 ce3d 3235 0908 1a36
00000360: 5d6a eb36 6ddc a3b5 823a 3736 f631 38b6
00000370: d1e9 2a36 f6c8 1536 db6c 3537 4925 08b5
00000380: 5a8c 7935 680c 4a37 d2e1 0d36 e4ef 0b36
00000390: 0281 56b7 88f3 7636 415c 2ab7 874f 29b6
000003a0: 4cd0 c3b6 d9b5 5337 c275 43b5 d8c4 2e36
000003b0: b7a9 d036 47c6 ec35 2474 00b7 fb9f 1536
000003c0: f830 02b6 0ef9 4b36 d804 2336 3c8b 8fb6
000003d0: c7a5 cc36 1bae 8bb5 e4a8 2e36 a18e 40b5
000003e0: 3384 da35 e6f5 49b6 e73f f1b6 bddb 2cb7
000003f0: 2dee 9135 b3a4 11b5 a436 36b7 d418 4ab6
-5.342367e-06 -9.370276e-06 -1.6058423e-06 6.6040307e-06 -1.1750413e-05 1.9330098e-06 -2.0571072e-06 1.6973964e-06
8.096795e-06 1.1608978e-05 -3.7082991e-06 8.172407e-06 -1.0537971e-05 1.990939e-06 2.284827e-06 9.616186e-06
6.9065886e-06 -2.038443e-06 1.7023245e-06 -5.256839e-06 -2.5405138e-06 2.9535233e-06 9.8756545e-06 -7.863363e-06
-6.6436774e-06 5.9738454e-06 1.8931294e-06 4.4691174e-06 -7.896686e-06 -8.83899e-06 -7.736892e-06 -1.2730094e-05
-3.4461204e-06 -1.1375396e-05 5.5956602e-06 1.9238723e-07 4.7553885e-06 7.354178e-06 -1.8068049e-06 -3.2586894e-07
1.2910975e-05 1.0518491e-05 -3.994227e-06 1.2822039e-05 1.26460545e-05 2.6836888e-06 1.7688014e-06 -1.3010334e-06
9.1608035e-06 -2.5069594e-06 -8.831154e-06 1.30098015e-05 1.3055695e-05 -1.4979355e-06 -2.519371e-06 4.177754e-06
1.6107875e-06 2.8810985e-06 6.718736e-06 -3.3679155e-06 8.701302e-07 6.3087e-06 5.252066e-06 -2.364529e-06
-6.1252113e-06 2.0579073e-06 2.095907e-06 -1.941142e-06 -4.8150882e-06 2.1907251e-06 -2.9976707e-07 1.1930589e-06
-3.0442277e-06 2.4395747e-06 -1.04347755e-05 -1.938385e-06 3.0446854e-06 -2.243177e-06 -1.1403361e-05 -1.0667308e-05
1.16276915e-05 -9.870869e-06 3.2366759e-06 1.7867729e-06 -9.2117523e-07 1.0338288e-06 1.766432e-07 9.688622e-06
2.1568653e-06 -3.0133322e-06 -4.842668e-06 -1.3017518e-06 -1.2862769e-05 5.419051e-06 2.138217e-06 1.3052848e-05
5.2450273e-06 -2.8834147e-06 -1.0368485e-05 1.4383943e-06 -1.2865415e-06 -6.2983986e-06 -1.5223019e-06 -4.608127e-06
3.1965124e-07 -1.064376e-06 1.2842138e-05 7.682571e-06 -6.6026575e-07 1.8881847e-06 -1.9584684e-06 -2.2740483e-06
-5.352758e-06 -2.0020325e-06 2.4481926e-06 -1.7268619e-06 7.66331e-06 -3.591604e-06 7.679679e-06 -6.565933e-06
1.2023657e-05 8.276288e-06 -8.985603e-06 2.2485904e-06 -1.0045667e-05 -7.2771145e-06 1.7591938e-06 -4.0247373e-06
-2.8622924e-07 -1.0195016e-06 3.1184775e-06 6.1902865e-06 2.341454e-06 -6.0841485e-06 7.820282e-06 6.427781e-06
-1.8464808e-06 -7.067277e-06 3.426883e-06 -5.178199e-06 4.466636e-06 -1.713936e-06 2.188974e-06 5.6440795e-06
6.7422206e-06 -1.2782514e-05 -9.3337685e-06 -3.2721216e-06 -7.6164056e-06 -2.825727e-06 2.107993e-06 -1.9827362e-06
-3.9448983e-07 2.9750267e-06 1.8273531e-06 9.856014e-06 -3.0122044e-06 5.651585e-06 8.808458e-06 -2.0203067e-06
1.2480713e-05 1.1706824e-05 3.4601078e-06 -4.2995776e-08 -8.863105e-06 -5.735546e-07 -8.375654e-06 -6.7622873e-06
-1.8485023e-06 1.2128012e-05 1.2432229e-05 -7.607424e-06 1.2882714e-05 -4.481898e-06 1.0233403e-05 -2.2163395e-06
-1.8778408e-06 -2.774877e-06 -2.6585521e-06 -1.0094015e-05 1.9095542e-06 9.874392e-06 -3.347069e-06 5.016864e-06
3.850295e-06 1.1290186e-06 9.457499e-06 8.805649e-06 -1.0621784e-05 1.9818192e-06 -2.564788e-06 -3.8354297e-06
-4.0888035e-06 8.809935e-06 -3.971018e-06 -6.162576e-06 7.994785e-06 7.70883e-06 -2.717224e-06 1.20564955e-05
-1.8293135e-06 1.995538e-06 -1.0034412e-05 7.531922e-07 -2.356333e-06 1.30711815e-05 2.5898537e-06 -9.575546e-06
1.1997378e-05 2.3248597e-06 -6.522671e-06 1.0422393e-06 -7.4269697e-06 1.2358036e-05 6.6400105e-07 2.2952465e-06
7.015928e-06 -1.2208599e-06 2.730318e-06 -2.7447218e-06 2.5468073e-06 2.2319705e-06 1.0813786e-05 -5.0718205e-07
9.2963967e-07 1.2043027e-05 2.1142082e-06 2.0852249e-06 -1.2785431e-05 3.679861e-06 -1.0154269e-05 -2.5229253e-06
-5.835702e-06 1.261892e-05 -7.281452e-07 2.6042599e-06 6.2186405e-06 1.7641077e-06 -7.656436e-06 2.229585e-06
-1.9400013e-06 3.0394326e-06 2.4291712e-06 -4.277941e-06 6.098973e-06 -1.0406978e-06 2.6026328e-06 -7.1733126e-07
1.6280741e-06 -3.0094466e-06 -7.189799e-06 -1.0303161e-05 1.087266e-06 -5.425638e-07 -1.0860767e-05 -3.0114797e-06

b_classifier.q.2.bias f4 [128]
00000000: f64c 6e35 9d55 3836 1527 09b6 dc03 30b6
00000010: 8b8f 59b7 0c25 1737 c9c5 07b6 1610 45b6
00000020: edca 58b7 7df7 8a36 4d91 ef36 8b8f b336
00000030: cd54 58b7 d5ae 9a36 0020 0836 8f72 7d36
00000040: cbbd 1f36 d77c f6b5 57fc 15b6 7f30 02b7
00000050: 3b7f 0b37 834c 8837 644e 0336 5c93 0c36
00000060: 6562 1d36 f6c6 85b6 6366 3737 d0b3 0836
00000070: bbea 3db7 9f4a 5637 7d0c 0bb7 e0e4 e236
00000080: 6f9e 4eb6 5f8c cf35 ef1b 5437 a310 7e36
00000090: a47f b636 47e8 4fb7 6054 c935 8e9c bbb4
000000a0: a892 8db6 05ea b136 5a64 4d35 13cd 46b7
000000b0: 200e 1235 8222 1eb7 5403 49b7 b312 c336
000000c0: f208 3737 e4ef 00b6 23d4 27b7 7144 0f37
000000d0: 914a 4236 4220 5fb6 4274 9535 ec6a f1b6
000000e0: 4455 02b7 27c9 47b7 58ce fdb5 1908 08b6
000000f0: af91 f6b5 bd94 58b7 7858 ecb5 2446 d435
00000100: 1566 4e37 f2a6 1c35 e54f e2b5 d1ef 28b6
00000110: 4319 58b0 e875 0fb6 ed43 bbb6 4a76 53b6
00000120: f7c6 e635 5e50 d135 fe1f 3236 49ba dc36
00000130: 8e6d 38b7 3f2c 4c36 2c9c 5336 b27a f6b6
00000140: b9d6 cbb5 159d 3e36 c163 00b6 a938 32b6
00000150: 9d55 dab5 16c6 3e37 9411 8736 def8 fc36
00000160: 1557 1eb6 f34f 0f37 8724 04b7 6543 0636
00000170: f08e 0c36 2b71 a3b6 cebb 3136 e5e2 98b5
00000180: 4eea 0bb6 2b27 5937 fc5e 5336 53a0 53b7
00000190: ee9b e4b4 cf19 9836 abae 38b7 6e4a 18b6
000001a0: 30ec bcb6 bef6 c3b6 ccba 3bb6 af0e 8036
000001b0: 2474 2c36 da97 a636 701a 46b7 8d50 b3b6
000001c0: 28b0 ae36 c144 adb6 9ee5 e3b5 ce60 7db6
000001d0: 76ee cfb5 02f0 0836 5cba 21b6 007d 3937
000001e0: 1390 5937 60d7 beb6 297f 15b6 a6cd 0e36
000001f0: badc 7633 be2c 24b6 f419 5b37 a164 f436
8.87739e-07 2.746797e-06 -2.043734e-06 -2.622829e-06 -1.2967629e-05 9.008927e-06 -2.0231694e-06 -2.936465e-06
-1.2921851e-05 4.141532e-06 7.1396703e-06 5.3513263e-06 -1.28943475e-05 4.609911e-06 2.0284206e-06 3.776662e-06
2.380332e-06 -1.8364761e-06 -2.2349611e-06 -7.759895e-06 8.314669e-06 1.6248092e-05 1.956615e-06 2.09474e-06
2.3452096e-06 -3.986871e-06 1.0931489e-05 2.0370244e-06 -1.131993e-05 1.2772768e-05 -8.287953e-06 6.7619694e-06
-3.0788613e-06 1.5463555e-06 1.26426885e-05 3.7858633e-06 5.438882e-06 -1.2392243e-05 1.5000223e-06 -3.4945373e-07
-4.2192005e-06 5.3022545e-06 7.651448e-07 -1.1849467e-05 5.4409793e-07 -9.425568e-06 -1.19813085e-05 5.8136297e-06
1.0909733e-05 -1.921312e-06 -1.0003368e-05 8.5393995e-06 2.8951656e-06 -3.3248366e-06 1.11352e-06 -7.194807e-06
-7.768456e-06 -1.1908159e-05 -1.8910023e-06 -2.0270293e-06 -1.8370828e-06 -1.2909234e-05 -1.7609118e-06 1.5815644e-06
1.2302325e-05 5.8357466e-07 -1.6861565e-06 -2.5173542e-06 -7.861624e-10 -2.137729e-06 -5.580942e-06 -3.1510303e-06
1.7194242e-06 1.5595103e-06 2.6542689e-06 6.5781974e-06 -1.0992762e-05 3.0424123e-06 3.1532354e-06 -7.345655e-06
-1.5187171e-06 2.840364e-06 -1.913155e-06 -2.6557047e-06 -1.6267182e-06 1.1371003e-05 4.02536e-06 7.539157e-06
-2.3594523e-06 8.542079e-06 -7.876318e-06 2.0006785e-06 2.0944826e-06 -4.870953e-06 2.6484372e-06 -1.1390918e-06
-2.0848997e-06 1.2943327e-05 3.1496738e-06 -1.2613908e-05 -4.2581763e-07 4.5329575e-06 -1.1007923e-05 -2.2693089e-06
-5.6303325e-06 -5.8401774e-06 -2.7973902e-06 3.8164067e-06 2.56976e-06 4.9648634e-06 -1.1807875e-05 -5.343993e-06
5.2061114e-06 -5.163806e-06 -1.6979645e-06 -3.7756286e-06 -1.5492103e-06 2.0405282e-06 -2.4099345e-06 1.1055963e-05
1.2967753e-05 -5.687514e-06 -2.2276747e-06 2.1279352e-06 5.7477088e-08 -2.4463948e-06 1.305946e-05 7.2834814e-06

b_classifier.fcc.weight f4 [2, 2, 768]
00000000: 725a 46bc 8aaf 8bbc 0e15 02bd aa89 f5b9
00000010: 36db 8f3c f610 953c 61e8 d33b 5da5 e33c
00000020: c7c9 dd3b 7e2a 6f3c a143 0dbb 59f6 18bd
00000030: bddc 113d 39b8 a7bc f2a0 ca3c c0ff e43b
00000040: 4363 6bbc 07fd cbbc b245 c5bb d71a 8f3c
00000050: 3f3b 623d 0e6a c8bb 5982 4b3d 383b 413d
00000060: bed4 fdbc 3694 05bc 9f66 e1bb fd03 ac3d
00000070: 18f2 08bd f1a8 be3c 76a8 dc3c d2e2 493d
00000080: f536 7dbb 5945 763d 62d2 f63c 2e1f 0c3d
00000090: e938 c0bc 06dd e8bc a68c 4dbd 5b8d 283d
000000a0: 52bc 86bb d313 2bbd 41f1 ad3a a44b 82bc
000000b0: 5f5d dd3a 02e0 33bc 1680 d33b 4376 5a3d
000000c0: b34d a13b c312 523c 1c32 1c3c 32d5 f7bc
000000d0: 1314 c0bc 2a75 3ebd da11 17bd 25f6 e33c
000000e0: 8d52 0cbd 197b 3d3a 4828 513c ebe4 81bd
000000f0: 0742 873c c0f1 af3c a2ed 3e3c 207d 3a3d
00000100: 6d15 61bc fd1b 9d3c 5d62 713c f7e8 84bd
00000110: 97b3 923b f16a 1b3c 62fe 1c3a d555 f43c
00000120: ac4f 3e3b 2c7e 8bbc 25bb b13c 112f 323b
00000130: ae45 2ebd 17e7 b03c 6d67 e3bc a30f e2bc
00000140: 3b19 bcbc 63d3 8cbc 9a71 933c 3aad 6dbb
00000150: 77e9 923c 4e91 a33c 430a e0bb c4ad e73c
00000160: 4052 893a 8f7e ed3b 8097 58bc eb60 06bd
00000170: 8000 12bd d00b 17bb 65e3 2dbc c68b 633b
00000180: d29b cabc 2e02 ad3c 306f 0e3d fc84 15bc
00000190: 9644 c63c 1922 95bb 469b 89bc 8895 373d
000001a0: df8f 21bd 1cfe e5bc 8969 2dbc ad1d 813b
000001b0: 1693 04bd 4922 5f3c 5d0f 563c 4a60 a5bc
000001c0: 7357 1d3c beb6 c33b bfce eabc f69b 88bc
000001d0: 6f5d fabb c981 453d d159 ccbb 76ab 99bb
000001e0: 20b3 8a3c 9fd5 903c c8b7 0cbd 252e 713a
000001f0: 9650 40bb 7204 cbbb 59ba 87bc c69a c9bc
00000200: 279a 2cbd b2bb 85bb e96b 683b c8c0 64bc
00000210: f3b0 f53c a66f b3bc 04f3 6e3b dc47 1f3d
00000220: 21f6 003b 6ed1 543c 3c05 e1bc cc3f a439
00000230: 855f c63c 5bf1 dbbc 73b2 52bb f2bb 22bd
00000240: 7a86 963c 4473 8a3c d663 6bbd 89bd e7bb
00000250: 3318 43bb 61c6 033b c57b e4bc c5b8 473c
00000260: 0faa 96bc fe17 e43c ad02 e23a 55eb 71bd
00000270: 317e 903b a04e d0bc 851d 4c3d 911c 363d
00000280: e14d e7bb ed96 e83c ca65 843c 8ee0 883c
00000290: 050f 5c3c 8091 793d 8c67 86bc 7ae1 aabc
000002a0: 01aa 88bc 453a adbc d7c9 473c 11cf b33b
000002b0: 8176 90bb c971 283b 2065 0f3d fe3d 0a3d
000002c0: 28e6 803b ffae 83bc 766f 0a3d 13b7 25bd
000002d0: 6888 10bd cb4b bc3c ceea 4c3c 14a4 543c
000002e0: a189 3d3c 118e 39bc 372d 8bbb ee52 1abc
000002f0: dac5 42bd 082b 36bd 17b8 0abb fad7 52bd
00000300: 40bb 05bd 29b2 11bc 6128 7d3c 0616 46bc
00000310: 2454 81bc cd0e 9e3d 5b05 de3c 5889 bdbc
00000320: f0bf d83c 8bfa 3c3d 9ea4 4a3d 7ac9 d0bc
00000330: 991f 2339 01da 9fbc 89df 023d 0bc1 603c
00000340: 8f3c 0dbd 342b afbc 5ce8 00bd d02f 2f3c
00000350: 3b6f 00bc f232 f03b ca87 4dbd 1a9f 1f3d
00000360: 5966 a43c 116a 86bb 5bb2 433d 0a23 1abc
00000370: 73ef 983d 3b2c 3cba e001 c73c d78e 763c
00000380: 1189 613c 3bfc 26bc e9d5 a5bc 651f 98bc
00000390: cd85 d4ba 1a8f 873c 922b fa3b 832e 823c
000003a0: 6024 ffbc 3062 a8bc 7834 88bc 70ea 893d
000003b0: b614 a33c ffc9 9f3b a7cf 57bb 4c6c 4ebb
000003c0: d87f e43c 7d69 fbbb e865 f2bb 5a42 e33b
000003d0: a40d 84bc 5314 aabb 0e8b 053c 57af 1dbc
000003e0: 248e 433c 337b 913c f513 693c 3a6a 4b3c
000003f0: 5103 bbbb 8fd3 9cbc 7698 513b fc13 31bb
-0.012106525 -0.017051477 -0.03175836 -0.0004683261 0.017560583 0.018196564 0.0064669107 0.027788812
0.0067684385 0.014597533 -0.0021555203 -0.03734431 0.035610903 -0.020473586 0.024734948 0.0069884956
-0.014366928 -0.024900926 -0.006020271 0.017468853 0.055232283 -0.0061161583 0.049684856 0.047175616
-0.030985232 -0.008153012 -0.0068786885 0.08399198 -0.033434004 0.023273917 0.026935797 0.04928858
-0.0038637493 0.06012473 0.030129615 0.034209423 -0.023464637 -0.028425705 -0.05018296 0.041150432
-0.004111805 -0.041766953 0.0013270752 -0.015905209 0.0016888789 -0.010978701 0.006454478 0.05333544
0.0049225925 0.012821856 0.009533431 -0.030253027 -0.023447072 -0.046498455 -0.03688226 0.027827332
-0.034258414 0.0007228121 0.012765951 -0.06342491 0.016510976 0.02147758 0.011653336 0.045529485
-0.013738018 0.019178385 0.014732924 -0.06489747 0.004476975 0.009485946 0.0005988834 0.029826084
0.0029039187 -0.017027937 0.021695683 0.0027188698 -0.04254692 0.021594567 -0.027759278 -0.027595347
-0.02296125 -0.01719064 0.017998505 -0.003626658 0.01793359 0.019966748 -0.006837161 0.0282811
0.0010476783 0.007247753 -0.013219714 -0.032807272 -0.035645008 -0.0023047812 -0.010613297 0.0034720763
-0.024732504 0.021119203 0.034774005 -0.009125944 0.024202626 -0.004551184 -0.016797673 0.04482034
-0.039443847 -0.02807527 -0.010584244 0.003940305 -0.032366835 0.013619014 0.013065186 -0.020187516
0.009603369 0.0059727123 -0.028663037 -0.01667593 -0.0076405327 0.048219476 -0.006236293 -0.004689629
0.016931117 0.017679987 -0.034354955 0.00092002965 -0.0029344908 -0.0061955983 -0.01656835 -0.024609935
-0.0421392 -0.004081213 0.003546471 -0.013961978 0.029991603 -0.021903824 0.0036460767 0.03888689
0.0019677954 0.012989385 -0.027468316 0.0003132805 0.02421547 -0.026848486 -0.003214982 -0.03973002
0.01837467 0.016900666 -0.057468258 -0.007072155 -0.0029769063 0.0020107257 -0.02789105 0.012190049
-0.018391637 0.027843472 0.0017243229 -0.05906232 0.0044095744 -0.025428116 0.04983284 0.044460837
-0.0070588444 0.02839228 0.016161818 0.016708639 0.013431315 0.060929775 -0.016406797 -0.020859469
-0.016682627 -0.02114595 0.012194118 0.0054873307 -0.004408658 0.0025702587 0.03500855 0.033750527
0.0039336868 -0.016074656 0.033797704 -0.040457796 -0.035286337 0.02298536 0.012507154 0.012978572
0.011568458 -0.011325375 -0.0042473334 -0.009419186 -0.047551967 -0.04447463 -0.0021166855 -0.051475503
-0.03264928 -0.008892574 0.015451522 -0.012090212 -0.015787192 0.07717667 0.027102163 -0.02313678
0.02645871 0.046137374 0.049473397 -0.025486697 0.00015556662 -0.019513132 0.03195146 0.0137179
-0.03448158 -0.021382906 -0.031471595 0.010692552 -0.007839019 0.007330292 -0.050178327 0.03897009
0.020068334 -0.0041019996 0.047777515 -0.009407768 0.07467546 -0.0007178222 0.024292886 0.015048704
0.013765589 -0.010191972 -0.020243602 -0.018569658 -0.0016214192 0.016547728 0.0076345885 0.01589132
-0.031145275 -0.020554632 -0.016626582 0.067341685 0.019907337 0.0048763747 -0.0032930167 -0.0031497655
0.027892992 -0.0076724873 -0.007397402 0.0069354 -0.016119786 -0.005190411 0.008150829 -0.009624324
0.011935744 0.017758941 0.0142259495 0.012415463 -0.0057071825 -0.019143848 0.0031981743 -0.0027019968

b_classifier.fcc.bias f4 [2]
00000000: 29d2 ccbb 3e4a b73b
-0.006250639 0.005593567
