mil/weights/20241120/fold_0_3.pth (torch, 481804 bytes, 8 tensors)

i_classifier.fc.0.weight f4 [2, 768]
000000 20 32 d6 3b 5c 0d a9 3b 0e 26 4c 3d a2 8e 01 bb
       0.006536737 0.0051590633 0.04984098 -0.0019768854
000010 41 42 84 3c 3e 53 05 bc eb 77 d3 3d b0 e9 93 3d
       0.016144874 -0.008137522 0.10325607 0.07222307
000020 6a 3e 84 bd bd e8 ca 3c 5b 49 49 bc 4c fc 80 3b
       -0.06457217 0.024769181 -0.012285556 0.003936326
000030 8b 93 c1 3b af 8f 4e 3d 0e c4 cc bc 6a b9 7c bc
       0.005907481 0.050429996 -0.02499583 -0.0154250655
000040 54 0d 08 3c b2 86 ba bd f4 e2 5c bb 99 02 49 3d
       0.008303959 -0.09107722 -0.003370461 0.049074743
000050 02 05 46 bc 5c f1 96 bd e6 13 5c bd c1 78 d2 3c
       -0.012086155 -0.073702544 -0.053729914 0.025692346
000060 0d 67 9b 3d 6a 92 c8 3b f4 de bc 3d b3 57 79 bc
       0.07588015 0.0061209695 0.092222124 -0.015218663
000070 ac f2 ab 3b cf 57 de 3b b9 6c 3b 3d 95 ca 9c 3d
       0.0052474346 0.00678537 0.045757983 0.07655827
000080 89 d2 8b 3b 2b 5e 24 bd 8b cc b9 3a db c4 e4 bc
       0.004267041 -0.040128868 0.0014175338 -0.0279259
000090 e8 b7 85 bd 62 ac 54 bd 5f 6c fd bc d2 05 9c bd
       -0.06529218 -0.05192221 -0.030935464 -0.07618298
0000a0 5d c1 29 3d d2 eb 2f 3d 10 fe fb 3c 8e c0 33 bd
       0.04144417 0.042949505 0.030760795 -0.043884806
0000b0 c4 e8 45 3c 6f 0a 81 bb 4f 3b a8 bd aa 48 a0 bd
       0.012079421 -0.0039380114 -0.08214437 -0.078263596
0000c0 72 80 95 3b a4 c1 a7 3c ef 52 91 bd 43 3b 17 3d
       0.004562431 0.020478077 -0.070958965 0.03692175
0000d0 15 16 18 3d 07 85 04 bd 2b 9a 8f 3c ad 35 92 3c
       0.037130434 -0.032353427 0.017529568 0.01784786
0000e0 f2 45 b4 bc 3a b1 84 3c 12 6e 2a 3c 8b 93 11 3d
       -0.022006009 0.01619779 0.010402219 0.0355411
0000f0 21 c8 15 3d 06 5b 2b bd f7 d3 f3 bc 78 d6 34 bc
       0.03656781 -0.041834854 -0.029764159 -0.011037461
000100 22 23 42 bd 54 e3 2d be 09 fa 6c bd 1c b4 69 3d
       -0.047396787 -0.1698125 -0.05785564 0.05705653
000110 d2 54 1a 3b 7d 53 c1 bc 6d 91 7a bb b3 bc 9f 3c
       0.0023549092 -0.02359938 -0.0038233653 0.019499158
000120 b3 8e a6 3d c8 b2 23 3c a7 35 fc bc d2 47 75 ba
       0.081326865 0.009991355 -0.030787302 -0.00093567104
000130 a3 fe bd bc 3d f1 2b 3c 97 d9 13 bd e6 34 eb 3c
       -0.02319271 0.010494527 -0.03609618 0.028711747
000140 aa 74 97 3c ae aa 58 3d 2d 3c 5f 3d 5f 9e 27 3c
       0.018488247 0.052897148 0.054500747 0.01023063
000150 bb 0e c4 3d 67 73 69 bc e7 e8 66 3d b4 f6 cf 3d
       0.09573122 -0.0142487055 0.056374457 0.10154477
000160 ac b0 0f bd a3 ee f1 bc ee ee 75 bd 61 3e 65 3d
       -0.035080597 -0.029532736 -0.060042314 0.055967692
000170 3c 93 19 3b 14 f8 02 3d ec e2 35 bd 2b 8c 5b 3d
       0.0023433706 0.031974867 -0.044405863 0.05360047
000180 a2 b9 27 3c d6 82 a0 bc 34 37 73 3b fb d7 91 3b
       0.010237129 -0.019593637 0.003711176 0.0044507957
000190 24 9e e2 3c af 17 9c 3c ea c9 1b 3d 56 65 49 3d
       0.027663298 0.019054262 0.038034357 0.049168907
0001a0 0c cc 02 3d 0d c3 3e 3c 6a c3 f7 bc 90 bc c3 bc
       0.031932876 0.011643183 -0.030244548 -0.023893625
0001b0 af c2 1a 3d 36 0e cc 3b 37 a9 e1 bc 98 da 84 bc
       0.03778332 0.00622728 -0.027546508 -0.016217515
0001c0 c5 7f 13 bc cd 24 ce bc 6c f6 8d bd 74 46 4e bd
       -0.009002631 -0.025164032 -0.06931767 -0.050360158
0001d0 53 3e f5 3c cc 0a 3e 3d 0a 0b 09 bc 06 4d 2c 3d
       0.029936945 0.046397015 -0.008364448 0.042065643
0001e0 5d 18 94 3d 47 86 2b 3d 55 e9 02 3d 06 32 08 bd
       0.072312094 0.041876104 0.031960804 -0.03325083
0001f0 d3 cb 7b 3d 89 53 e3 bc 93 47 02 3d 38 88 cd 3c
       0.06147368 -0.027749794 0.03180654 0.025089368
000200 50 1c 7d 3d d1 1b 24 bd 3f 3b 11 3c fa ea 7e bd
       0.06179458 -0.04006559 0.008864223 -0.06223581
000210 56 3a 96 3d 6b 23 8e bb d4 ee 25 3c d5 3d 83 3c
       0.073353454 -0.0043377182 0.010127742 0.016020695
000220 0e 2f c8 bd 33 2c fc 3c 81 bf 65 3d b5 0b fe bc
       -0.097746 0.030782795 0.056090835 -0.031011442
000230 c9 d0 35 bc df 54 68 3d bf b7 87 3d f6 4f de bc
       -0.011097142 0.056721564 0.06626844 -0.027137738
000240 5b 6c 9c 3a b7 0e 00 3d e1 88 d1 3c cc 4d 5e 3d
       0.0011934148 0.031264033 0.025577964 0.05427341
000250 4e 39 17 bd 18 6e 43 3c d3 0b 33 3c b8 12 6f 3d
       -0.036919884 0.011928104 0.010928112 0.05836746
000260 b2 0e 93 3d 56 ee 2d 3d 18 a1 5f 3d 7c 3b 80 3c
       0.07180537 0.042463623 0.05459699 0.015653364
000270 06 b4 e8 39 79 f5 98 bc 8f cb 33 3d 71 7b a3 bc
       0.00044384616 -0.018671738 0.0438953 -0.019956322
000280 47 d6 a5 b9 40 bf 62 bd b7 f6 9f bd 94 26 bc bb
       -0.00031630902 -0.05535817 -0.07810729 -0.0057419036
000290 56 20 61 3c a8 77 3d bc 76 eb bd bb 2c b9 45 3d
       0.01374062 -0.011564173 -0.0057958914 0.048272297
0002a0 61 cd 40 bb 8e 25 e9 bc 94 19 b2 bd ff 9b a9 bd
       -0.002941929 -0.02846029 -0.08696285 -0.08281707
0002b0 44 f0 26 3c a6 53 02 bd 29 a1 44 3d 55 e8 5f bd
       0.01018912 -0.031818055 0.048005257 -0.05466493
0002c0 e8 be e0 bd 0c 23 25 bc 50 4f c4 3c 82 53 50 bd
       -0.109739125 -0.010079157 0.0239636 -0.05086089
0002d0 8d 36 94 bc 37 d6 78 3d a4 c1 b9 3c f8 4b d3 3c
       -0.018092418 0.060751166 0.022675343 0.02579306
0002e0 8d bd 64 bc 15 6d 67 bc f0 ba d0 bc 7e 77 4e 3d
       -0.013961208 -0.014125128 -0.025479764 0.050406925
0002f0 86 6f a3 3b 17 ac 96 ba cb 82 10 bd 6e d6 3b 3d
       0.00498766 -0.0011495379 -0.035280984 0.045858793
000300 49 91 1d 3d 1a 9f 37 3d 85 00 88 bc ec af 88 bd
       0.038468633 0.044829465 -0.01660181 -0.066741794
000310 16 35 c1 3b 1d 01 5c 3d 3c 22 83 bd 87 17 0d 3d
       0.005896221 0.053712 -0.06403014 0.034446266
000320 30 73 92 bd 92 ac 77 ba eb 29 50 3c 49 47 97 3c
       -0.071508765 -0.0009448017 0.0127053065 0.018466609
000330 83 55 10 be 4b b4 40 bc 63 ab 68 3c f8 a3 ad 3c
       -0.1409512 -0.011761735 0.014201018 0.02119635
000340 88 c4 da 3c 65 52 23 bd 13 cc fb ba 87 3f 1a 3d
       0.026705042 -0.0398735 -0.0019210599 0.03765824
000350 4b dc 78 bc eb 8f 14 3d 1b ed 94 3c 58 2d 9c 3d
       -0.015189241 0.036270063 0.018179467 0.07625836
000360 1a 8d 05 3e b6 81 01 3d 5b ee 1e 3d 18 e2 64 3c
       0.13042107 0.031617843 0.038801532 0.013969921
000370 6a f5 32 bc 37 90 c8 3c 27 5b 35 bd 67 2d 1e bc
       -0.010922769 0.02448283 -0.044276383 -0.009654379
000380 00 d0 ac bc 28 17 2e bd 06 52 9d 3b d8 50 37 3c
       -0.021095276 -0.042502552 0.0048010377 0.011188708
000390 70 75 53 3c 61 15 bb bc 67 ba 89 3c ad 2a a2 bd
       0.012906417 -0.022837343 0.016812516 -0.07918296
0003a0 09 14 0b 3d d3 78 14 3d e2 c6 96 bb af 4e a7 3c
       0.033954654 0.03624804 -0.0046013454 0.020423261
0003b0 0c 55 18 3c 15 8e a2 3c 63 33 e1 bc d2 b4 6d 3d
       0.0092976205 0.01984314 -0.027490323 0.05803377
0003c0 b6 b6 e5 bb 65 b8 e0 bc 64 ed 3d bc 21 da fc bc
       -0.007010306 -0.027431676 -0.011592243 -0.03086573
0003d0 38 65 73 3c 4a ee a6 bd 94 0f 18 bc 8c a8 8e bd
       0.014855675 -0.08150919 -0.009281058 -0.069657415
0003e0 2c 0f 22 bd 38 ba 1c bc da 26 59 3c c1 6e 21 3b
       -0.03956525 -0.009565882 0.013253892 0.0024632665
0003f0 88 73 1b 3d 6f 89 5e bc a9 1b 63 bc 33 12 4a bc
       0.037951976 -0.013582571 -0.013861575 -0.012333441

i_classifier.fc.0.bias f4 [2]
000000 e0 90 5b bc 4b a8 6d 3e
       -0.01340124 0.2320873

b_classifier.q.0.weight f4 [128, 768]
000000 d5 95 a0 35 5d 8d a0 b5 92 8d a0 35 77 8c a0 b5
       1.1964536e-06 -1.1962071e-06 1.1962131e-06 -1.196181e-06
000010 0f 9a a0 b5 3e 95 a0 35 24 8f a0 35 7e 8b a0 b5
       -1.1965766e-06 1.1964364e-06 1.1962588e-06 -1.1961527e-06
000020 98 8b a0 b5 72 8f a0 b5 d1 8f a0 35 b3 8a a0 b5
       -1.1961556e-06 -1.1962677e-06 1.1962785e-06 -1.1961296e-06
000030 21 96 a0 35 80 91 a0 35 3f 8e a0 b5 90 94 a0 35
       1.1964622e-06 1.1963275e-06 -1.1962328e-06 1.1964166e-06
000040 14 8c a0 35 dc 8e a0 b5 ac 8b a0 b5 b9 89 a0 b5
       1.1961697e-06 -1.1962507e-06 -1.1961579e-06 -1.1961012e-06
000050 37 99 a0 b5 1b 8f a0 35 6c 8c a0 35 1f 9b a0 35
       -1.196552e-06 1.1962578e-06 1.1961797e-06 1.1966075e-06
000060 b6 97 a0 b5 de 97 a0 b5 19 8e a0 b5 12 8f a0 35
       -1.1965083e-06 -1.1965128e-06 -1.1962285e-06 1.1962568e-06
000070 88 8a a0 35 68 93 a0 35 07 8d a0 b5 0c 8b a0 b5
       1.1961247e-06 1.196383e-06 -1.1961973e-06 -1.1961397e-06
000080 9e 97 a0 b5 c6 8d a0 b5 cf 92 a0 35 b2 8d a0 35
       -1.1965055e-06 -1.196219e-06 1.1963656e-06 1.1962168e-06
000090 91 93 a0 35 b8 97 a0 b5 87 97 a0 b5 c3 92 a0 b5
       1.1963876e-06 -1.1965085e-06 -1.1965029e-06 -1.1963642e-06
0000a0 88 96 a0 b5 6e 99 a0 b5 c9 98 a0 b5 3e 95 a0 35
       -1.1964739e-06 -1.1965583e-06 -1.1965395e-06 1.1964364e-06
0000b0 66 8b a0 35 bc 8a a0 35 79 96 a0 b5 86 9a a0 b5
       1.1961499e-06 1.1961306e-06 -1.1964722e-06 -1.1965901e-06
0000c0 b9 93 a0 35 00 90 a0 b5 b5 8f a0 35 a3 8c a0 b5
       1.1963922e-06 -1.1962838e-06 1.1962753e-06 -1.196186e-06
0000d0 51 93 a0 35 4b 8c a0 b5 60 89 a0 b5 64 97 a0 b5
       1.1963804e-06 -1.196176e-06 -1.196091e-06 -1.1964989e-06
0000e0 e5 95 a0 35 3b 95 a0 b5 ca 98 a0 b5 d4 91 a0 b5
       1.1964554e-06 -1.1964361e-06 -1.1965396e-06 -1.196337e-06
0000f0 eb 8f a0 35 8c 8e a0 35 bc 8f a0 35 c5 8d a0 b5
       1.1962815e-06 1.1962416e-06 1.1962761e-06 -1.1962189e-06
000100 da 92 a0 b5 52 8e a0 b5 83 8f a0 35 58 97 a0 35
       -1.1963668e-06 -1.196235e-06 1.1962696e-06 1.1964976e-06
000110 b2 8b a0 35 96 8f a0 b5 80 8b a0 b5 d4 94 a0 b5
       1.1961586e-06 -1.1962718e-06 -1.1961529e-06 -1.1964244e-06
000120 b1 96 a0 35 11 8b a0 b5 7e 96 a0 35 60 97 a0 b5
       1.1964786e-06 -1.1961403e-06 1.1964728e-06 -1.1964985e-06
000130 7e 9f a0 35 70 8d a0 b5 dd 94 a0 35 b1 8b a0 35
       1.1967347e-06 -1.1962093e-06 1.1964254e-06 1.1961585e-06
000140 13 98 a0 35 e2 95 a0 b5 78 8a a0 35 08 8f a0 b5
       1.1965188e-06 -1.1964551e-06 1.1961229e-06 -1.1962557e-06
000150 45 8e a0 b5 42 8e a0 35 2b 93 a0 b5 d7 99 a0 35
       -1.1962335e-06 1.1962331e-06 -1.196376e-06 1.1965702e-06
000160 d2 97 a0 35 f3 8a a0 35 fd 99 a0 b5 33 94 a0 b5
       1.1965114e-06 1.1961369e-06 -1.1965745e-06 -1.1964061e-06
000170 4f 92 a0 b5 a3 96 a0 b5 6b 8e a0 b5 24 8b a0 35
       -1.196351e-06 -1.196477e-06 -1.1962378e-06 1.1961424e-06
000180 bd 95 a0 b5 3e 96 a0 35 0c 91 a0 35 bb 99 a0 b5
       -1.1964509e-06 1.1964655e-06 1.1963143e-06 -1.196567e-06
000190 da 92 a0 35 c3 96 a0 35 47 98 a0 35 d2 8b a0 b5
       1.1963668e-06 1.1964806e-06 1.1965247e-06 -1.1961622e-06
0001a0 f6 8c a0 b5 aa 91 a0 35 41 93 a0 35 e1 99 a0 b5
       -1.1961954e-06 1.1963323e-06 1.1963785e-06 -1.1965714e-06
0001b0 75 8f a0 b5 13 95 a0 b5 aa 98 a0 b5 ff 93 a0 35
       -1.196268e-06 -1.1964315e-06 -1.196536e-06 1.1964001e-06
0001c0 62 94 a0 b5 a4 9a a0 b5 81 8f a0 35 af 8d a0 35
       -1.1964114e-06 -1.1965935e-06 1.1962694e-06 1.1962164e-06
0001d0 a0 8f a0 35 76 8a a0 b5 74 99 a0 b5 5c 8a a0 35
       1.1962729e-06 -1.1961226e-06 -1.196559e-06 1.1961197e-06
0001e0 83 97 a0 35 db 8b a0 35 16 94 a0 35 f1 8f a0 b5
       1.1965025e-06 1.1961632e-06 1.1964028e-06 -1.1962821e-06
0001f0 43 98 a0 b5 6a 8b a0 b5 49 93 a0 35 34 8f a0 35
       -1.1965243e-06 -1.1961504e-06 1.1963795e-06 1.1962607e-06
000200 e0 8c a0 b5 4d 89 a0 b5 43 8f a0 35 ba 90 a0 35
       -1.1961929e-06 -1.1960889e-06 1.1962624e-06 1.196305e-06
000210 be 98 a0 b5 8c 8d a0 35 4d 96 a0 b5 63 95 a0 35
       -1.1965383e-06 1.1962125e-06 -1.1964672e-06 1.1964406e-06
000220 7d 99 a0 b5 3a 94 a0 b5 ba 8e a0 35 97 8a a0 b5
       -1.19656e-06 -1.1964069e-06 1.1962468e-06 -1.1961264e-06
000230 e2 94 a0 35 e8 8c a0 b5 64 9a a0 35 4d 8f a0 b5
       1.196426e-06 -1.1961938e-06 1.1965863e-06 -1.1962635e-06
000240 21 91 a0 35 0d 95 a0 b5 e5 8e a0 b5 20 95 a0 35
       1.1963167e-06 -1.1964308e-06 -1.1962517e-06 1.196433e-06
000250 b0 90 a0 35 3c 97 a0 35 7f 94 a0 b5 ce 89 a0 b5
       1.1963039e-06 1.1964944e-06 -1.1964147e-06 -1.1961035e-06
000260 4e 98 a0 35 91 95 a0 35 c1 90 a0 b5 b3 9a a0 b5
       1.1965255e-06 1.1964459e-06 -1.1963058e-06 -1.1965952e-06
000270 50 94 a0 b5 78 9d a0 35 bc 93 a0 b5 37 8c a0 b5
       -1.1964094e-06 1.1966758e-06 -1.1963925e-06 -1.1961737e-06
000280 85 92 a0 35 f8 99 a0 35 b9 97 a0 b5 36 94 a0 b5
       1.1963572e-06 1.196574e-06 -1.1965086e-06 -1.1964064e-06
000290 2a 8f a0 b5 87 8b a0 b5 c4 8f a0 35 85 8f a0 35
       -1.1962595e-06 -1.1961537e-06 1.196277e-06 1.1962699e-06
0002a0 1f 8c a0 b5 ad 8a a0 35 10 8d a0 35 63 94 a0 b5
       -1.196171e-06 1.1961289e-06 1.1961984e-06 -1.1964115e-06
0002b0 c1 8a a0 b5 23 8f a0 b5 c2 97 a0 b5 ce 8f a0 b5
       -1.1961312e-06 -1.1962587e-06 -1.1965096e-06 -1.1962782e-06
0002c0 a8 8a a0 35 7b 8e a0 b5 d5 94 a0 b5 a6 96 a0 b5
       1.1961283e-06 -1.1962396e-06 -1.1964245e-06 -1.1964773e-06
0002d0 15 95 a0 35 a3 8b a0 35 bc 9b a0 35 8a 95 a0 b5
       1.1964318e-06 1.1961569e-06 1.1966254e-06 -1.196445e-06
0002e0 f5 8b a0 b5 9c 94 a0 b5 8d 8f a0 35 c2 92 a0 b5
       -1.1961662e-06 -1.196418e-06 1.1962708e-06 -1.1963641e-06
0002f0 cb 98 a0 35 e9 99 a0 b5 3a 8e a0 35 d9 91 a0 35
       1.1965398e-06 -1.1965723e-06 1.1962322e-06 1.1963376e-06
000300 b7 92 a0 35 8e 8b a0 35 0c 92 a0 b5 05 8c a0 b5
       1.1963629e-06 1.1961545e-06 -1.1963434e-06 -1.196168e-06
000310 e2 96 a0 35 bf 99 a0 b5 cb 8a a0 b5 f1 92 a0 35
       1.1964842e-06 -1.1965675e-06 -1.1961323e-06 1.1963695e-06
000320 b3 8b a0 b5 8f 8a a0 b5 0a 9a a0 35 a4 8c a0 35
       -1.1961587e-06 -1.1961255e-06 1.196576e-06 1.1961861e-06
000330 42 8c a0 35 f7 8d a0 35 72 8f a0 35 c9 90 a0 b5
       1.1961749e-06 1.1962246e-06 1.1962677e-06 -1.1963067e-06
000340 04 9a a0 35 1c 8d a0 b5 70 8c a0 35 7a 8a a0 35
       1.1965753e-06 -1.1961997e-06 1.1961802e-06 1.1961231e-06
000350 6c 8b a0 b5 d6 8f a0 b5 42 96 a0 b5 8e 8a a0 35
       -1.1961506e-06 -1.1962791e-06 -1.196466e-06 1.1961254e-06
000360 f4 96 a0 35 82 91 a0 35 ec 8f a0 35 2e 8f a0 35
       1.1964862e-06 1.1963277e-06 1.1962816e-06 1.19626e-06
000370 15 8f a0 35 0e 97 a0 35 01 99 a0 35 71 8b a0 35
       1.1962571e-06 1.1964892e-06 1.1965459e-06 1.1961512e-06
000380 48 94 a0 b5 ee 96 a0 35 6c 98 a0 b5 45 8b a0 35
       -1.1964084e-06 1.1964855e-06 -1.196529e-06 1.1961462e-06
000390 71 8b a0 b5 9d 98 a0 35 6a 8c a0 b5 d7 93 a0 b5
       -1.1961512e-06 1.1965345e-06 -1.1961795e-06 -1.1963956e-06
0003a0 0b 8a a0 35 69 94 a0 35 c1 95 a0 b5 e0 8c a0 b5
       1.1961105e-06 1.1964122e-06 -1.1964513e-06 -1.1961929e-06
0003b0 7f 8e a0 b5 1e 97 a0 b5 43 8b a0 b5 a3 8a a0 35
       -1.1962401e-06 -1.196491e-06 -1.196146e-06 1.1961278e-06
0003c0 bc 8e a0 35 11 92 a0 35 5c 8a a0 35 9e 8b a0 b5
       1.196247e-06 1.196344e-06 1.1961197e-06 -1.1961563e-06
0003d0 10 8b a0 b5 49 94 a0 b5 9f 95 a0 35 88 95 a0 35
       -1.1961401e-06 -1.1964086e-06 1.1964474e-06 1.1964448e-06
0003e0 2d 8f a0 b5 74 8f a0 35 cb 96 a0 b5 3f 97 a0 35
       -1.1962599e-06 1.1962679e-06 -1.1964815e-06 1.1964947e-06
0003f0 51 a0 a0 35 20 8d a0 b5 0c 96 a0 b5 a8 8a a0 35
       1.1967587e-06 -1.1962002e-06 -1.1964598e-06 1.1961283e-06

b_classifier.q.0.bias f4 [128]
000000 75 94 a0 35 64 94 a0 35 e4 9b a0 b5 1c 9a a0 35
       1.1964136e-06 1.1964116e-06 -1.1966299e-06 1.1965781e-06
000010 f9 95 a0 35 1b 90 a0 35 b6 96 a0 b5 cb 9c a0 b5
       1.1964577e-06 1.1962869e-06 -1.1964792e-06 -1.1966562e-06
000020 f2 91 a0 35 09 95 a0 35 c7 97 a0 b5 e0 8a a0 b5
       1.1963405e-06 1.1964304e-06 -1.1965102e-06 -1.1961347e-06
000030 0f 96 a0 b5 b1 93 a0 35 5a 99 a0 b5 76 90 a0 35
       -1.1964602e-06 1.1963913e-06 -1.196556e-06 1.1962973e-06
000040 7b 93 a0 35 55 96 a0 b5 57 8e a0 b5 98 8a a0 b5
       1.1963851e-06 -1.1964681e-06 -1.1962355e-06 -1.1961265e-06
000050 5f 8d a0 35 ae 96 a0 35 83 96 a0 35 52 94 a0 35
       1.1962073e-06 1.1964783e-06 1.1964734e-06 1.1964096e-06
000060 a5 8f a0 35 3e 98 a0 35 ed 8a a0 b5 04 8e a0 b5
       1.1962735e-06 1.1965237e-06 -1.1961362e-06 -1.1962261e-06
000070 7f 91 a0 35 40 8e a0 b5 05 8f a0 35 22 8b a0 35
       1.1963274e-06 -1.1962329e-06 1.1962553e-06 1.1961422e-06
000080 af 9a a0 b5 5a 8e a0 35 91 9a a0 35 5a 90 a0 35
       -1.1965948e-06 1.1962359e-06 1.1965914e-06 1.1962941e-06
000090 e1 90 a0 35 9d 89 a0 b5 34 94 a0 b5 9f 8b a0 b5
       1.1963094e-06 -1.196098e-06 -1.1964062e-06 -1.1961564e-06
0000a0 8d 89 a0 b5 6c 91 a0 35 b3 98 a0 b5 e3 96 a0 35
       -1.1960962e-06 1.1963252e-06 -1.196537e-06 1.1964843e-06
0000b0 00 9a a0 35 fd 98 a0 b5 f6 99 a0 b5 43 8b a0 35
       1.1965749e-06 -1.1965454e-06 -1.1965737e-06 1.196146e-06
0000c0 ec 95 a0 b5 22 8d a0 b5 0c 90 a0 b5 c4 92 a0 b5
       -1.1964562e-06 -1.1962004e-06 -1.1962852e-06 -1.1963643e-06
0000d0 25 90 a0 b5 25 8e a0 b5 a1 8d a0 35 55 8a a0 b5
       -1.196288e-06 -1.1962298e-06 1.1962148e-06 -1.1961189e-06
0000e0 1c 8f a0 b5 70 92 a0 b5 04 8c a0 35 c0 8f a0 b5
       -1.1962579e-06 -1.1963548e-06 1.1961679e-06 -1.1962766e-06
0000f0 56 8b a0 b5 21 94 a0 b5 5e 8a a0 35 db 94 a0 35
       -1.1961481e-06 -1.196404e-06 1.1961199e-06 1.1964252e-06
000100 ff 8e a0 35 a3 8e a0 35 e0 8d a0 b5 5f 9a a0 35
       1.1962546e-06 1.1962442e-06 -1.196222e-06 1.1965857e-06
000110 03 98 a0 35 70 95 a0 35 05 93 a0 b5 25 99 a0 35
       1.196517e-06 1.1964421e-06 -1.1963717e-06 1.19655e-06
000120 dc 92 a0 35 78 9a a0 b5 5e 91 a0 b5 cc 8f a0 35
       1.1963671e-06 -1.1965885e-06 -1.1963236e-06 1.1962779e-06
000130 13 8c a0 35 17 93 a0 b5 14 8c a0 b5 89 98 a0 b5
       1.1961696e-06 -1.1963738e-06 -1.1961697e-06 -1.1965323e-06
000140 ed 8b a0 35 51 8b a0 b5 f2 93 a0 35 b1 8b a0 35
       1.1961653e-06 -1.1961475e-06 1.1963987e-06 1.1961585e-06
000150 9d 93 a0 35 fc 8f a0 35 5e 96 a0 35 99 8b a0 35
       1.196389e-06 1.1962834e-06 1.1964692e-06 1.1961557e-06
000160 32 97 a0 b5 7e 98 a0 35 1a 96 a0 b5 b2 93 a0 35
       -1.1964933e-06 1.196531e-06 -1.1964614e-06 1.1963914e-06
000170 64 8a a0 b5 cd 89 a0 35 b4 99 a0 b5 45 8e a0 b5
       -1.1961206e-06 1.1961034e-06 -1.1965662e-06 -1.1962335e-06
000180 eb 96 a0 b5 e7 97 a0 b5 14 8a a0 35 b3 92 a0 b5
       -1.1964852e-06 -1.1965138e-06 1.1961115e-06 -1.1963624e-06
000190 26 8f a0 35 c6 92 a0 35 76 8f a0 b5 e8 95 a0 35
       1.1962591e-06 1.1963646e-06 -1.1962682e-06 1.1964557e-06
0001a0 73 9b a0 b5 6f 98 a0 35 b6 93 a0 35 4c 8e a0 35
       -1.1966171e-06 1.1965293e-06 1.1963918e-06 1.1962343e-06
0001b0 1d 9a a0 35 27 97 a0 b5 da 8d a0 b5 72 8a a0 35
       1.1965782e-06 -1.196492e-06 -1.1962213e-06 1.1961222e-06
0001c0 7c 8a a0 b5 e8 9c a0 b5 60 99 a0 b5 9f 93 a0 b5
       -1.1961233e-06 -1.1966595e-06 -1.1965567e-06 -1.1963892e-06
0001d0 65 8b a0 b5 26 95 a0 b5 ec 94 a0 35 58 96 a0 b5
       -1.1961498e-06 -1.1964337e-06 1.1964271e-06 -1.1964685e-06
0001e0 ff 88 a0 b5 27 8c a0 35 17 95 a0 35 73 8b a0 35
       -1.19608e-06 1.1961719e-06 1.196432e-06 1.1961514e-06
0001f0 dc 96 a0 b5 32 95 a0 b5 32 94 a0 b5 7a 8f a0 35
       -1.1964835e-06 -1.196435e-06 -1.196406e-06 1.1962686e-06

b_classifier.q.2.weight f4 [128, 128]
000000 ce 95 a0 35 03 8f a0 35 ae 94 a0 b5 3d 92 a0 b5
       1.1964528e-06 1.1962551e-06 -1.19642e-06 -1.196349e-06
000010 38 99 a0 b5 8e 94 a0 b5 16 8b a0 b5 f0 96 a0 b5
       -1.1965521e-06 -1.1964164e-06 -1.1961408e-06 -1.1964858e-06
000020 ab 90 a0 35 c6 8b a0 b5 bb 93 a0 b5 3e 8f a0 b5
       1.1963033e-06 -1.1961608e-06 -1.1963924e-06 -1.1962618e-06
000030 ac 8c a0 35 cc 99 a0 b5 ad 92 a0 b5 18 98 a0 b5
       1.196187e-06 -1.196569e-06 -1.1963617e-06 -1.1965194e-06
000040 81 8a a0 b5 6a 96 a0 b5 6a 8d a0 35 b2 8f a0 b5
       -1.1961239e-06 -1.1964705e-06 1.1962086e-06 -1.196275e-06
000050 f4 95 a0 b5 39 91 a0 35 03 93 a0 35 df 9a a0 b5
       -1.1964571e-06 1.1963194e-06 1.1963715e-06 -1.1966002e-06
000060 9a 97 a0 35 22 90 a0 35 00 90 a0 35 a4 98 a0 35
       1.1965051e-06 1.1962877e-06 1.1962838e-06 1.1965353e-06
000070 fa 96 a0 b5 19 8a a0 35 fd 91 a0 b5 d4 91 a0 b5
       -1.1964869e-06 1.1961121e-06 -1.1963417e-06 -1.196337e-06
000080 b9 8f a0 35 8b 95 a0 b5 f2 8c a0 35 00 99 a0 35
       1.1962758e-06 -1.1964452e-06 1.196195e-06 1.1965458e-06
000090 b4 91 a0 b5 74 8a a0 b5 f0 91 a0 35 19 96 a0 35
       -1.1963334e-06 -1.1961224e-06 1.1963402e-06 1.1964613e-06
0000a0 cc 90 a0 35 18 8d a0 b5 e1 95 a0 b5 43 90 a0 35
       1.196307e-06 -1.1961993e-06 -1.196455e-06 1.1962915e-06
0000b0 9f 99 a0 35 04 8b a0 35 d3 95 a0 35 ee 94 a0 b5
       1.1965639e-06 1.1961388e-06 1.1964534e-06 -1.1964273e-06
0000c0 34 93 a0 35 c8 8e a0 35 6a 90 a0 b5 1f 94 a0 b5
       1.1963771e-06 1.1962484e-06 -1.1962959e-06 -1.1964038e-06
0000d0 b9 8a a0 35 4a 8f a0 b5 2d 98 a0 b5 d5 93 a0 b5
       1.1961303e-06 -1.1962632e-06 -1.1965218e-06 -1.1963954e-06
0000e0 77 8c a0 b5 c7 95 a0 b5 a8 93 a0 b5 03 90 a0 35
       -1.196181e-06 -1.196452e-06 -1.1963903e-06 1.1962842e-06
0000f0 b3 95 a0 35 ad 8f a0 35 e2 8a a0 35 bb 91 a0 b5
       1.1964497e-06 1.1962744e-06 1.1961349e-06 -1.1963342e-06
000100 10 91 a0 35 54 94 a0 b5 45 95 a0 35 e1 8a a0 35
       1.1963148e-06 -1.1964098e-06 1.1964372e-06 1.1961348e-06
000110 75 90 a0 b5 8a 91 a0 b5 bb 90 a0 35 4a 8e a0 b5
       -1.1962971e-06 -1.1963286e-06 1.1963051e-06 -1.196234e-06
000120 0b 8b a0 35 87 95 a0 b5 6c 8a a0 35 7d 8e a0 35
       1.1961396e-06 -1.1964447e-06 1.1961215e-06 1.1962399e-06
000130 01 8f a0 35 05 8d a0 35 30 96 a0 35 3a 95 a0 b5
       1.1962549e-06 1.1961971e-06 1.1964639e-06 -1.196436e-06
000140 5b 95 a0 b5 6a 95 a0 b5 7c 8b a0 35 ad 93 a0 b5
       -1.1964397e-06 -1.1964414e-06 1.1961524e-06 -1.1963908e-06
000150 41 98 a0 b5 7a 97 a0 b5 e2 91 a0 b5 b2 96 a0 35
       -1.1965241e-06 -1.1965014e-06 -1.1963386e-06 1.1964787e-06
000160 f9 8a a0 b5 df 92 a0 35 78 8c a0 35 0e 95 a0 b5
       -1.1961375e-06 1.1963674e-06 1.1961811e-06 -1.196431e-06
000170 ab 91 a0 35 ed 8d a0 35 f0 8f a0 35 8c 8b a0 b5
       1.1963324e-06 1.1962235e-06 1.196282e-06 -1.1961542e-06
000180 1c 90 a0 35 d7 90 a0 b5 ce 8a a0 35 12 8e a0 b5
       1.196287e-06 -1.1963083e-06 1.1961326e-06 -1.1962277e-06
000190 a8 8e a0 b5 13 93 a0 b5 6f 94 a0 b5 a1 90 a0 b5
       -1.1962447e-06 -1.1963733e-06 -1.1964129e-06 -1.1963022e-06
0001a0 ed 97 a0 b5 77 8a a0 b5 d6 93 a0 35 1c 8c a0 35
       -1.1965145e-06 -1.1961228e-06 1.1963955e-06 1.1961706e-06
0001b0 0b 8b a0 35 e4 98 a0 35 85 90 a0 35 20 90 a0 35
       1.1961396e-06 1.1965426e-06 1.196299e-06 1.1962875e-06
0001c0 de 8b a0 35 58 89 a0 35 88 98 a0 b5 d2 92 a0 b5
       1.1961636e-06 1.1960901e-06 -1.1965321e-06 -1.1963659e-06
0001d0 6b 92 a0 35 70 96 a0 b5 0e 99 a0 35 7f 99 a0 35
       1.1963542e-06 -1.1964712e-06 1.1965474e-06 1.1965602e-06
0001e0 0b 90 a0 35 5c 92 a0 b5 95 91 a0 b5 13 94 a0 b5
       1.1962851e-06 -1.1963525e-06 -1.1963299e-06 -1.1964024e-06
0001f0 1e 99 a0 b5 d7 8d a0 35 fb 95 a0 b5 69 93 a0 b5
       -1.1965492e-06 1.196221e-06 -1.1964579e-06 -1.1963831e-06
000200 93 8e a0 35 c6 8e a0 b5 7b 8f a0 b5 4a 91 a0 b5
       1.1962424e-06 -1.1962481e-06 -1.1962687e-06 -1.1963214e-06
000210 82 94 a0 b5 fe 8b a0 b5 33 91 a0 35 61 95 a0 35
       -1.196415e-06 -1.1961672e-06 1.1963187e-06 1.1964404e-06
000220 ea 95 a0 35 c3 8b a0 35 89 8f a0 b5 7a 8f a0 35
       1.196456e-06 1.1961605e-06 -1.1962703e-06 1.1962686e-06
000230 e0 96 a0 35 d5 90 a0 b5 81 92 a0 b5 03 8e a0 35
       1.1964839e-06 -1.1963081e-06 -1.1963567e-06 1.196226e-06
000240 46 95 a0 b5 28 8b a0 35 d8 93 a0 b5 0d 97 a0 35
       -1.1964373e-06 1.1961429e-06 -1.1963957e-06 1.196489e-06
000250 10 93 a0 35 0d 99 a0 35 6b 9a a0 35 f0 98 a0 35
       1.196373e-06 1.1965473e-06 1.196587e-06 1.196544e-06
000260 23 90 a0 b5 d5 99 a0 35 cc 94 a0 35 4d 99 a0 b5
       -1.1962878e-06 1.19657e-06 1.1964235e-06 -1.1965545e-06
000270 af 8a a0 35 eb 93 a0 35 3f 98 a0 b5 5b 90 a0 35
       1.1961291e-06 1.1963979e-06 -1.1965238e-06 1.1962942e-06
000280 7a 93 a0 35 22 98 a0 b5 cd 8a a0 35 f5 8d a0 35
       1.196385e-06 -1.1965205e-06 1.1961325e-06 1.1962244e-06
000290 70 8a a0 35 13 99 a0 b5 75 97 a0 b5 08 93 a0 35
       1.196122e-06 -1.1965479e-06 -1.1965009e-06 1.1963721e-06
0002a0 2f 8b a0 b5 09 8c a0 35 08 8b a0 b5 7e 99 a0 b5
       -1.1961437e-06 1.1961685e-06 -1.1961392e-06 -1.1965601e-06
0002b0 be 8f a0 35 48 8e a0 35 81 8a a0 b5 00 91 a0 b5
       1.1962763e-06 1.1962338e-06 -1.1961239e-06 -1.196313e-06
0002c0 82 96 a0 b5 c7 90 a0 35 8e 98 a0 b5 99 93 a0 35
       -1.1964732e-06 1.1963065e-06 -1.1965328e-06 1.1963886e-06
0002d0 40 91 a0 35 6e 8a a0 35 1f 90 a0 35 dc 93 a0 35
       1.1963202e-06 1.1961217e-06 1.1962874e-06 1.1963962e-06
0002e0 1f 92 a0 35 c5 98 a0 35 0b 94 a0 35 93 8c a0 35
       1.1963456e-06 1.1965391e-06 1.1964015e-06 1.1961841e-06
0002f0 60 93 a0 35 0a 8d a0 35 e1 8b a0 b5 58 9a a0 35
       1.1963821e-06 1.1961977e-06 -1.1961639e-06 1.1965849e-06
000300 27 8f a0 b5 c2 8a a0 b5 5d 99 a0 35 b6 90 a0 b5
       -1.1962592e-06 -1.1961313e-06 1.1965564e-06 -1.1963045e-06
000310 69 98 a0 b5 56 98 a0 b5 9d 8f a0 b5 1e 8c a0 35
       -1.1965286e-06 -1.1965265e-06 -1.1962726e-06 1.1961708e-06
000320 69 8a a0 b5 63 93 a0 b5 e3 99 a0 35 f1 8b a0 b5
       -1.1961212e-06 -1.1963824e-06 1.1965716e-06 -1.1961657e-06
000330 74 91 a0 b5 17 97 a0 b5 68 8d a0 35 8a 8f a0 35
       -1.1963261e-06 -1.1964902e-06 1.1962084e-06 1.1962704e-06
000340 1a 96 a0 b5 9d 93 a0 b5 c7 99 a0 b5 76 98 a0 35
       -1.1964614e-06 -1.196389e-06 -1.1965684e-06 1.1965301e-06
000350 04 9c a0 35 63 8c a0 35 c4 92 a0 35 be 90 a0 35
       1.1966335e-06 1.1961787e-06 1.1963643e-06 1.1963054e-06
000360 e8 91 a0 b5 51 97 a0 b5 04 96 a0 b5 7d 97 a0 b5
       -1.1963393e-06 -1.1964968e-06 -1.1964589e-06 -1.1965018e-06
000370 f7 8d a0 b5 18 96 a0 35 ea 96 a0 35 6a 8b a0 b5
       -1.1962246e-06 1.1964612e-06 1.1964851e-06 -1.1961504e-06
000380 31 97 a0 b5 a6 94 a0 35 d8 95 a0 b5 29 8d a0 b5
       -1.1964931e-06 1.1964191e-06 -1.1964539e-06 -1.1962012e-06
000390 f9 95 a0 b5 0f 99 a0 b5 48 99 a0 b5 7f 91 a0 35
       -1.1964577e-06 -1.1965475e-06 -1.196554e-06 1.1963274e-06
0003a0 ce 8b a0 35 1c 8d a0 35 f5 8b a0 b5 22 97 a0 b5
       1.1961617e-06 1.1961997e-06 -1.1961662e-06 -1.1964914e-06
0003b0 ef 92 a0 b5 28 8a a0 b5 8e 91 a0 35 23 92 a0 b5
       -1.1963692e-06 -1.1961138e-06 1.1963291e-06 -1.196346e-06
0003c0 6c 8b a0 35 e3 8a a0 b5 0e 99 a0 b5 be 92 a0 35
       1.1961506e-06 -1.196135e-06 -1.1965474e-06 1.1963637e-06
0003d0 5c 93 a0 35 2e 98 a0 35 19 8a a0 35 16 92 a0 b5
       1.1963816e-06 1.1965219e-06 1.1961121e-06 -1.1963446e-06
0003e0 93 9a a0 b5 d7 8a a0 b5 2e 9a a0 35 21 92 a0 b5
       -1.1965916e-06 -1.1961337e-06 1.1965801e-06 -1.1963458e-06
0003f0 53 98 a0 b5 7f 98 a0 35 7f 94 a0 35 13 93 a0 35
       -1.1965261e-06 1.1965311e-06 1.1964147e-06 1.1963733e-06

b_classifier.q.2.bias f4 [128]
000000 2d 9b a0 35 9f 83 a0 35 14 8c a0 b5 97 90 a0 b5
       1.1966091e-06 1.1959236e-06 -1.1961697e-06 -1.196301e-06
000010 4d 91 a0 b5 39 95 a0 35 6f 95 a0 b5 d8 a0 a0 35
       -1.1963217e-06 1.1964358e-06 -1.196442e-06 1.1967741e-06
000020 d7 9c a0 35 0b 95 a0 35 ba 9d a0 35 4b 8c a0 35
       1.1966575e-06 1.1964306e-06 1.1966833e-06 1.196176e-06
000030 5a 90 a0 35 65 9c a0 35 37 97 a0 b5 36 8f a0 35
       1.1962941e-06 1.1966446e-06 -1.1964938e-06 1.1962609e-06
000040 66 8d a0 b5 80 9c a0 b5 76 91 a0 35 87 9b a0 b5
       -1.1962081e-06 -1.1966476e-06 1.1963264e-06 -1.1966193e-06
000050 f8 93 a0 35 c4 95 a0 35 98 98 a0 b5 c7 88 a0 35
       1.1963994e-06 1.1964516e-06 -1.196534e-06 1.1960736e-06
000060 c9 83 a0 35 68 98 a0 35 3e 8d a0 35 73 93 a0 35
       1.1959283e-06 1.1965285e-06 1.1962036e-06 1.1963842e-06
000070 88 8a a0 b5 05 85 a0 35 07 88 a0 b5 45 96 a0 35
       -1.1961247e-06 1.1959643e-06 -1.1960518e-06 1.1964663e-06
000080 86 8a a0 b5 d3 8c a0 35 ea 98 a0 b5 38 87 a0 35
       -1.1961245e-06 1.1961914e-06 -1.1965433e-06 1.1960283e-06
000090 7f 94 a0 b5 54 8b a0 35 8c 9d a0 35 45 8d a0 35
       -1.1964147e-06 1.1961479e-06 1.1966781e-06 1.1962044e-06
0000a0 58 92 a0 b5 2f 95 a0 b5 8d 8c a0 35 7e 9b a0 b5
       -1.1963521e-06 -1.1964347e-06 1.1961835e-06 -1.1966183e-06
0000b0 db 8f a0 b5 94 86 a0 b5 80 8e a0 35 17 8e a0 35
       -1.1962796e-06 -1.1960096e-06 1.1962402e-06 1.1962283e-06
0000c0 84 94 a0 35 9a 89 a0 35 c1 8c a0 b5 23 9a a0 b5
       1.1964153e-06 1.1960976e-06 -1.1961894e-06 -1.1965789e-06
0000d0 a9 93 a0 35 5d 91 a0 b5 44 8d a0 35 4c 87 a0 35
       1.1963904e-06 -1.1963235e-06 1.1962043e-06 1.1960306e-06
0000e0 df 9a a0 35 21 8b a0 b5 af 95 a0 35 d4 90 a0 35
       1.1966002e-06 -1.1961421e-06 1.1964493e-06 1.196308e-06
0000f0 0d 96 a0 b5 bd 8d a0 35 6c 93 a0 b5 69 9b a0 b5
       -1.19646e-06 1.196218e-06 -1.1963834e-06 -1.1966159e-06
000100 55 97 a0 35 e9 9b a0 b5 fb 9b a0 35 cf 99 a0 35
       1.1964972e-06 -1.1966305e-06 1.1966325e-06 1.1965693e-06
000110 7a 9e a0 35 45 89 a0 35 42 98 a0 35 3e 8c a0 35
       1.1967052e-06 1.196088e-06 1.1965242e-06 1.1961745e-06
000120 10 97 a0 b5 1c 87 a0 35 12 8c a0 35 67 9c a0 b5
       -1.1964894e-06 1.1960251e-06 1.1961695e-06 -1.1966448e-06
000130 88 87 a0 35 17 9a a0 35 63 9b a0 b5 c8 8f a0 35
       1.1960374e-06 1.1965775e-06 -1.1966152e-06 1.1962775e-06
000140 f4 95 a0 b5 a4 97 a0 b5 70 a4 a0 b5 73 88 a0 35
       -1.1964571e-06 -1.1965062e-06 -1.1968787e-06 1.1960641e-06
000150 50 8a a0 b5 1b 8d a0 b5 e3 98 a0 b5 fc 8a a0 b5
       -1.1961183e-06 -1.1961996e-06 -1.1965425e-06 -1.1961379e-06
000160 58 93 a0 35 9c 91 a0 35 f0 95 a0 35 84 99 a0 b5
       1.1963812e-06 1.1963307e-06 1.1964567e-06 -1.1965608e-06
000170 ca 8c a0 b5 22 8b a0 b5 1e 94 a0 b5 74 90 a0 35
       -1.1961904e-06 -1.1961422e-06 -1.1964037e-06 1.196297e-06
000180 e3 95 a0 35 4d 87 a0 b5 ec 93 a0 35 34 87 a0 b5
       1.1964552e-06 -1.1960307e-06 1.196398e-06 -1.1960278e-06
000190 45 93 a0 35 89 8b a0 35 98 8c a0 b5 72 98 a0 b5
       1.196379e-06 1.1961539e-06 -1.1961847e-06 -1.1965296e-06
0001a0 4f 9b a0 35 d5 94 a0 b5 c6 8d a0 35 c4 90 a0 b5
       1.196613e-06 -1.1964245e-06 1.196219e-06 -1.1963061e-06
0001b0 f0 8d a0 b5 10 95 a0 b5 e1 94 a0 35 fe 9a a0 35
       -1.1962238e-06 -1.1964312e-06 1.1964258e-06 1.1966038e-06
0001c0 23 8c a0 b5 90 93 a0 b5 4a 91 a0 35 ea 87 a0 b5
       -1.1961714e-06 -1.1963875e-06 1.1963214e-06 -1.1960485e-06
0001d0 22 9a a0 35 3a 92 a0 35 03 92 a0 b5 e6 9a a0 35
       1.1965788e-06 1.1963486e-06 -1.1963424e-06 1.196601e-06
0001e0 80 89 a0 35 82 86 a0 35 21 97 a0 35 74 94 a0 b5
       1.1960947e-06 1.1960076e-06 1.1964913e-06 -1.1964135e-06
0001f0 66 98 a0 35 e4 95 a0 35 65 90 a0 35 e5 97 a0 b5
       1.1965283e-06 1.1964553e-06 1.1962953e-06 -1.1965136e-06

b_classifier.fcc.weight f4 [2, 2, 768]
000000 65 6e c6 bb 54 86 58 3c 44 01 c9 bb b7 e1 d8 3c
       -0.0060556405 0.01321562 -0.006134184 0.026474817
000010 50 a8 40 3c 7b 4b e0 bb a7 ff 5e 3c b3 7c ad bb
       0.011758879 -0.0068449355 0.013610757 -0.0052944063
000020 0e 77 fd 3c 05 45 35 bd c1 c3 7c 3b a2 11 54 bc
       0.030940559 -0.044255275 0.0038568827 -0.012943657
000030 db d2 d8 3b 1b ad c7 3c 43 ca a9 3b 7d fa d7 3c
       0.006616933 0.024374535 0.005181582 0.02636456
000040 99 32 b1 bc 40 06 30 3b 3c d2 f1 3c d7 22 9c 3c
       -0.021630572 0.0026859194 0.029519193 0.019059582
000050 3d d8 99 3b 35 a0 d7 bc a7 d0 ce bc 17 55 a6 bc
       0.004694967 -0.02632151 -0.025245978 -0.020304246
000060 80 7b e8 ba 60 91 ba 3c 57 fb 94 bc ef 61 80 3c
       -0.0017737001 0.022774398 -0.018186254 0.015671698
000070 a1 05 25 3c 26 8e 7e 3b 8b d8 0f bd 53 8a d6 b9
       0.010072143 0.0038842051 -0.03511862 -0.0004092032
000080 60 24 04 3d 81 a2 4e 3b 52 4f 8b 3b cc fc fb 3c
       0.032261252 0.0031529965 0.004251399 0.030760191
000090 6e 7b 16 bd 27 eb 02 3c b5 f5 8e bc e3 5f 30 bc
       -0.036738805 0.007990635 -0.017451147 -0.010765049
0000a0 75 83 08 3d 1a 31 93 bc 8d 85 35 bc d4 be e7 bc
       0.033328492 -0.01796775 -0.011079204 -0.028289236
0000b0 d7 73 ad bb ed b6 ca 3c a8 2f 91 3b 8c ab 78 bc
       -0.00529335 0.024745429 0.00443073 -0.015177619
0000c0 39 53 39 3a 61 2c ae ba b8 f7 df 39 1e f2 23 bc
       0.0007069591 -0.0013288372 0.0004271844 -0.010006456
0000d0 d8 1f 8e bb 9e e1 d8 bb da 70 17 bd fb a6 6f 3c
       -0.004337292 -0.0066186925 -0.036972858 0.014627214
0000e0 a4 b5 38 bd cc dc 0c 3d d2 e4 87 bd 34 69 03 3c
       -0.0450951 0.034390256 -0.06635441 0.008020688
0000f0 ca 45 1b bc fb 10 36 3b ed 7d 21 3d 88 44 8c 3c
       -0.009477088 0.0027781117 0.039426733 0.017122522
000100 d4 ea 06 bc 30 5e 43 3c 0a 87 c8 3c 95 c7 e9 3a
       -0.008234698 0.0119243115 0.024478454 0.0017835969
000110 b9 c8 13 bc 2b eb 7a 3a 9c de e2 3a 5a 82 08 3d
       -0.009020024 0.0009571786 0.0017308774 0.033327438
000120 dd cd 46 3c 5d b5 8a 3c 9e 6e 14 3d 30 15 12 3d
       0.012134043 0.016932184 0.036238305 0.035664737
000130 f7 a5 67 3b b2 e1 21 3d 15 2c e6 bb 94 e9 f9 bc
       0.0035346725 0.03952188 -0.007024298 -0.030506887
000140 b0 33 a4 3c 55 81 b8 3c e4 4b b7 3c 98 bd 47 bd
       0.020044178 0.022522608 0.022375055 -0.048764795
000150 81 b3 3d 3d 64 1d fe bb 71 e1 e1 ba d9 61 e8 3c
       0.046313766 -0.0077549685 -0.0017233324 0.02836697
000160 bd 3c 21 bd fe ae b2 bc ba df 9d 3c 9f ad 48 bd
       -0.039364565 -0.021811958 0.01927172 -0.048993703
000170 1e c4 17 bc e7 f0 09 3d b2 26 af bc 4d f4 da bc
       -0.009263067 0.033677008 -0.021380756 -0.02672782
000180 7d 3e d5 bb 8b 50 67 bc 42 cd 82 bc 32 17 4a 3d
       -0.0065076933 -0.014118324 -0.015967015 0.049338527
000190 e8 36 9d 3b bf 16 c6 ba 5e ae 68 3c a7 17 3f 3d
       0.004797805 -0.001511298 0.014201729 0.046653416
0001a0 cb bc b5 ba 43 4a bd 3b fc 06 0d 3c a3 88 93 bb
       -0.0013865469 0.005776675 0.008607622 -0.0045023724
0001b0 10 4e ab 3b 3d 6c 90 bc 0d b4 c0 3c 5e 88 f3 ba
       0.0052278116 -0.017629737 0.023523355 -0.0018580069
0001c0 f6 92 7e bc 68 5e 61 bb 42 35 1e bc db 9a b5 3b
       -0.015537968 -0.0034388546 -0.009656252 0.005542142
0001d0 d9 7f e1 bb a1 c2 f9 3c e6 de 17 3c 95 af 0f 3c
       -0.0068816957 0.030488314 0.009269452 0.008769889
0001e0 e5 f6 00 bd 68 58 b7 bc 3a fa 03 3c 74 27 95 bc
       -0.031485457 -0.022381023 0.008055264 -0.01820729
0001f0 c5 ff 17 3d 5c 16 bd 3b b9 f3 10 bd dd 22 9c 3c
       0.037109155 0.0057704877 -0.035388682 0.019059593
000200 32 10 b2 bb 82 61 d9 bc 13 21 83 bc 53 13 65 bd
       -0.0054340595 -0.026535753 -0.016006982 -0.055926632
000210 ab 6e 21 bc f8 6c 2f 3d 4a c6 d5 bc 41 7f 50 bd
       -0.009853045 0.04282853 -0.026095528 -0.05090261
000220 0b 9a a1 bc 2d 3d 08 bc fb a7 47 bc 68 f9 4c 3b
       -0.019726774 -0.008315367 -0.012186046 0.0031276587
000230 87 7c a5 bb 5d 4a f0 bc 86 7e b4 3c 54 35 42 bc
       -0.005050245 -0.029332334 0.022032987 -0.011853535
000240 50 87 08 3d 7d b9 69 3c c9 ae 2b 3d 02 b3 b7 3c
       0.03333217 0.014265415 0.041914735 0.022424225
000250 26 cf 9c bc 13 15 97 bc 00 c6 d4 ba 9b aa 2e 3c
       -0.019141745 -0.018442666 -0.0016233325 0.010660793
000260 55 08 63 bc 4a 6e c7 3b 8a 0a 10 3b 13 d7 28 bc
       -0.013856967 0.0060861455 0.0021978938 -0.010305184
000270 fa cb bf 3c ce 09 02 3d 5b 0a 8e 3b d5 32 6e 3c
       0.023412693 0.03174763 0.0043347306 0.0145384865
000280 e9 ee 78 bc 5d c3 3f bb 07 07 83 bc eb f6 52 3c
       -0.015193679 -0.0029260733 -0.015994562 0.012876253
000290 da 12 42 bd df fe 4d 3c 95 fb d8 3c e1 b7 ff bb
       -0.04738126 0.012572973 0.026487151 -0.0078039025
0002a0 99 13 4a 3b 4e 37 2b bd 65 27 b3 3c 8b 41 da bc
       0.0030834435 -0.04180079 0.02186937 -0.026642581
0002b0 89 36 39 3d 53 8b 17 3d 02 1e f0 3c e1 a9 58 3c
       0.045218024 0.036998104 0.029311184 0.013224096
0002c0 2f ab 29 bd a8 a0 90 3c 59 c0 b2 bb 2f aa bd 3c
       -0.04142302 0.017654732 -0.0054550585 0.023152439
0002d0 d1 c1 10 3c 91 40 d9 ba 86 7c 03 bd 43 35 c1 ba
       0.008835272 -0.0016575028 -0.032101177 -0.0014740605
0002e0 0a e3 d0 bb ee 62 8f bb 35 bd 48 3d 6f 4e 02 b9
       -0.0063747214 -0.004375807 0.049008567 -0.00012426985
0002f0 15 14 d7 3b 53 11 b0 3c 9b 63 a9 3c 70 de f8 bc
       0.0065636733 0.021492636 0.020677378 -0.030379504
000300 c3 69 06 bc e2 67 b2 3b c4 3e d8 ba d3 74 c0 3c
       -0.0082039265 0.0054445127 -0.0016498198 0.023493206
000310 88 06 80 bc 82 fa 6a bc 00 28 6e 3b 86 69 86 bb
       -0.015628114 -0.014341952 0.003633976 -0.004101935
000320 fd 8d bf bb 46 42 28 3d ab 36 47 ba e7 74 a8 bc
       -0.0058457837 0.04107883 -0.0007599394 -0.020563556
000330 30 84 20 bd 7f 2f 34 bc 4b f7 e4 bc 02 5f b9 b9
       -0.039188564 -0.010997652 -0.02794995 -0.00035356736
000340 3e 26 9d 3c d7 bd 84 bb dd 0e c7 3b 52 54 21 bc
       0.019183274 -0.004050951 0.00607477 -0.009846764
000350 5f fa c8 3b 86 e3 07 3d 34 15 12 3c 9d bb 69 bb
       0.006133362 0.033175968 0.008916188 -0.0035664805
000360 7b 16 eb 3b 99 51 67 bc f0 b9 ff 3c 1d 61 75 bc
       0.0071743107 -0.0141185755 0.031216592 -0.014976767
000370 86 aa 20 3d 7b d1 b0 ba 77 1c 23 bd 23 2c 82 bc
       0.039225124 -0.0013490164 -0.039822068 -0.015890187
000380 c6 dc fb 3c 3f 4c 50 bd 50 54 2c 3d 84 3a f4 bc
       0.030744921 -0.050853964 0.042072594 -0.029813059
000390 9d 3d b8 3c 25 bb 6c 3c 02 bd c6 3a 87 82 43 3c
       0.022490317 0.014448916 0.001516253 0.011932976
0003a0 1c f1 12 bb 7d 7c 9b bb 6a ee 18 3c 0a 79 ed 3c
       -0.0022421544 -0.004745065 0.009334186 0.02898838
0003b0 70 0d 1d 3d 21 2a da 3c 0a eb 19 bc 30 92 b3 3b
       0.038342893 0.026631417 -0.009394417 0.0054800734
0003c0 db bb 35 bc c3 3d 8d bc a5 a5 aa 3c a6 66 1f 3b
       -0.0110921515 -0.017241364 0.020830939 0.0024322658
0003d0 a9 39 a7 3b 4f d8 fb 3a 39 38 5b 3d 72 e2 d8 3c
       0.005103309 0.0019214245 0.053520415 0.026475165
0003e0 f5 65 04 3c f2 23 a8 bc 6f 1f ae ba 03 57 76 3a
       0.008080949 -0.020524953 -0.0013284514 0.0009397121
0003f0 17 79 08 bd a7 46 2e 3c 7d 7a 88 3c 85 70 a6 bc
       -0.033318605 0.010636962 0.01665997 -0.020317325

b_classifier.fcc.bias f4 [2]
000000 a6 22 1e bb 1b ed dc 3a
       -0.0024129539 0.0016855331
