mil/weights/20241120/fold_1_4.pth (torch, 481804 bytes, 8 tensors)

i_classifier.fc.0.weight f4 [2, 768]
000000 e7 b4 b4 b9 7e eb 53 bc 4b f6 28 bd 45 04 2d bc
       -0.00034467058 -0.012934564 -0.04125051 -0.0105601
000010 df 7b 9f 3b d0 b4 ee 3c 18 c5 74 bc c2 d2 c9 bb
       0.0048670615 0.029138952 -0.014939569 -0.0061591575
000020 56 c9 e8 bc 2f 16 03 3d 08 c9 3c 3d 07 9e 39 3c
       -0.028416317 0.032003578 0.046090156 0.011329181
000030 ff cd 14 bd 6d ce 84 bc 54 00 2b 3d 7a 0e 6c 3d
       -0.036329266 -0.016211713 0.04174836 0.057630993
000040 10 82 06 3d a8 8a 03 3c 28 ca 14 bc 3a 97 c9 bc
       0.03283888 0.008028664 -0.009081401 -0.024608243
000050 ac 4c a3 bd 17 f6 e5 bb 89 5d 82 3c 41 6e 8c bc
       -0.079736084 -0.0070178616 0.015913742 -0.017142417
000060 37 6d 5a bd fb 3b 6e bd 25 9d ac bc 04 17 d5 ba
       -0.05332681 -0.05816267 -0.021071026 -0.001625747
000070 d3 32 de 3c bb b5 37 bd f7 d9 74 bd 3a 30 f3 bc
       0.027123844 -0.044851046 -0.05977818 -0.029686082
000080 ae 45 ee 3b 33 8c db 3c 69 b3 22 bc ac 05 a0 bc
       0.00727149 0.02680025 -0.00993047 -0.019533955
000090 53 98 cf bc 41 61 fd 3c 82 37 88 bc bd 94 70 3d
       -0.025341189 0.030930163 -0.01662803 0.058735598
0000a0 67 32 a8 3a 68 5a 57 3d 21 3c 8e bd bd f5 8a bc
       0.0012832404 0.052576452 -0.069450624 -0.01696288
0000b0 cc 04 3d 3c 6f a2 32 bd dd 57 4b 3c f7 c8 00 3d
       0.011536788 -0.04361194 0.012411085 0.031441655
0000c0 0d 82 ea 3c c6 46 fa 3c f9 88 01 bc 5e 3d 03 bb
       0.028626466 0.030551326 -0.007906192 -0.0020025591
0000d0 ec 21 09 bd 0a a6 03 bc d9 9c c8 3d 0d df a0 bd
       -0.033479616 -0.008035192 0.09795541 -0.078550436
0000e0 7f 79 ee 3c c7 1e da bc eb f3 ef bc a5 13 0e bd
       0.029110668 -0.026626004 -0.029291114 -0.034686703
0000f0 b8 5d fa 3c ac 01 08 bd 90 ce 02 bd fb b6 93 3d
       0.030562267 -0.03320472 -0.031935275 0.07212635
000100 50 5a 9d b9 50 6a 0d 3d 88 02 0b bb 19 aa c7 bc
       -0.00030012662 0.034525216 -0.0021211226 -0.024373101
000110 89 77 8b bd 61 87 3f 3c 1f fe 34 3d 56 41 26 3c
       -0.06809909 0.011689992 0.04418766 0.010147413
000120 d7 e5 1c 3d a1 85 9c bc b9 8f 15 bd 64 f4 7d bd
       0.03830513 -0.019106688 -0.036514018 -0.062000647
000130 37 47 9d 3c 8d bc 46 3c 24 2a cd 3a 53 42 93 3d
       0.019198997 0.012129915 0.0015652818 0.07190385
000140 e6 da 09 3d 51 7e 16 bd 9e ee 19 3d ee ef 46 b7
       0.033656023 -0.03674156 0.03758108 -1.1857583e-05
000150 5a 66 e3 3b 05 e4 65 3b 55 4f 31 3d 5b c7 38 bd
       0.0069396915 0.0035078537 0.043288548 -0.045111995
000160 97 15 85 3d c2 ab 38 bd 85 f5 8c 3c a5 cb 46 3d
       0.064982586 -0.045085676 0.017206917 0.048534054
000170 5d 3c 6b bc c0 ba 83 bb 0d f7 44 3d 7c e3 fd bc
       -0.014357653 -0.004020065 0.04808717 -0.030992262
000180 ab 0c 12 bd 13 09 ad bc a2 ac 34 3d 9d 0e e2 3b
       -0.035656612 -0.021122491 0.044109948 0.0068987147
000190 35 be 43 3d 30 d5 58 bc f7 09 b7 bc b3 40 0e bd
       0.047788817 -0.013234422 -0.022343619 -0.03472967
0001a0 97 cd 5f bc 3e 45 c9 bc a0 47 99 bd 84 80 97 3c
       -0.013659856 -0.02456915 -0.074843645 0.018493898
0001b0 d2 9f 24 bd 53 bb 01 3d 7b 1e a6 bc a3 1e 29 3b
       -0.04019148 0.031672787 -0.020278206 0.0025805614
0001c0 e1 0b 2d bd 76 c2 40 bb c9 8e d9 bb c0 f8 c2 3d
       -0.042247657 -0.0029412783 -0.006639336 0.095201015
0001d0 ed 47 ab 3d 45 b7 83 bd e0 b0 1b 3c 21 74 89 3d
       0.08363328 -0.0643144 0.0095026195 0.06711603
0001e0 f6 40 8d bd 2f 07 81 bc 51 9a 44 3d 30 62 46 bd
       -0.06897156 -0.015750496 0.04799873 -0.048433483
0001f0 5a d0 00 3d 8f cc 9f bc 48 f8 b5 ba 52 52 df bc
       0.0314487 -0.01950672 -0.0013883198 -0.027260933
000200 83 a5 de 3b 3f ce b4 3c 4e 85 28 3c 9d d3 91 bb
       0.006794633 0.022071002 0.010285689 -0.004450275
000210 1e 0c 1d bc 7d a6 c0 bc 19 be e8 3c f7 74 28 bb
       -0.0095854085 -0.023516888 0.028410958 -0.0025704482
000220 d0 78 69 3c aa 2d fb 3c 6b b1 af bc e4 b5 9b bc
       0.014249995 0.030661423 -0.021446904 -0.01900763
000230 31 8d f1 39 61 0c 6f 3c 1d 1c 33 3d 27 49 0d bd
       0.00046072298 0.014590354 0.043727983 -0.03449359
000240 25 74 5c ba c6 5c d6 3c d1 9c 92 ba 6c a2 4c 3b
       -0.0008409641 0.026167285 -0.0011185651 0.003122474
000250 0f 3d 97 bd 52 ac 91 3c 88 32 00 3c 6a 4c d0 3a
       -0.07384693 0.017782364 0.007824548 0.0015891914
000260 b4 d2 c7 3c 94 24 a0 bb 47 28 ca 3c 9b a6 78 bd
       0.024392463 -0.004887173 0.024677409 -0.060705762
000270 f6 74 02 3d 9f c2 fb bc f2 8c 4a bd 11 c2 d6 38
       0.031849824 -0.030732451 -0.049450822 0.00010240463
000280 2a 28 77 bc f2 17 f6 bb 20 04 c3 3c 67 f4 6a bd
       -0.015085259 -0.0075101787 0.023805678 -0.057361986
000290 99 52 1f bd 5a ac ee 3c cb 17 24 3a 9e 1b 4e 3d
       -0.03889713 0.029134918 0.0006259649 0.050319307
0002a0 73 da b2 3c 1c a5 70 3d 86 70 e0 bc f4 8a 2c bc
       0.02183268 0.05875121 -0.027397405 -0.010531176
0002b0 4a 79 9a 39 9d a0 02 bd 9a b4 6c 3d 42 d5 13 bd
       0.00029463536 -0.031891454 0.057789423 -0.03609205
0002c0 d0 f8 fd 3a ab fb 2a bb 07 47 8c bc 2f 7b b3 3c
       0.001937652 -0.0026089947 -0.017123712 0.021909324
0002d0 e6 65 0f bd 48 5f 4f bc 49 71 04 bc 0f e4 ff 3c
       -0.035009287 -0.012656994 -0.00808365 0.031236676
0002e0 3a 6b 65 bd 71 96 99 3c 55 57 5c 3c 7f 4b 5b 3d
       -0.056010462 0.018748494 0.013448556 0.053538796
0002f0 c8 0c 00 bd 79 07 1e 3d cc 23 07 3c 6d 2e 8b bc
       -0.03126219 0.038581345 0.008248281 -0.016989911
000300 c4 e9 1f 3d 2b e0 73 3d aa 9a 49 bc c3 0e 0e bd
       0.039041296 0.059539955 -0.012304941 -0.034682047
000310 a1 08 de 3c 8d 12 a0 3c e9 74 78 3d c5 45 c5 bc
       0.027103724 0.019540096 0.06065837 -0.02408112
000320 c4 d0 72 bc bd 5c bf 3b 2e dd 39 bb 6d f4 44 3d
       -0.014820281 0.0058399127 -0.0028360593 0.048084665
000330 be b6 bf 3c 68 1b 20 bd b1 d6 ab bc 5b 50 00 bd
       0.023402568 -0.039088637 -0.020976396 -0.031326633
000340 e5 46 d6 3b cb 10 36 bd 14 0e fc bc 16 17 b4 bd
       0.006539213 -0.04444961 -0.030768432 -0.08793466
000350 98 bf 52 bd 09 dd f1 bd a3 69 5d 3d 18 24 9c 3c
       -0.05145225 -0.11809737 0.05405582 0.01906018
000360 92 34 6f bc 96 1a 8c 3c 78 6d 0d bd 31 9e e7 3c
       -0.014599936 0.01710252 -0.034528226 0.028273674
000370 ed 49 29 3d 8c c0 f4 bb 9d d3 f4 bc ee d2 0f 3d
       0.041330267 -0.0074692424 -0.029886061 0.035113268
000380 33 92 e4 3c 11 48 19 bd cf bf e2 3c 61 c6 2b bd
       0.027901744 -0.037422244 0.027679352 -0.041937236
000390 64 3d 23 3d 37 c0 9f bc 26 13 a5 bb e4 e0 c3 3a
       0.03985347 -0.019500835 -0.005037683 0.0014944342
0003a0 d8 c1 8e 3c 23 cb 58 bd 00 ae 0a 3c 0d 64 38 3d
       0.017426416 -0.0529281 0.008464336 0.04501729
0003b0 9c 87 9e bd 7f 69 97 3c 83 7a 95 3c d4 d6 a0 bd
       -0.07740709 0.018482922 0.018246895 -0.07853475
0003c0 a9 e9 ec bc eb b4 ba bc 76 eb 98 bc e3 0e 21 bd
       -0.028920012 -0.022791347 -0.018666964 -0.039320838
0003d0 f8 fa c7 3b 50 27 3e 3d e7 8d bf bc 6b 0e 8e 3d
       0.006102916 0.04642421 -0.023383094 0.06936344
0003e0 1d 38 7b 3d e2 09 30 3c c0 14 3d bc 0d 8d 1a 3d
       0.06133281 0.010744544 -0.011540592 0.037732173
0003f0 26 2f c3 3b 04 bc 32 3c 40 dd c6 bb 98 ce 4c bb
       0.0059565483 0.010909084 -0.0060688555 -0.003125107

i_classifier.fc.0.bias f4 [2]
000000 39 67 db bb e3 ab f9 ba
       -0.0066956547 -0.0019048419

b_classifier.q.0.weight f4 [128, 768]
000000 dc 7c 86 bb a7 be 70 3b 07 17 3c 3b 0f d2 23 ba
       -0.00410424 0.0036734731 0.0028700249 -0.0006249258
000010 a8 4b c5 3a db 2f 6c bc 63 da c2 3a 08 af a7 bb
       0.0015052455 -0.0144157065 0.001486611 -0.005117301
000020 e1 0d c9 bb 5d 94 c2 3b 36 e6 0c bc 75 5e 62 3b
       -0.0061356877 0.0059380964 -0.008599808 0.0034541164
000030 ce 16 3c bc 0f ad a4 bb f9 53 47 3a 10 7a c2 ba
       -0.011480046 -0.005025513 0.00076037605 -0.0014837403
000040 11 26 12 bb 8d b2 82 ba 69 64 1d bb ce 59 81 bb
       -0.0022300521 -0.0009971425 -0.0024016148 -0.003947473
000050 e3 b1 f6 3b 02 12 31 3b 38 39 4b 3b ef 69 be ba
       0.00752853 0.002701879 0.0031009447 -0.001452742
000060 96 f1 76 bb c9 bd 61 3b b2 65 dc b8 d0 fd c6 3b
       -0.0037680618 0.0034445396 -0.0001050936 0.0060727373
000070 6d 91 16 bc be ab cd 3b 06 d1 48 ba 22 ba 17 bb
       -0.009189946 0.006276577 -0.00076605415 -0.0023151715
000080 e2 a2 44 ba c0 43 52 3a 80 ee 9f b9 de a3 c4 3b
       -0.0007501078 0.000802096 -0.0003050454 0.00600098
000090 57 fd b9 3b 01 1e 96 bb d9 b5 85 ba 90 63 1e 3a
       0.0056759524 -0.0045812135 -0.001020129 0.00060420576
0000a0 2b 1a 4e bb 83 92 be ba 95 66 9f bb 4d f4 95 bb
       -0.0031448703 -0.0014539514 -0.0048645237 -0.004576242
0000b0 49 81 80 3b 71 d8 79 b7 0d 80 e4 3a ec e0 07 3c
       0.003921662 -1.4891951e-05 0.0017433182 0.008293372
0000c0 ee 3c 2c bb 2e 26 80 bb c5 92 91 bb 20 5c d9 3a
       -0.0026281434 -0.0039108014 -0.004442545 0.0016583242
0000d0 47 3b 87 bb e4 84 09 3c be 3d 90 bb d0 73 b8 3a
       -0.0041269395 0.0083935 -0.0044018915 0.0014072601
0000e0 be b0 4f bb 85 a6 82 39 d2 9e 3c bb 17 85 1a ba
       -0.003169104 0.000249196 -0.0028781188 -0.0005894466
0000f0 9d 5d be 3b c3 dd ac bb 59 a7 b3 3b 79 a9 f2 ba
       0.0058094994 -0.0052754595 0.005482596 -0.0018513642
000100 2f 9b ea ba 78 eb 39 bb f4 6d ea 3a b5 10 23 bb
       -0.0017899032 -0.002836911 0.0017885552 -0.0024881784
000110 bb c6 7a 3b b0 84 fa 3a b6 93 15 bb 38 70 be 3a
       0.0038265425 0.001911303 -0.0022823638 0.0014529293
000120 26 48 c9 ba e9 9c 49 3b 72 2a 17 3c 5d 8d 04 3b
       -0.0015356585 0.0030763692 0.009226428 0.002022586
000130 e2 2e 05 3a 18 f2 f0 3a a2 2e c4 3a 7f 8a b0 ba
       0.00050805334 0.0018382696 0.0014967511 -0.001346901
000140 e5 19 ea bb 42 72 89 bb 56 0d 35 bb ab e0 93 3a
       -0.0071442 -0.004194529 -0.0027626357 0.0011282166
000150 02 1e 03 3b a0 3e c2 3b 87 91 ef 3a be 48 c4 3b
       0.00200069 0.0059278756 0.0018277623 0.005990117
000160 b2 28 4d 3c b5 3a 3d bb 78 05 be bb df 9d d7 bb
       0.01252191 -0.0028874103 -0.005798992 -0.006580099
000170 d5 cc 85 3b f5 02 e0 bc 53 c1 e3 ba 6a 7d 11 3b
       0.004083256 -0.02734516 -0.0017376341 0.0022199997
000180 9e c0 b7 bb b3 83 4a bb 1a a0 e4 bb 05 32 9b 39
       -0.0056076786 -0.0030901253 -0.0069770934 0.0002960117
000190 bd 49 38 ba e5 22 d0 3b 03 3d 66 3b 72 45 b1 bb
       -0.0007030031 0.006351816 0.003513158 -0.00540989
0001a0 b4 d2 73 3a 8e 32 9a 3b a4 cd 7f b8 fc 4d b2 39
       0.00093011116 0.0047057336 -6.0988255e-05 0.0003400891
0001b0 44 a0 53 bb 50 2d 4a ba a1 a2 6c 3b dc ac 12 bb
       -0.003229157 -0.00077124406 0.0036107677 -0.0022380864
0001c0 90 db 1f bb db 61 db 3a 6c d0 84 bb d0 f7 cb bb
       -0.0024392344 0.0016737537 -0.004053166 -0.00622461
0001d0 c7 52 9b 3b e3 15 8f bb 8c 7a 88 3b 8f ba 2c 3b
       0.0047400924 -0.004366623 0.0041649994 0.0026356315
0001e0 a6 ec e9 ba bf 51 2e 3b c7 3a b5 bb 39 ed 2e 3b
       -0.0017847016 0.0026599017 -0.0055306884 0.0026691689
0001f0 96 e5 9a b9 8b 51 49 3b ba 3d 80 3b d5 5f ff 3b
       -0.00029544224 0.003071877 0.0039136084 0.0077934065
000200 dc b9 13 bc 79 29 3a bc df f9 ad 3b 67 0e b7 bb
       -0.00901648 -0.011362427 0.005309328 -0.0055864337
000210 08 18 87 3b cd bf 7b 3b 3d 5f 10 39 ff 49 7c ba
       0.004122738 0.0038413883 0.00013768389 -0.00096240634
000220 3c b8 a3 ba 84 b7 cf 3c 4e a1 06 bb 2d 54 31 3b
       -0.0012490819 0.025356062 -0.0020542922 0.002705823
000230 89 98 1e 3b a5 a5 09 bb 4c 26 49 bb ec f6 a2 bb
       0.0024199805 -0.0021003273 -0.0030692993 -0.004973283
000240 df bf 5f 3a 8d 54 c7 3b 15 02 7c bb 00 d0 2a bc
       0.0008535366 0.0060830773 -0.003845339 -0.010425568
000250 f8 38 c7 3a 70 07 73 3b 44 b0 35 39 73 1a ea ba
       0.0015199473 0.003708329 0.00017327169 -0.0017860666
000260 09 fd 9a bb 23 1e 0c b8 dd 9e 4a bb 06 da 01 bb
       -0.004729871 -3.3406668e-05 -0.0030917444 -0.001981379
000270 78 d3 a5 37 8b f4 4f 3b 85 e1 d2 3b a4 7d 8a bb
       1.9768006e-05 0.0031731452 0.0064355754 -0.0042264033
000280 ee 3f 9e 3b c3 56 bf 3a cf 32 e8 bb aa 6a 42 bb
       0.0048293984 0.0014598 -0.007086135 -0.0029665628
000290 7f aa 3f 3b eb f6 d9 3b 2c 1f e1 3b 43 ca 46 bc
       0.002924591 0.0066517494 0.006870171 -0.012133184
0002a0 47 57 60 3b 31 27 06 bb 67 f1 78 3b 84 ce d5 ba
       0.003423171 -0.0020470137 0.0037985684 -0.0016312157
0002b0 01 ce e7 ba f9 44 b1 3b 87 a6 3d 3b 43 7a 5f bb
       -0.0017685295 0.0054098335 0.002893837 -0.0034099973
0002c0 8a 78 df 3b da 8a 92 ba 59 e2 61 bb c1 13 3a bb
       0.0068197893 -0.0011180297 -0.003446719 -0.0028393122
0002d0 9d 84 a4 ba 00 58 2a 3a 91 bb f6 3b 2f 50 7f 3b
       -0.0012551729 0.00064980984 0.007529684 0.0038957705
0002e0 2e ba 62 bb 1a be 59 3a 78 66 8d 3b 36 7e 2d bc
       -0.0034595835 0.00083062204 0.0043151937 -0.010589173
0002f0 90 48 f2 ba 3e 4a 68 bb 07 40 1d bb 5c be 90 ba
       -0.001848476 -0.0035444642 -0.0023994462 -0.001104306
000300 41 91 7a 3b 79 2e 0a 3c 11 9c 28 3a 5b 1b a1 ba
       0.003823355 0.0084339315 0.0006431947 -0.0012291478
000310 71 f9 d4 ba 53 d6 bf 3b 84 c1 3e 3a d4 1f 98 bb
       -0.0016248656 0.005854407 0.0007276761 -0.004642466
000320 37 90 42 3b 5e 5d 7b 3b 65 f8 98 bb 77 80 09 bb
       0.002968801 0.0038355212 -0.004668283 -0.0020981112
000330 d1 11 82 b7 b4 65 3e bb b1 3c 86 3b 9f 3e 79 3b
       -1.5505504e-05 -0.002905232 0.0040965904 0.003803171
000340 af ce 50 bb f0 a1 56 bb 2a 25 30 bb b7 17 84 3b
       -0.0031861474 -0.003275033 -0.002687762 0.0040311473
000350 8a 86 bc 38 da 1a 2e 3b ec 06 3a 3b 18 49 e8 3a
       8.9895984e-05 0.0026566298 0.0028385473 0.0017721979
000360 c7 af 4e 38 43 77 a7 bb ad b9 1f 3c 4a eb 78 3b
       4.9277933e-05 -0.0051106527 0.009748858 0.003798204
000370 2f 94 2a 3c 32 9b 16 ba 84 7b f1 bb 2a 73 cd 3b
       0.010411306 -0.0005745172 -0.0073694605 0.006269832
000380 14 6f 70 3b fe da 48 3a cc c0 86 bb 86 16 dc 3a
       0.0036687301 0.0007662027 -0.0041123386 0.001679138
000390 50 f7 77 ba fa 09 8a 3a 00 76 a1 bb e0 0c d0 3b
       -0.00094591547 0.0010531538 -0.004927397 0.006349191
0003a0 a5 96 9c ba 72 63 52 3c 8e 8a 02 bb 35 72 16 3b
       -0.0011946751 0.012841092 -0.001991901 0.0022956256
0003b0 d5 c1 82 bb 8d 68 60 3c b3 7c 63 bb 18 95 c7 3a
       -0.0039903917 0.013696802 -0.0034711778 0.0015226929
0003c0 fb ce 0f 3b a3 9f 08 bc 7e 34 a8 bb 53 ab 6d b9
       0.0021943438 -0.008338842 -0.0051332107 -0.00022665905
0003d0 43 64 26 bb 2c f3 1e 3a 06 48 7a bb 8c 93 60 3b
       -0.002538935 0.0006063457 -0.0038189902 0.0034267632
0003e0 00 99 f0 b8 b0 a8 96 ba d9 4b dc ba 4c a2 bd bb
       -0.0001147259 -0.0011494365 -0.0016807272 -0.0057871696
0003f0 03 02 4f 3a c3 fb ba 3b c8 3e 56 3c 36 e0 c3 bb
       0.0007896723 0.005706282 0.013076492 -0.0059776558

b_classifier.q.0.bias f4 [128]
000000 e0 91 c1 ba 6e ce 2b 36 12 19 f1 3c 03 f4 c5 3c
       -0.0014768206 2.5601144e-06 0.0294309 0.024164205
000010 49 14 13 3d 95 8f 98 3c 7d f5 24 3a 1d aa 21 3d
       0.035908017 0.018623153 0.0006292684 0.039468873
000020 33 2d 1f ba e2 37 a4 3c aa 36 b8 3c d9 9b 1d 3d
       -0.0006072104 0.020046178 0.022487003 0.038478706
000030 c5 cc 9a 3a 52 66 42 3a 41 d7 bf 3c 88 5a 1a 3d
       0.0011810294 0.00074157596 0.02341807 0.037683994
000040 b0 27 28 3d b1 00 88 3c 13 54 32 3d d7 9e ad bb
       0.041053474 0.016601892 0.04353721 -0.005298476
000050 dd b0 a5 bb 03 f5 0f bb 4b 03 28 bb b6 8d e7 3c
       -0.005056484 -0.0021966107 -0.0025636728 0.028265815
000060 10 f7 00 bb f2 8b 8b 3c 19 92 e9 ba 5e 0d 0f 3d
       -0.001967851 0.017034505 -0.001782003 0.034924857
000070 04 81 f8 3c c1 93 3b bb 30 22 0a 3d 45 38 10 3d
       0.030334957 -0.0028622004 0.03372401 0.035209913
000080 ff 6b 62 bb a8 ee 21 3d 6c be 22 3d 8d c0 2f 3d
       -0.0034549234 0.03953424 0.03973238 0.04290824
000090 0b 5e 5c bb a9 73 b8 3c d5 e2 71 bb 25 70 4f b8
       -0.003362539 0.022516089 -0.0036908884 -4.945709e-05
0000a0 99 fe 08 3d 4e 8d de 3c 82 71 13 ba d8 5e 02 3d
       0.03344593 0.027166989 -0.0005624519 0.03182873
0000b0 ab 91 1e 3d af cc 1e 3c 83 d4 68 3a c8 9c 81 bb
       0.03871314 0.009692355 0.00088817644 -0.0039554574
0000c0 65 13 15 3d 21 3c 6c bb ab 21 02 bb bd 1d c6 3c
       0.03639545 -0.0036046582 -0.0019856493 0.024184102
0000d0 66 13 95 3b 0c 17 d0 3c 8f c6 ec 3c 73 03 20 3d
       0.0045494316 0.025401615 0.028903274 0.03906579
0000e0 31 31 05 3d 0a 3b 40 bb 9c 47 58 ba a3 ea ca 3c
       0.032517616 -0.0029332065 -0.0008250417 0.024770087
0000f0 e0 27 e6 3c f1 e6 1c 3d 60 82 33 39 43 fd 9a bb
       0.028095186 0.03830618 0.00017119339 -0.004729898
000100 78 a7 a4 ba 7a ae 90 b9 56 c3 08 3d 04 dc 1e bb
       -0.0012562117 -0.00027595815 0.033389412 -0.0024240026
000110 53 37 39 ba 26 ad 0a 3d 7f c7 1a 3d 34 26 df 3c
       -0.0007065434 0.033856533 0.03778791 0.027239896
000120 b9 06 2e 3d 9f 5f 1f 3d d2 fd 85 3a bd 44 07 3d
       0.04248688 0.03890955 0.0010222739 0.03302454
000130 79 90 e9 3c 94 ab 0e 3d f9 b5 12 ba a1 70 71 3a
       0.028511273 0.0348316 -0.0005596574 0.00092102034
000140 6b f8 a6 3c 33 e5 b2 3c 44 cf 12 3d 67 d2 18 3d
       0.020382127 0.021837806 0.035842195 0.03731003
000150 cd cb 4d bb 72 5e ef ba 45 63 10 3d 35 ce be 3c
       -0.0031401992 -0.00182624 0.03525092 0.023291687
000160 8a 5c 2e b9 78 2f 1f 3d 54 55 5d bb 3e 5d 0d 3d
       -0.00016628407 0.03886363 -0.0033772783 0.03451275
000170 6e c3 d9 3c 01 0f 01 3d 4c 65 22 ba ba ac 0a 3d
       0.026582446 0.03150845 -0.0006194904 0.03385613
000180 0e 7e 1d b9 38 4e 16 3d 73 76 f7 3c 71 dd fe 3c
       -0.00015019646 0.03669569 0.030207848 0.03111145
000190 13 d8 a4 3c d3 7c c2 3c 4a 14 42 3d 5e 17 13 3d
       0.020122563 0.023741161 0.04738263 0.035910957
0001a0 6d bf 3b 3d 37 f6 a6 3c ad 7e 3f bb e8 71 64 bb
       0.045836855 0.020381076 -0.0029219792 -0.0034857932
0001b0 ce 23 d2 3c c2 e4 13 3d 04 fe da b9 62 60 ce 3c
       0.025651839 0.036106832 -0.00041769457 0.025192443
0001c0 c7 cd 17 3d dd 39 b4 3c 9c b2 75 3b 05 cf d3 b8
       0.03706148 0.022000248 0.0037490493 -0.000100998244
0001d0 b1 52 f2 3c c5 9f a8 bb 14 89 f9 bb 5b a3 0f 3d
       0.029580446 -0.005145999 -0.007615218 0.035067897
0001e0 ef 3c 28 3d 28 f8 1a 3d 26 b0 af ba b2 dc 14 3d
       0.041073736 0.037834316 -0.0013403937 0.036343284
0001f0 96 0f 8c 3c 52 ae f4 ba cf 42 0d 3d 0b b0 64 bb
       0.017097276 -0.0018667674 0.03448754 -0.003489497

b_classifier.q.2.weight f4 [128, 128]
000000 ce 9e 99 3d 74 07 06 3e 3b 1b 9a 3d 60 a3 9e 3c
       0.07500993 0.1308878 0.07524725 0.019365013
000010 a2 b4 de b9 36 36 9d 3c 41 79 16 bc 08 70 60 3a
       -0.00042477722 0.019190889 -0.009184183 0.0008561616
000020 04 b9 1a bc 9d 68 be bd c0 cb d6 3c 41 68 8d 3d
       -0.009443525 -0.09297297 0.026220202 0.069046505
000030 88 74 08 bc f9 b0 8e 3d 4b 7d f9 bc 92 42 ea 3c
       -0.008328564 0.069673486 -0.030455252 0.028596196
000040 f0 a5 ab bc 20 a8 74 3c 13 74 8b 3d 8e cd 82 bc
       -0.020953149 0.014932662 0.06809249 -0.015967157
000050 6f 4c 73 bc e2 37 13 bc eb a5 17 bc a1 92 83 3c
       -0.014849766 -0.0089854915 -0.0092558665 0.016061129
000060 ac b4 8c 3d 68 be bb bd 21 31 03 bc d3 d3 e6 3c
       0.06870398 -0.091671765 -0.008007319 0.028177178
000070 97 95 3f 3d 72 b4 3b bb 60 e2 f6 3c 90 eb d7 3d
       0.04677352 -0.002864149 0.03013724 0.10542977
000080 21 9f 1b bc 43 bf ec 3c 83 52 8c 3d f7 92 c2 3c
       -0.0094983885 0.028899794 0.06851675 0.023751719
000090 38 49 c9 bd 04 99 0d be 9c f7 cb bb b5 78 0e bc
       -0.098284185 -0.13827902 -0.0062245857 -0.008695771
0000a0 52 ba 9e 3d 37 0a c0 3c c0 7a fd bb 8f aa 2c 3c
       0.077503815 0.02344237 -0.00773558 0.010538711
0000b0 d8 45 73 3d 2f a1 0c 3c 90 47 00 bc bb a6 1b bc
       0.05939278 0.008583351 -0.007829562 -0.009500201
0000c0 ca 2e 93 3c de 84 6a bc 80 4b 20 bc 02 63 d3 3c
       0.017966647 -0.014313905 -0.009783626 0.025804047
0000d0 a0 69 ed 3c c6 65 bb 3c 93 b8 cb 3c b5 6b 48 bd
       0.02898103 0.022875678 0.024868285 -0.048930842
0000e0 50 02 14 3d 1c ed 0c bc 51 09 90 bb d3 85 99 3c
       0.036135018 -0.008601453 -0.004395642 0.01874057
0000f0 9a 81 c1 3c 78 bb 92 bd 10 ac 01 bc 65 f2 01 bd
       0.02362137 -0.07164663 -0.007914558 -0.031725306
000100 98 d4 7a bd 5e 50 b9 bd 9c e5 e1 3c 24 6e 21 bc
       -0.0612379 -0.09048532 0.027575307 -0.00985292
000110 7d 35 df bb 4a 18 e4 3c a5 13 9a 3c c8 71 cf 3c
       -0.006811796 0.027843613 0.018808195 0.02532281
000120 11 3d 9c ba ae d5 f0 3c a0 d5 64 be 95 3a e1 3c
       -0.0011920055 0.029398765 -0.22347116 0.027493754
000130 cd bd c6 3c aa 78 1b 3e 52 c6 07 bc cb 9a 7d bb
       0.024260426 0.15182748 -0.008287029 -0.0038697
000140 52 3b 96 3c ad 97 d8 3b ec cc e0 3c 08 3d 23 3b
       0.018338833 0.006609878 0.027441464 0.0024908204
000150 d5 d3 6e 3d a3 f1 07 bc 64 35 e3 3c 32 8d b9 bd
       0.058307488 -0.008297357 0.02773542 -0.09060134
000160 fe cf 7e 34 30 f9 21 bd 1a 00 13 bc 24 bc d6 3c
       2.373126e-07 -0.039544284 -0.008972192 0.02621276
000170 dd 13 0f bd 29 b6 d1 3c 52 a5 c9 bb 74 d7 96 bb
       -0.034931052 0.025599556 -0.006153741 -0.0046033207
000180 63 1f ae bb 2e c1 ea 3c 02 95 0a 3d c5 93 5a bd
       -0.0053138 0.028656568 0.03383351 -0.05336358
000190 9b b3 04 3c 7b 0c 5b 3d 39 fd b2 3d 99 ab 11 3e
       0.008099462 0.0534787 0.08739705 0.14225616
0001a0 50 9f b0 3d 2d 83 9e 3c 88 53 06 bc c4 97 47 bc
       0.086241364 0.019349659 -0.008198626 -0.01218218
0001b0 3b dc 9a 3c 27 83 de 3c f2 c2 29 bc 1d aa d5 3d
       0.018903842 0.027162148 -0.01036142 0.10432837
0001c0 37 65 e2 3c 49 26 a9 3c 9d 22 eb bb 03 1b e2 bc
       0.027636154 0.020648139 -0.007175757 -0.02760077
0001d0 76 fc 51 bd 30 5c 3c bc e4 78 53 bc 8d b5 e4 3c
       -0.051266156 -0.011496589 -0.012907241 0.027918601
0001e0 e1 12 d9 3c dd 22 40 3d 7e 81 c5 bb fa ea eb 3c
       0.02649826 0.04690825 -0.0060273996 0.028798569
0001f0 c9 02 9d 3c 61 51 34 bd 0e 40 fa 3c a7 ac 40 3d
       0.019166367 -0.04402292 0.030548122 0.047039654
000200 10 d3 ea 3b 28 4d bd aa fc c5 ab bc 5f 3e 9e bc
       0.007166274 -3.3626682e-13 -0.02096843 -0.01931685
000210 2c 8f f2 3a 8c 24 43 bd 46 50 3a bd 6d 04 ad 3d
       0.0018505803 -0.047642276 -0.04548671 0.0844811
000220 70 08 8f 3b 01 3b 64 bd 6c 67 91 bd 35 6b 03 bd
       0.0043650195 -0.055720333 -0.07099804 -0.032084662
000230 ab de 20 bc c5 2f 73 bd cf 0d 8f 3c e2 a3 51 3c
       -0.009818713 -0.05937173 0.01746264 0.01279542
000240 1a ab bc bd 3e b2 72 bc 31 5f be bd a5 2c 12 bd
       -0.092123225 -0.014813004 -0.092955 -0.035687108
000250 2b 0a 1f 3d e9 d1 1d 3c 9a 70 ea bb b6 0a 60 3c
       0.038828056 0.009632566 -0.0071545364 0.013674429
000260 7b 07 b4 3c 7e 62 93 bc 70 06 fb 3d 1e 99 c3 bc
       0.021976223 -0.0179913 0.12257087 -0.023876723
000270 b9 8b b0 3b c2 57 22 3b 0d 99 18 bd db e6 df bd
       0.00538775 0.0024771546 -0.037255336 -0.10932704
000280 9e 71 1c 3c b5 31 cc bc 8c b0 cb bc c8 0c 29 bd
       0.009548573 -0.024926046 -0.024864458 -0.041271955
000290 b1 73 24 3c a5 36 a1 bc 6c 03 ea 3d cd d8 d5 3b
       0.010037349 -0.019679377 0.11426434 0.006526089
0002a0 5e e8 be bc 78 68 81 bc 76 a8 06 3c ce 8f c2 3b
       -0.02330416 -0.015796885 0.008218875 0.005937553
0002b0 9a 25 d8 3b 23 bc 22 bc 11 f0 b5 3c a5 c3 3e ba
       0.0065962793 -0.009932551 0.0222092 -0.0007277078
0002c0 a1 80 e6 3d 6f 1b 02 3c 1c f0 e8 3d 4e 25 ac 3c
       0.11255003 0.007941111 0.11373922 0.021013882
0002d0 bb 55 13 3c c8 5d 4f 3d 55 d5 ff bc ac 75 08 3d
       0.008992608 0.050626546 -0.031229654 0.033315346
0002e0 b7 5b c2 bc e4 39 13 3c bc 31 0e 3c 68 5e de bb
       -0.023725374 0.00898597 0.00867885 -0.0067861564
0002f0 25 86 b0 bc a4 a6 07 bd ca ed 37 bd e9 fb 14 3c
       -0.02154834 -0.033117905 -0.044904508 0.009093263
000300 bf 1b fd 38 69 ac 1e 3b e1 ff 2d bd 01 2d 2d 3c
       0.00012069148 0.0024211651 -0.042480353 0.010569812
000310 be f3 e0 3b c0 7c 36 bd 9b b1 ba 3c bf 0a 90 3c
       0.006864994 -0.044552565 0.022789767 0.01758325
000320 97 6d da bc bd 8b d8 bc 9b e0 fb 3b ec 1e f8 bc
       -0.026663585 -0.02643382 0.007686687 -0.030288182
000330 ed 59 bb 3c ff 98 c7 bc 1f fc ad bb 44 e9 54 3b
       0.022870028 -0.024364946 -0.005309596 0.003248767
000340 5a fa 8f bc 1e 75 4e bd 6e d1 c0 bc aa 2b 00 bd
       -0.017575432 -0.05040466 -0.023537364 -0.03129164
000350 93 37 0c 3c fe 3d 08 3c 9c 1e e6 bc 66 35 27 bd
       0.008558172 0.008315561 -0.028090768 -0.04082241
000360 a1 1d 5a b5 1b fd c7 bc 79 ca bc bb 00 73 0c be
       -8.1254444e-07 -0.024412682 -0.0057614413 -0.13715744
000370 00 70 d5 bd 78 1a 56 3d 9c cd d9 3b 0e 3e ba bc
       -0.10421753 0.052271336 0.006646825 -0.022734668
000380 68 04 b5 3b f1 9f c9 bc 55 b5 35 3d 38 9b bc bc
       0.005524207 -0.024612399 0.044362385 -0.023023233
000390 b6 f1 93 bc da 5f aa bc 0f 73 3f bd 54 99 4d 3d
       -0.018059593 -0.020797659 -0.046740588 0.050195053
0003a0 ec 06 eb bd ca 32 b2 3c 33 ad 0d 3d 35 68 72 bd
       -0.114759296 0.021752734 0.034589004 -0.05918141
0003b0 68 59 ac bc 48 d9 8e 3b 1c 73 cf bc 30 61 f8 3d
       -0.021038726 0.004359398 -0.025323443 0.12127912
0003c0 84 a7 f2 3c 68 0d a6 bc 9e bf b1 3c 55 58 5b b5
       0.029620893 -0.020270064 0.021697816 -8.17124e-07
0003d0 03 5d b7 bc 03 9c 08 3c 76 ed 0d bd 5b 19 01 bd
       -0.022383219 0.008337977 -0.03465029 -0.03151832
0003e0 3e ac d0 bc 38 16 cb bc 9f 88 83 bb 73 1c c0 bc
       -0.025472756 -0.024790868 -0.0040140892 -0.023451066
0003f0 91 80 5b bd 78 63 1b 3c 7a e0 6e bb 21 9c 35 bd
       -0.053589407 0.009484164 -0.0036449716 -0.04433835

b_classifier.q.2.bias f4 [128]
000000 24 e3 28 3d f4 5a 03 bd 5b b6 12 3d e5 94 ac bc
       0.041232243 -0.03206916 0.03581844 -0.021067092
000010 8a a7 ea 3c fe 87 ff bc 7b b4 00 bd 64 a4 00 bd
       0.028644342 -0.031192776 -0.03142212 -0.031406775
000020 50 f3 27 bd be 39 19 bd 72 94 16 3d c4 7e d0 3c
       -0.041003525 -0.037408583 0.036762662 0.025451072
000030 fb 9f 21 3d e7 5a a2 3c 11 e7 ec 3c d4 0e 0e 3d
       0.03945921 0.019818736 0.028918775 0.03468211
000040 7a ed fc 3c d7 56 28 3d 93 aa 1f 3d 45 13 d2 3c
       0.030874956 0.041098442 0.03898103 0.025643954
000050 db 08 0a bd 8c 4a ed 3c f3 56 04 bd 08 24 2b bd
       -0.03369985 0.02896621 -0.032309484 -0.04178241
000060 f0 9b 06 3d b8 68 12 3d be 3f 03 3d 62 0e 10 3d
       0.032863557 0.0357444 0.03204321 0.035169967
000070 63 36 fa 3c 49 24 04 bd 64 47 2e 3d 4b 4b 01 bd
       0.030543512 -0.032261167 0.042548552 -0.031565946
000080 16 49 04 bc 54 72 0e 3d 04 a2 10 3d d8 8e 2d bd
       -0.008074066 0.034777 0.03531076 -0.042372555
000090 9b ab 20 bd 95 cb 1e bd b5 f6 23 3d f5 7c 16 bd
       -0.039226156 -0.03876837 0.0400302 -0.036740262
0000a0 a5 72 1e 3d 7f a3 08 bd 27 db 0c 3d 87 9e 1a bd
       0.038683552 -0.033359047 0.034388687 -0.03774884
0000b0 e9 bc b2 bc d3 21 1d bd 3d 06 16 3d 82 b5 09 bd
       -0.021818595 -0.038362335 0.036627043 -0.033620365
0000c0 f2 c5 03 bd 8c 62 c4 bc dc d9 24 3d 4d 5d d9 3c
       -0.032171197 -0.023972772 0.04024683 0.026533747
0000d0 d4 04 e7 3c c2 1e fa bc d2 62 17 3d 5f d6 b3 bc
       0.028200544 -0.030532245 0.036959477 -0.021952806
0000e0 4e 7d 07 3d c1 cc 19 bd 07 15 aa 3c bb 0d b0 bc
       0.033078484 -0.037548784 0.02076198 -0.021490922
0000f0 63 d5 00 bd e5 bf 12 3d 27 47 0e bd 3f e6 22 bd
       -0.0314535 0.035827536 -0.034735825 -0.03977036
000100 92 60 fe bc cf d2 f3 bc a5 02 05 3d ec 46 f3 3c
       -0.031051908 -0.029763607 0.032473225 0.029696904
000110 21 d5 24 3d 60 8d 0a 3d 9b d5 f9 3c 8a d7 13 3d
       0.040242318 0.033826232 0.030497363 0.036094226
000120 49 37 9b bc 18 b0 0d 3d 70 47 f8 bc c0 02 30 bd
       -0.01894726 0.034591764 -0.030307502 -0.042971373
000130 09 0b 1c 3d fb 79 10 3d 5e 36 2d 3d 12 e7 07 bd
       0.03809646 0.03527258 0.042288177 -0.03317935
000140 d0 4c 1f bd cc 67 04 3d 1a c6 fc 3c 44 f1 33 3d
       -0.038891613 0.03232555 0.030856181 0.04393126
000150 45 07 e9 3c b3 fa ec 3c 14 2b d7 bc bf 67 f1 3c
       0.02844585 0.028928136 -0.026265658 0.029468415
000160 29 6d 16 bd fd f1 0a 3d 96 f7 cd bc e4 21 a1 bc
       -0.036725197 0.033922184 -0.025142472 -0.01966948
000170 e1 b7 ea bc 9f ae 15 3d b8 87 19 bd e6 e4 e0 bc
       -0.028652133 0.036543485 -0.037482947 -0.027452897
000180 29 87 71 bc 13 99 9d bc 70 cd 0d bc 1a 39 24 3d
       -0.014741697 -0.01923803 -0.008654937 0.04009352
000190 5b 7a fe bc 8a e1 07 3d 9b d4 08 3d de 5d 1f 3d
       -0.031064203 0.033174075 0.03340588 0.038907878
0001a0 fd 14 dd 3c 54 92 5d 3c ab 1f ff bc ca f6 0b bd
       0.026987547 0.013523657 -0.03114303 -0.034170903
0001b0 fb 19 cf bc f4 82 0e bd 2a bc ea bc 58 7e a9 3c
       -0.025280943 -0.034792855 -0.028654177 0.020690128
0001c0 ed 84 f7 3c 61 f5 11 3d cc d0 9e bc 93 71 b3 3c
       0.030214751 0.035634402 -0.019386671 0.021904742
0001d0 1b a2 fa 3c de af 2a 3d 2b 5b 2e bd c3 ea 23 3d
       0.030594876 0.041671626 -0.042567413 0.040018808
0001e0 80 50 0b bd 32 80 de bc 26 ce e6 bc 7d d4 05 bd
       -0.034012318 -0.027160738 -0.028174471 -0.032673348
0001f0 22 ef f7 bc 5d fe 16 bd 14 42 1b bd 39 be 1d 3d
       -0.030265395 -0.036863673 -0.037904814 0.03851149

b_classifier.fcc.weight f4 [2, 2, 768]
000000 79 ea 29 bc 87 b0 2d 3d e3 f4 3c 3d 49 f4 76 bc
       -0.010370844 0.042404678 0.04613198 -0.015072891
000010 b1 5d ba 3c af 23 93 3d 61 57 03 3c 10 29 32 bc
       0.022749754 0.071845405 0.008016438 -0.010874048
000020 48 a9 a1 3c dc 88 2b 3d cb 0b df bb 6c c5 4a 3b
       0.01973404 0.041878566 -0.0068068258 0.0030940427
000030 e1 c6 24 3d a9 a6 71 bd 41 31 5e 3c 3d a6 a5 bb
       0.04022873 -0.05899683 0.013561548 -0.0050552175
000040 45 0d c5 3c ac de 35 bc ad ad 27 bd a3 5e dc bc
       0.024054179 -0.011100452 -0.040937115 -0.026900595
000050 e1 c8 29 bb 7b 42 10 3d 6d 09 26 3d de 24 16 bc
       -0.0025907087 0.03521965 0.040536333 -0.009164063
000060 4e 97 ff bc 3c 3a 01 3d ec 5d 83 bb f0 52 01 bc
       -0.031200077 0.031549677 -0.004008999 -0.007893309
000070 4b 0e a7 bc 01 0d 2e 3d 36 b6 b1 bc 2b ec 46 bd
       -0.020392558 0.04249287 -0.02169333 -0.04856507
000080 ec 1b 04 bd ee 03 c6 3c 6f a5 2c 3c a3 ca 7a 3c
       -0.03225319 0.024171796 0.010537489 0.015307101
000090 45 12 07 3d 45 5b ba bc 5e 6b 12 bd 5c e2 b5 bb
       0.032976408 -0.022748599 -0.035746925 -0.005550666
0000a0 b1 ee 78 bd 4a 30 88 bd fc 54 14 bd 41 a1 c9 bc
       -0.06077451 -0.066498354 -0.03621386 -0.024613025
0000b0 a9 84 80 3d e2 57 5d 3d ac 3e 12 3d 5e 61 47 3d
       0.06275303 0.05403889 0.0357043 0.04867684
0000c0 10 28 e8 bc cd 11 8c bd 99 e7 3f bc 4d 2d 12 bd
       -0.028339416 -0.06839333 -0.011712932 -0.035687733
0000d0 04 7c 56 3c 84 ed 50 3b ef ac 35 bd b4 4c a7 bc
       0.013091091 0.0031879852 -0.044354375 -0.020422317
0000e0 67 a4 0b bd 85 32 42 3d de 37 1f 3c 1c fc a8 bc
       -0.034092333 0.04741146 0.00971791 -0.020628028
0000f0 17 80 a3 bb 07 bb 4d bd a5 8b ec 3c 94 29 a6 3c
       -0.0049896347 -0.05022719 0.028875181 0.020283498
000100 a0 06 e6 bb f5 fd 5c bd 8b 84 90 3c a2 ec 12 bd
       -0.0070198327 -0.05395313 0.017641326 -0.035870202
000110 2c 23 01 bb bb 0a 05 3a 18 d5 ba bc 73 f6 0c 3d
       -0.0019704802 0.00050751463 -0.02280669 0.03441472
000120 96 af 42 bd 9d 53 3f 3d 8b 24 87 3c d2 84 08 3c
       -0.047530733 0.0467106 0.016496917 0.008332448
000130 7f ae 7f 3d 8e 59 76 3c 69 c4 1d bb 8a 19 20 3d
       0.06242227 0.015036 -0.0024073368 0.039086856
000140 c6 a9 5c bd 93 c3 1a bd 93 15 4b 3b 2f e7 0d 3d
       -0.053872846 -0.03778417 0.00309882 0.034644302
000150 67 47 c7 3c 1a 14 09 bb e3 08 33 3c 89 ca df 3c
       0.02432604 -0.0020916522 0.010927412 0.027318256
000160 82 68 05 3c 8f c9 01 3c 27 6b 5d 3c 5d b0 23 bb
       0.008142592 0.0079215905 0.013514317 -0.0024976947
000170 54 06 a9 ba 84 b4 3f bd 7c a0 b5 bb 67 c8 ef 3c
       -0.0012895563 -0.046803012 -0.005542813 0.029270364
000180 a3 ae 44 bd 28 51 7b 3c e8 62 18 bd 31 a3 28 3d
       -0.04801811 0.015339173 -0.0372037 0.041171256
000190 57 35 ff 3c 25 48 46 3c 2f 25 7f bc e7 f1 2e bc
       0.031153364 0.0121021615 -0.01557283 -0.010677791
0001a0 16 12 bd 3c 00 72 c9 bb 46 ae 67 3c ee 3e af bc
       0.023079913 -0.006147623 0.014140671 -0.021392312
0001b0 ad 97 da bc 53 1b 7c bd b9 c5 3e 3d bb d8 f7 bc
       -0.026683653 -0.061549496 0.04657528 -0.030254712
0001c0 99 9a 81 bd 9a bf a7 3c 78 9e 16 bd af a0 52 3c
       -0.06328315 0.020477105 -0.03677222 0.012855693
0001d0 92 61 0d 3d 24 85 5f bc 0f be 43 3c 8e 97 48 3d
       0.03451688 -0.013642583 0.011947169 0.04897266
0001e0 d8 47 22 bd cd 86 12 3d 83 bb 0c bd 00 95 e4 3c
       -0.039619297 0.035773087 -0.034358513 0.02790308
0001f0 fd c4 47 bc 33 e2 87 bb 0c 2b 2d 3d ca 1c 44 3c
       -0.012192962 -0.004146838 0.04227738 0.0119697545
000200 22 85 83 bd 58 e7 39 bd 71 e5 c7 3c b2 19 56 bb
       -0.064218774 -0.045386642 0.024401398 -0.0032669124
000210 25 7c 26 3c 42 fe 6b 3d 37 7b a6 3c 8b b8 6f bc
       0.010161434 0.057615526 0.020322425 -0.014631401
000220 b0 6f 46 bc 9a ed 2d 3d 41 20 d1 bc 5f 9d 1e bc
       -0.012111589 0.042462923 -0.025528075 -0.009681075
000230 e2 9b 8d bb d9 33 25 bd 1a d6 30 bd 5c c9 30 bb
       -0.004321561 -0.04033265 -0.043172933 -0.0026975488
000240 0f 3c 3d bb e3 af dd ba 30 7a ed 3a af 4a 5b bc
       -0.002887491 -0.001691338 0.001811808 -0.013384505
000250 ca 97 21 bb dc c8 c9 3b ad a3 dd bc 06 45 64 3d
       -0.0024657124 0.0061579775 -0.027055586 0.05572989
000260 c1 63 b1 bc c8 cc d7 bc a7 b9 9d bc a3 7f bd bc
       -0.021654012 -0.026342764 -0.019253565 -0.023132151
000270 5e d2 e8 3c 5a 2d ac bc 1d 94 3b 3c e7 f4 99 bc
       0.028420623 -0.021017719 0.011448887 -0.018793536
000280 d4 13 70 bb d4 bf 15 bc c2 15 6b 3c 66 01 6a bd
       -0.0036632912 -0.009139974 0.014348449 -0.05713024
000290 3d c0 bd bb 06 64 3c 3d 5b 40 d4 bc 04 fd 8f 3c
       -0.005790739 0.045993827 -0.025909593 0.017576702
0002a0 bc 08 e7 3c 80 e0 04 bd fe fc d9 3b 7a 5a 43 bd
       0.028202407 -0.032440662 0.0066524735 -0.047693707
0002b0 18 9e 50 bc 5e af 0e 3d ee ac e2 bb ec 3d cf bc
       -0.012733005 0.034835212 -0.0069175875 -0.025298081
0002c0 60 98 03 bd b5 d5 3c 3d ca 1b 26 bc d4 76 88 3c
       -0.032127738 0.046102244 -0.010138461 0.016658224
0002d0 82 17 d0 bc 28 fc 0e 3c ea 80 05 bd 03 e9 7c 3d
       -0.025401834 0.008727111 -0.032593645 0.061745655
0002e0 94 72 23 bd c0 f9 f7 3c d8 94 e3 3c 93 05 a0 bc
       -0.039904192 0.030270457 0.027780935 -0.019533908
0002f0 a5 61 96 bb ad b8 81 bb ab db 41 bd 1e 4d 9b 3b
       -0.004589277 -0.0039587826 -0.047328632 0.0047394177
000300 2b f7 92 3b 6b d9 7f 3c 44 21 11 3d 9f 37 fd bc
       0.004485031 0.015615801 0.035432115 -0.030910311
000310 54 cd 35 bc e6 18 25 bb 2a e9 f6 3c b2 56 21 bd
       -0.011096317 -0.0025191843 0.030140478 -0.03938932
000320 79 72 08 bb bc cd 8a bc 9c c6 54 bc 23 7c 8b bd
       -0.0020820184 -0.016943805 -0.012986805 -0.068107866
000330 8e 31 0f bd 86 32 71 bc 2c 7d 24 bb 07 21 7b bc
       -0.03495937 -0.014721518 -0.0025099022 -0.015327699
000340 67 3a a4 bc 50 c2 29 bc 27 5b 01 bd 70 09 ee 3c
       -0.02004738 -0.010361269 -0.03158107 0.029057235
000350 19 c5 49 3a 9e 98 a4 3c 7c a4 d7 3c 53 95 2f 3b
       0.00076969113 0.020092305 0.02632355 0.0026791885
000360 80 e9 a2 bc 90 73 9a 3c 32 b8 10 3c a5 70 31 3c
       -0.019886732 0.018853933 0.008832978 0.010830079
000370 76 b0 08 3c c4 42 f6 bc 25 ad a0 bc 27 97 2a 3d
       0.008342853 -0.030061133 -0.019613812 0.041648056
000380 2c 84 12 ba 08 e9 11 3d 07 66 ae bc a9 37 65 3c
       -0.0005589153 0.035622627 -0.021288885 0.013990321
000390 c7 d3 8e 3c 00 07 f3 3c 35 53 d5 bb f0 59 c6 39
       0.017434968 0.029666424 -0.006510163 0.00037832512
0003a0 99 bc e8 bc b2 d7 3e 3d 49 85 a3 3c d2 31 8e 3d
       -0.028410243 0.04659242 0.019961016 0.06943096
0003b0 a5 31 bb b9 71 4f 80 3d b4 0d de bc f4 9b 07 3d
       -0.00035704407 0.06265152 -0.027106144 0.033107713
0003c0 0f a5 41 3d 68 cd 1e 3b ab 3a 07 3d 13 25 3c bd
       0.047276553 0.0024231318 0.033014935 -0.045933794
0003d0 0d 8b 86 bd 26 19 2c 3d d2 ba 98 bc 84 d5 3c 3d
       -0.065694906 0.04201617 -0.01864377 0.046102062
0003e0 0e 67 fc 3a f1 b6 a9 bc 80 0e 1c bc 5e 4f 14 bd
       0.0019256787 -0.020717116 -0.009524941 -0.036208503
0003f0 52 60 0a 3d eb ce 84 3c de 25 df 39 18 9c 2d b9
       0.033783264 0.016211947 0.00042562088 -0.00016556715

b_classifier.fcc.bias f4 [2]
000000 80 42 dc bb 2d 9e b6 3b
       -0.0067217946 0.0055730552
