mil/weights/20241120/fold_1_1.pth (torch, 481804 bytes, 8 tensors)

i_classifier.fc.0.weight f4 [2, 768]
000000 92 7b f1 bc 6d 1e 57 bd ad b1 bc 3c f6 ba 85 bc
       -0.029477868 -0.05251925 0.023033941 -0.016324501
000010 2e 3a 11 bd 0c a2 47 3d f6 04 12 bd 8e ae 63 3c
       -0.035455875 0.048738524 -0.035649262 0.013896598
000020 05 e1 85 3c 9b 79 2e bc 5e 56 41 3d 7e 7b 84 bd
       0.01634265 -0.01064911 0.047201507 -0.06468867
000030 3e fa 53 3c 30 5b a0 3c 68 fe 77 bc 7b f0 c8 bc
       0.01293808 0.019574732 -0.015136339 -0.024528733
000040 04 6d 2c bd 10 c9 86 3d 2c 02 c4 3a dd a8 5f 3d
       -0.042096153 0.065813184 0.001495426 0.0546044
000050 f1 b5 41 bd 90 ab 48 3d 1a bd 0f 3d c0 ed 5a 3c
       -0.047292653 0.04899174 0.03509245 0.013362348
000060 e0 75 c9 bb 6b f5 d8 bc 0f 64 9e 3c 2d 40 17 bd
       -0.006148085 -0.026484212 0.019334821 -0.036926437
000070 a8 33 10 3d c0 6c 4d 3d 55 03 e6 3c 0d a2 16 3d
       0.035205513 0.05015254 0.02807776 0.036775637
000080 a1 e9 05 3b cd a9 3c 3d 79 ed 0e 3d e8 87 a2 bc
       0.0020433443 0.046060372 0.03489444 -0.019840196
000090 41 78 d8 bc 32 25 a8 bb d0 99 ab 3c 00 9e 0d bc
       -0.026424529 -0.005131387 0.020947367 -0.008643627
0000a0 3b 1f 19 bd 68 c3 02 bd 52 43 a0 3c 17 d8 51 bc
       -0.0373833 -0.031924635 0.01956335 -0.0128078675
0000b0 8e 70 9d bd 36 e5 cc bc 3c 0c 67 bd 3b 39 1f 3c
       -0.07687484 -0.02501164 -0.056408152 0.009718235
0000c0 bd b5 d4 3c 87 ff b8 bc 3e 56 b0 3d 6e 9e a6 bc
       0.025965566 -0.022582782 0.086101994 -0.020339217
0000d0 8f cd 81 bc 1d 1e 57 bd d8 76 9f 3d 13 b3 69 3c
       -0.015845088 -0.052518953 0.077863395 0.014263886
0000e0 31 d3 31 3c b6 f9 83 bb b4 0e c7 bb e9 f8 7f bd
       0.010853575 -0.0040275706 -0.006074751 -0.06249324
0000f0 bd 50 58 3c eb ca c8 3c 1f 90 2b bc f5 1f 7e 3b
       0.013202843 0.024510821 -0.010471373 0.0038776372
000100 58 76 83 bd cb 17 67 bc 47 b9 0e bd be 1a 72 3b
       -0.06419057 -0.014104794 -0.034844663 0.003694221
000110 f5 38 40 3d e0 e2 a9 bc 6b 4a 51 bd e2 f9 da bc
       0.04692932 -0.020738065 -0.05109636 -0.026730482
000120 cd 71 25 bc d7 19 06 bd c0 36 36 bd da 34 92 3d
       -0.010097933 -0.032739487 -0.044485807 0.07138987
000130 d7 0c 50 3d 7c 38 53 3c 09 91 6d 3c 70 b6 ab 3c
       0.050793495 0.012891885 0.014499911 0.020961016
000140 4c df 1a 3d e6 b2 b0 bc 2e ae 2f 3b e1 fb 8c bc
       0.03781061 -0.02156968 0.00268067 -0.017209949
000150 d3 c8 74 3d 56 63 67 bd a3 d5 ef 3c 74 4d ef 3c
       0.059761833 -0.05649122 0.029276675 0.029211737
000160 d6 b5 51 3c 5f 2e 26 3d 31 bd 7c 3d 4f ce eb 3c
       0.012799701 0.040571567 0.061703864 0.028784899
000170 cc 9e 3e bd 56 ac c3 3c 63 ff 5c bd b1 c0 22 3d
       -0.04653816 0.023885887 -0.053954493 0.039734546
000180 8a 76 bf 3c 59 5d 1f bd 42 9e 8e 3d f2 fc 85 bd
       0.023371954 -0.038907383 0.06963779 -0.06542386
000190 19 e4 18 3c 97 a9 a9 3b 3b 85 c8 bc 27 ce 52 bb
       0.0093317265 0.0051776874 -0.024477592 -0.0032166333
0001a0 8e 5c 53 bd f7 37 6b 3c ed 59 ab 3c ce d0 02 bd
       -0.05160194 0.014356605 0.020916903 -0.031937413
0001b0 6d b6 df 3c f9 2d 53 3c 64 e1 41 3d 2a db 99 bc
       0.027308667 0.012889379 0.04733409 -0.018781263
0001c0 6e 04 83 bc 96 3d fb bc f1 3c 18 3a 15 44 88 3a
       -0.015993323 -0.030669015 0.0005807421 0.0010396267
0001d0 1a 7b 69 3d 28 52 df bb c0 35 4b bc ea d7 22 3d
       0.057002164 -0.0068152137 -0.012402952 0.039756693
0001e0 83 c3 e4 3c ec 7a 53 bd 65 90 73 bd 1f 0f e1 bc
       0.027925259 -0.0516309 -0.059463877 -0.02747303
0001f0 51 65 54 bc 01 30 b1 bc a5 ca 08 bc 4a 55 ac bd
       -0.012963609 -0.021629335 -0.0083490955 -0.08414705
000200 62 49 3d 3d dc 0a 2c bc 1d 64 f9 3c 7e 52 0c 3d
       0.04621256 -0.010500636 0.030443246 0.03425836
000210 bd 2b ed bb 7c a3 9f 3b c2 3c 0c bc 6e 8b 44 bd
       -0.00723788 0.004871784 -0.008559408 -0.047984533
000220 a8 86 99 bd b5 bf e7 3c 13 17 9d bc 00 fc 75 3c
       -0.07496387 0.028289655 -0.019176042 0.015013695
000230 eb 8c 8b bc 35 b4 c3 3c b5 72 ca 3b 77 6f 1f 3b
       -0.017034968 0.02388964 0.006178225 0.0024327913
000240 54 18 06 3d 32 78 f0 39 a3 91 37 3d 35 0b 36 bc
       0.032738045 0.0004586592 0.044816624 -0.01111107
000250 a9 12 ca bc ee 3b ab 3c f8 03 e2 bc e9 db 90 3c
       -0.024667101 0.0209026 -0.027589783 0.017682986
000260 e9 73 88 3d 48 c6 93 bb 03 f1 2c 3d 62 5d dc bc
       0.06662733 -0.004509721 0.042222034 -0.026899997
000270 15 e5 2b bb 8b 68 00 3b 11 6f b3 bc 4b 7e d2 bc
       -0.0026229073 0.0019593562 -0.021903547 -0.025694987
000280 69 75 e9 bc cb b3 06 3c b4 95 80 3d 18 6e 6e bd
       -0.028498368 0.008221577 0.062785536 -0.058210462
000290 89 ba ef bb ab af e5 3c 5c 23 a4 bd 0a d1 37 3d
       -0.007315938 0.028037867 -0.08014557 0.04487709
0002a0 af 5c 25 3a f3 d1 20 bd c2 36 3b 3d 29 97 32 bd
       0.00063080614 -0.039262723 0.045706518 -0.04360119
0002b0 e9 55 5d 3c 85 e6 d8 bc ca 58 d5 3c 45 a1 8f bd
       0.013509252 -0.026477108 0.026043314 -0.070131816
0002c0 b6 cd 43 bd db bb dd 3c 8e af a8 bc 28 3c 72 bb
       -0.047803603 0.027067116 -0.020591523 -0.0036962125
0002d0 0b bc 8a 3d f3 5e 31 3c 16 38 6d bc 8d e1 7b bd
       0.067741476 0.01082586 -0.014478704 -0.0614944
0002e0 95 ba 80 bd b9 32 90 bc 35 a6 82 3c e7 62 18 ba
       -0.06285588 -0.017602311 0.015948394 -0.00058130774
0002f0 c1 a8 b9 bc 91 35 c3 bc 89 16 b0 3b a3 0d fd 3b
       -0.022663476 -0.023829253 0.00537378 0.007722573
000300 2a 16 05 3d 55 38 ac bc a1 04 60 bc 6d a4 de 3c
       0.03249184 -0.021022955 -0.013672979 0.027178014
000310 76 d2 e8 3c dc 99 e2 3c 4b b2 48 bd 1a 75 db 3c
       0.028420668 0.027661256 -0.04899816 0.026789237
000320 83 c0 8d bc 4e 21 13 bc df 00 cf bc 4e 92 00 3c
       -0.01730371 -0.008980108 -0.02526897 0.007847382
000330 6d f0 ea 3c 13 d0 3b bd 06 b8 a9 bb a1 e0 93 3d
       0.028679097 -0.045852732 -0.005179408 0.07220579
000340 f9 90 97 3c fd 9d 5a bc 76 45 69 bb b6 2e 95 bd
       0.018501746 -0.013343331 -0.003559438 -0.072843
000350 64 bf bd 3b c6 05 e4 3c f1 4b 8b bd ed 4f 9b b9
       0.005790638 0.027834784 -0.06801594 -0.00029623453
000360 15 89 cc 3c 34 8d 9f 3c ad 54 22 bd 6d d2 e7 bc
       0.02496771 0.01947651 -0.039631534 -0.028298581
000370 4b f6 84 bc 6c 20 96 bc ca c7 64 bc 2d 74 1d bc
       -0.016230723 -0.018326007 -0.013963649 -0.009610218
000380 db 26 f1 3c b5 49 c8 bc 2c 04 5d bc 94 d2 3d bb
       0.029437473 -0.024449209 -0.013489764 -0.0028964626
000390 17 11 0b bd 6b 33 73 bd 1a 0c d5 3b 1b c1 1b bc
       -0.033951845 -0.059375208 0.0065016868 -0.009506489
0003a0 ae 33 c7 3c 27 e5 32 bd ac 58 5c bd 0e 4a 73 bc
       0.024316635 -0.043675568 -0.0537955 -0.014849199
0003b0 7f 7d 5c 3d 4c d4 61 bd ad 58 8b bc 85 1d 81 3c
       0.05383062 -0.055134103 -0.017010057 0.015761146
0003c0 e2 f6 5e bd a9 a6 7e 3c aa 4b 96 3b 6f 59 22 bd
       -0.054434665 0.015542665 0.0045866566 -0.03963607
0003d0 93 aa 1c bc a7 8d 8d bc f4 b2 23 3d 08 25 00 3d
       -0.009562152 -0.01727946 0.039965585 0.031285316
0003e0 63 61 bd 3b 52 42 69 3c 0a 9b 96 bb 21 5a 75 3d
       0.0057794317 0.014237003 -0.004596119 0.059900407
0003f0 18 ae c9 bd df 81 2d bc 96 dd 71 3d dd 21 39 bd
       -0.09847659 -0.010590046 0.05904921 -0.04519831

i_classifier.fc.0.bias f4 [2]
000000 bd a9 f4 ba f4 54 81 bb
       -0.0018666309 -0.003946895

b_classifier.q.0.weight f4 [128, 768]
000000 ba b4 07 b7 38 7c c7 35 2d f0 bb b6 fe 6b bc b5
       -8.088706e-06 1.4862808e-06 -5.6009944e-06 -1.4038521e-06
000010 2e 8f 31 36 12 5c f5 35 51 dd 91 b6 d4 b3 0c 37
       2.6458397e-06 1.8280718e-06 -4.3471014e-06 8.38652e-06
000020 8f 71 ef b5 ea a3 8c b6 3c 37 67 36 56 6a 5c 37
       -1.7839938e-06 -4.1914072e-06 3.4453833e-06 1.313778e-05
000030 2c ed 74 36 b8 d1 4c b6 0d 0c 44 37 fd 6e 92 36
       3.6496886e-06 -3.0520441e-06 1.1685316e-05 4.36406e-06
000040 37 b0 8b 36 8d 37 4b b6 67 ce 46 37 aa 0d 54 b5
       4.163037e-06 -3.0281692e-06 1.18497765e-05 -7.899604e-07
000050 5c ec 01 36 e1 80 32 37 80 66 cf 33 e6 15 13 36
       1.9360077e-06 1.0639634e-05 9.657833e-08 2.1917454e-06
000060 47 25 43 36 e3 5d 9e 36 d2 11 f1 b5 0a 18 fa b6
       2.9078963e-06 4.719697e-06 -1.7961086e-06 -7.453379e-06
000070 b9 68 5c b7 da 0b 8e 35 52 c7 5a b7 1d ee 5c 37
       -1.31374045e-05 1.0583274e-06 -1.304022e-05 1.3168462e-05
000080 f8 11 93 36 31 27 74 b5 6b 4c 7c b5 51 41 32 b6
       4.3830332e-06 -9.0954114e-07 -9.398852e-07 -2.6562086e-06
000090 9d e6 f2 36 50 ef 56 b7 cd 24 b9 35 de ea 1a b7
       7.239009e-06 -1.2811113e-05 1.3794285e-06 -9.2338e-06
0000a0 b1 2b f5 b5 b8 9b 8f 36 7c 98 1a 36 cf d9 59 b7
       -1.8266638e-06 4.27986e-06 2.3036546e-06 -1.298492e-05
0000b0 f0 73 1f b6 d6 ae 41 37 aa 30 d2 b5 84 a4 0a 36
       -2.376033e-06 1.1544404e-05 -1.5660382e-06 2.0659363e-06
0000c0 c9 47 30 b7 c1 c7 18 b6 ed 75 52 b6 9c 09 7f 36
       -1.0507131e-05 -2.2766037e-06 -3.136108e-06 3.8003554e-06
0000d0 85 54 21 35 77 21 30 b7 2b f2 e7 36 1f 2b 1b 37
       6.0100166e-07 -1.0498209e-05 6.9125285e-06 9.24876e-06
0000e0 57 77 3c b7 fd b2 55 b6 23 82 f8 b5 40 a8 84 36
       -1.1233459e-05 -3.1843658e-06 -1.8515315e-06 3.9534934e-06
0000f0 9d 76 56 37 c6 f4 f7 b5 45 bf 78 b6 f2 ee 18 36
       1.2783011e-05 -1.8474173e-06 -3.7066213e-06 2.278885e-06
000100 98 c4 c8 b2 ca 29 d3 36 67 9c ae b6 10 27 5c 37
       -2.3372465e-08 6.293155e-06 -5.2038117e-06 1.3122117e-05
000110 a9 00 ec b5 05 66 58 b6 60 f2 5d b7 35 c2 02 b6
       -1.7583562e-06 -3.2245891e-06 -1.3229059e-05 -1.9484553e-06
000120 d5 23 d0 36 13 11 03 36 cd cd 06 b7 ed 83 4a 36
       6.2030545e-06 1.953046e-06 -8.034939e-06 3.0177137e-06
000130 4e fe cb b6 4f 0d 3b b7 69 75 aa b5 a0 79 34 36
       -6.0794764e-06 -1.1149167e-05 -1.2700158e-06 2.6892885e-06
000140 cc a3 82 b5 b9 31 36 b7 1f 3b 4d 37 b6 f1 c6 b5
       -9.733426e-07 -1.0859622e-05 1.2232717e-05 -1.4822497e-06
000150 6a aa 1a 35 42 09 5b 37 e5 75 50 b7 82 aa 03 36
       5.7617456e-07 1.3055573e-05 -1.2425216e-05 1.961977e-06
000160 15 d7 15 b6 ee 2e 84 b6 24 33 fd b6 44 38 1a b7
       -2.2327924e-06 -3.93937e-06 -7.545941e-06 -9.192216e-06
000170 b4 90 ea b6 37 42 d5 35 e1 b0 f3 b5 14 09 12 b6
       -6.990589e-06 1.5889008e-06 -1.8156389e-06 -2.176098e-06
000180 61 da aa b6 e6 01 22 37 d7 80 4e 37 55 bc 30 b7
       -5.0918175e-06 9.6563945e-06 1.2308555e-05 -1.0534267e-05
000190 8a c1 f0 b6 2b bb 1f 36 87 41 d6 b5 f6 56 ab b6
       -7.1750883e-06 2.3801792e-06 -1.5963313e-06 -5.1063207e-06
0001a0 6a f5 a9 36 4c cc 82 b6 bc 4b 5e b7 b2 4b 12 b6
       5.0651624e-06 -3.898085e-06 -1.3249864e-05 -2.1799756e-06
0001b0 f7 57 42 37 dd 30 20 37 4a 58 82 36 37 3e 55 37
       1.1583782e-05 9.54812e-06 3.88458e-06 1.2710275e-05
0001c0 f0 62 a7 b5 77 27 5f b7 28 6b 5d b7 4e 2a 11 b7
       -1.2471264e-06 -1.3301024e-05 -1.3197576e-05 -8.652523e-06
0001d0 11 dc 42 b6 b0 c4 2c 36 fa 57 f8 36 1c 70 73 b6
       -2.9036348e-06 2.5744484e-06 7.4012178e-06 -3.6275078e-06
0001e0 dd 4b 59 37 36 f1 86 35 e1 cb 23 b6 3f 4d 7e 34
       1.2951871e-05 1.005398e-06 -2.4407566e-06 2.3683695e-07
0001f0 d3 d2 51 b7 52 30 13 36 00 30 e0 36 5e c7 23 37
       -1.2506457e-05 2.1932833e-06 6.681308e-06 9.761976e-06
000200 68 d9 16 36 30 0f fd 36 53 ce 79 b6 61 75 03 36
       2.247829e-06 7.5417556e-06 -3.7223988e-06 1.9588845e-06
000210 3b c8 25 b6 45 c5 2e b7 a7 63 33 b7 74 3b 83 b6
       -2.4703465e-06 -1.0417139e-05 -1.06924335e-05 -3.9110255e-06
000220 bf 5c 12 b6 1d e8 c7 36 5b 15 29 35 e1 c0 b7 36
       -2.180968e-06 5.9576837e-06 6.298848e-07 5.476279e-06
000230 ed 69 2d b7 c1 30 eb 35 b0 ea 4f b7 43 94 2a 36
       -1.0336266e-05 1.7523054e-06 -1.2392804e-05 2.5418274e-06
000240 62 1c 5d 36 33 9f 22 36 d6 8d dd b4 b2 84 03 b7
       3.2948087e-06 2.4232547e-06 -4.1267657e-07 -7.839104e-06
000250 97 f4 45 37 e0 4b fa 35 03 3e 97 b6 80 69 ae 36
       1.1799063e-05 1.8648534e-06 -4.50737e-06 5.197886e-06
000260 30 58 37 b7 4b 83 99 b6 1c b9 4d 37 2d bb d8 b5
       -1.0928183e-05 -4.57504e-06 1.2262051e-05 -1.6147729e-06
000270 9d ed 5c 37 ee ec 40 37 45 62 49 37 fe 06 26 37
       1.31683455e-05 1.1499256e-05 1.2003414e-05 9.895999e-06
000280 2b ec 2e b7 e8 8a 56 37 28 20 19 37 b3 7a af b6
       -1.0426195e-05 1.2787736e-05 9.126998e-06 -5.2296905e-06
000290 da 1c 21 b6 c2 12 e1 b6 84 01 3e b7 37 5c 82 b6
       -2.4007663e-06 -6.7077062e-06 -1.1325235e-05 -3.885037e-06
0002a0 72 10 31 b7 82 76 e5 b6 3a 02 04 37 d8 b9 e1 35
       -1.0553851e-05 -6.838528e-06 7.8683315e-06 1.6817894e-06
0002b0 09 16 5d b5 05 47 66 b6 f1 58 30 b6 9d b7 59 b7
       -8.236098e-07 -3.431401e-06 -2.6277814e-06 -1.2976959e-05
0002c0 17 51 b6 35 3c 27 39 b6 30 67 0e b7 86 a8 35 b7
       1.3583657e-06 -2.7589986e-06 -8.487885e-06 -1.0827678e-05
0002d0 9f da 04 b6 70 22 3e 37 f9 8c 36 b7 47 43 4d b7
       -1.9796787e-06 1.1332901e-05 -1.0880868e-05 -1.2234616e-05
0002e0 3c 86 57 b7 d9 43 44 b6 c5 54 f7 b5 77 d3 ab b6
       -1.28462525e-05 -2.9245768e-06 -1.8427605e-06 -5.120815e-06
0002f0 7a 81 69 b4 25 63 8b 35 09 2a b4 b6 be 75 10 b7
       -2.1746919e-07 1.0385162e-06 -5.3693116e-06 -8.610483e-06
000300 c1 c5 04 36 27 a6 09 37 17 2d 02 b7 cd 5e c3 35
       1.978464e-06 8.204522e-06 -7.759102e-06 1.4556223e-06
000310 fe ee 8f 36 e7 a6 39 36 2d 1d a8 b6 d8 82 0e b7
       4.2895545e-06 2.7664298e-06 -5.0101867e-06 -8.494324e-06
000320 24 94 55 37 71 6a 08 b7 79 b4 a7 36 ba b2 f4 b5
       1.2730281e-05 -8.1310145e-06 4.9979976e-06 -1.8231433e-06
000330 c0 e6 aa b6 b8 70 5c b7 fc 25 2c b6 55 71 05 b7
       -5.0932576e-06 -1.3139266e-05 -2.5652107e-06 -7.953805e-06
000340 08 a7 2f 37 ab 96 0b 36 1e b7 47 b7 0d 89 b1 34
       1.0469703e-05 2.0800314e-06 -1.190396e-05 3.3068537e-07
000350 9f 7a 1d b7 d5 d8 56 37 93 a6 9e 36 15 6b c3 b5
       -9.386479e-06 1.2805879e-05 4.7281587e-06 -1.4559797e-06
000360 87 74 2f b7 c0 db 11 36 28 95 de 36 af ce 22 37
       -1.0457944e-05 2.1734595e-06 6.6334796e-06 9.704075e-06
000370 5d 9c 3e 37 d1 5d 33 37 8f 9e 5c b7 b6 ee 50 37
       1.1361289e-05 1.0691075e-05 -1.3149939e-05 1.2453345e-05
000380 48 cd ff b6 7f 53 d1 36 d2 00 52 b7 26 19 64 b6
       -7.62349e-06 6.2384056e-06 -1.2517166e-05 -3.3989286e-06
000390 8f 64 f5 b5 f8 eb 2f 36 80 04 50 37 c5 b1 73 36
       -1.8283189e-06 2.6214384e-06 1.2398814e-05 3.6313297e-06
0003a0 f5 4d 42 b7 57 de 3a b7 f2 14 92 b6 4a af ec b6
       -1.1581452e-05 -1.11382315e-05 -4.3535774e-06 -7.0537544e-06
0003b0 f2 47 1b b6 9c f7 23 37 3a c6 47 b6 50 2f 11 37
       -2.3138678e-06 9.773208e-06 -2.9768694e-06 8.653689e-06
0003c0 10 e7 f3 35 4d e7 7f b6 99 5e bd b6 c9 96 fa 34
       1.8172159e-06 -3.8132596e-06 -5.6436515e-06 4.667584e-07
0003d0 5d 4f ca 35 7e 9c a1 b6 68 e1 59 b7 15 98 0e b6
       1.507327e-06 -4.816392e-06 -1.2986689e-05 -2.1248172e-06
0003e0 a6 50 8f b5 84 2d 34 b7 5f 05 17 b7 27 47 05 37
       -1.0677802e-06 -1.07394335e-05 -9.001552e-06 7.943984e-06
0003f0 c3 cc 5c 37 2a 85 0f b6 6e 7c 4f 36 8d bb 6a b6
       1.3160697e-05 -2.1386172e-06 3.0917831e-06 -3.4977886e-06

b_classifier.q.0.bias f4 [128]
000000 f3 05 0b 37 30 2f 9e b6 6e f0 8e b4 96 07 ff b6
       8.286431e-06 -4.7142603e-06 -2.6624497e-07 -7.6004753e-06
000010 37 c2 93 b5 5b ef 5b b7 ab b9 5d b6 e7 ce 07 b6
       -1.1008877e-06 -1.31091465e-05 -3.303964e-06 -2.0237e-06
000020 f5 d4 2a b7 1d 1a 73 b5 e1 eb ee 35 35 33 e2 b5
       -1.01823725e-05 -9.0562554e-07 1.7801032e-06 -1.6853215e-06
000030 1b 56 52 b6 09 7c 33 37 1d fc 54 b7 ba 95 38 b7
       -3.1342558e-06 1.0698111e-05 -1.2694884e-05 -1.1002116e-05
000040 6b a2 a3 b5 62 0e 5f b7 7e c2 ed b5 de 4e e4 36
       -1.2191716e-06 -1.32951845e-05 -1.7714481e-06 6.804111e-06
000050 b2 80 e8 34 c9 ca b5 35 e8 20 3e b7 bb 04 2b 37
       4.3307006e-07 1.3544569e-06 -1.1332544e-05 1.0193496e-05
000060 8f f3 64 37 8e a8 ee 36 db 2b ea 36 e5 2f fa 35
       1.3646567e-05 7.112575e-06 6.978849e-06 1.8640391e-06
000070 4d de cb b5 eb fe 55 b7 ed d4 98 b6 b6 b1 5a b7
       -1.5189377e-06 -1.2755142e-05 -4.554741e-06 -1.3035189e-05
000080 f8 15 4e 36 b6 c7 13 b7 a5 19 d7 b6 22 20 05 36
       3.070918e-06 -8.808382e-06 -6.4104847e-06 1.9837248e-06
000090 19 26 0c 36 1e 43 52 36 40 12 e1 35 f4 1e 11 36
       2.0883801e-06 3.1331506e-06 1.6769118e-06 2.16247e-06
0000a0 b2 a7 93 36 e0 62 ac 36 1a 75 5c b7 eb 26 57 b7
       4.4004637e-06 5.13751e-06 -1.3140287e-05 -1.282406e-05
0000b0 d1 3f a3 32 77 cb 40 37 cc 2a 3b 37 b5 32 1b 37
       1.9004718e-08 1.1491465e-05 1.1156033e-05 9.250526e-06
0000c0 b9 8f 1d b6 c7 2e 2d b6 b6 b7 c3 b3 50 91 0a b6
       -2.347848e-06 -2.5806237e-06 -9.113812e-08 -2.0648185e-06
0000d0 bc c3 25 b7 8e 94 4a 37 b3 a6 a2 35 13 d3 5a 37
       -9.880339e-06 1.2074726e-05 1.2118456e-06 1.3042957e-05
0000e0 42 cb 04 36 28 7c ae 36 d0 9a 26 b7 cc f0 d1 33
       1.9787844e-06 5.200058e-06 -9.930416e-06 9.7761216e-08
0000f0 78 e4 47 b7 6d 6b 48 b5 e1 9b d5 b5 97 4a 0e 37
       -1.1914519e-05 -7.466213e-07 -1.5915103e-06 8.481226e-06
000100 d3 c7 2d 37 2e f7 2f 37 1e 9c e2 b6 25 69 4c b5
       1.0358129e-05 1.0488364e-05 -6.7534993e-06 -7.614893e-07
000110 66 6e fe 35 22 18 22 36 e5 09 3e b7 f0 77 2e 36
       1.8956605e-06 2.4153928e-06 -1.1327186e-05 2.5997833e-06
000120 2c 03 e4 b6 1f 24 97 b6 6e 58 0e 37 f4 cf 26 b6
       -6.7952988e-06 -4.5043557e-06 8.484449e-06 -2.4856972e-06
000130 0c a0 e6 b5 4a 16 41 b5 eb 09 54 37 5c 06 53 37
       -1.7182915e-06 -7.193054e-07 1.2638494e-05 1.2578061e-05
000140 a1 c9 92 36 58 69 19 b6 d7 86 63 37 e4 d3 38 35
       4.3746118e-06 -2.2860095e-06 1.3561649e-05 6.8853683e-07
000150 3b 2c f1 b6 46 ce c4 b5 3e 82 c7 b6 14 c5 2f 36
       -7.187509e-06 -1.4663171e-06 -5.9458243e-06 2.6191747e-06
000160 e3 2b 33 b7 7d c7 51 37 2c 95 e2 b5 77 c0 aa 36
       -1.067945e-05 1.2503818e-05 -1.6881727e-06 5.0888007e-06
000170 3f 75 c5 35 c7 46 a4 b5 b0 20 76 36 a3 74 c0 36
       1.4711767e-06 -1.2239551e-06 3.6675883e-06 5.735624e-06
000180 7d f0 50 36 56 a6 8f 34 91 fb 4b b7 23 dc 45 36
       3.1134398e-06 2.675685e-07 -1.2158315e-05 2.9483424e-06
000190 73 14 04 b7 0f 31 5e b6 89 29 d6 36 3f 47 ba b6
       -7.872574e-06 -3.3109134e-06 6.3825323e-06 -5.551526e-06
0001a0 7d c7 6b 36 bf 14 0a b6 fd f5 6c b6 53 32 36 b6
       3.5133846e-06 -2.0575678e-06 -3.5309924e-06 -2.7149406e-06
0001b0 6d e9 2e 37 0b c8 44 b6 eb a2 00 b6 9d 6b 09 b6
       1.0425557e-05 -2.9322716e-06 -1.9168317e-06 -2.047723e-06
0001c0 6d b8 50 37 6b 42 1a 37 a5 5f 5a 37 6e b4 18 b6
       1.2440706e-05 9.194579e-06 1.30160815e-05 -2.275479e-06
0001d0 7e ee 42 37 d5 41 89 b6 50 74 5c b6 15 87 af 36
       1.1618829e-05 -4.090582e-06 -3.2850257e-06 5.231132e-06
0001e0 4c 7d 0b 37 7b cf 26 37 12 41 30 37 1d ac 5f 36
       8.314219e-06 9.942679e-06 1.0505568e-05 3.3329773e-06
0001f0 5f 16 be 36 40 64 05 36 03 cc ea 35 0f 74 92 35
       5.6650456e-06 1.9876898e-06 1.7493734e-06 1.0911625e-06

b_classifier.q.2.weight f4 [128, 128]
000000 a3 71 06 b6 e8 33 3a b6 75 fe 49 37 64 df 30 36
       -2.0033701e-06 -2.7746373e-06 1.2039779e-05 2.6356074e-06
000010 7a 78 e3 36 6c 81 07 37 ce 0d aa b5 e9 0c ba b5
       6.7791525e-06 8.07676e-06 -1.2670005e-06 -1.3861837e-06
000020 0c 1e b2 36 57 78 52 36 2b 6a 1b b6 60 f5 55 37
       5.3083113e-06 3.1362486e-06 -2.3158598e-06 1.275292e-05
000030 7b b0 09 36 05 93 d9 35 84 31 11 b7 c3 c6 a2 b6
       2.0517316e-06 1.6210548e-06 -8.654202e-06 -4.851115e-06
000040 2a e1 87 37 65 73 5a b7 73 13 46 33 d3 39 6e b6
       1.6198104e-05 -1.302068e-05 4.6118156e-08 -3.5498422e-06
000050 2e 52 3e 37 f8 80 03 36 e1 1b ee b6 73 e6 06 b7
       1.13440165e-05 1.959559e-06 -7.0961983e-06 -8.040678e-06
000060 fe 0d 0a b7 ed 7f 58 37 e4 05 25 b4 bd dc 5b 37
       -8.228699e-06 1.2904388e-05 -1.5368965e-07 1.3104812e-05
000070 91 7c d0 36 8e 50 2c b6 bc 7d 39 36 fb a1 fb b5
       6.2133845e-06 -2.5676886e-06 2.7640335e-06 -1.87481e-06
000080 99 e8 7d b6 e3 3f 5b b7 36 ab 39 37 a0 6a 49 36
       -3.7835327e-06 -1.3068292e-05 1.1066722e-05 3.0013398e-06
000090 d1 3e e3 b5 0c 8d 25 b7 8e 6d 12 b6 d9 d5 c7 b5
       -1.69311e-06 -9.867606e-06 -2.1819465e-06 -1.4888893e-06
0000a0 91 b0 21 36 50 9f 51 35 10 d7 5c b7 5d 69 ae 36
       2.4093645e-06 7.80904e-07 -1.3163095e-05 5.19787e-06
0000b0 ae 29 13 37 28 02 4e b7 7b 2d 4b 37 f4 6a 17 b6
       8.771587e-06 -1.2279059e-05 1.2110332e-05 -2.2563008e-06
0000c0 1f e0 00 b5 d4 55 e8 35 f9 48 15 b4 aa b9 8c 36
       -4.8009855e-07 1.7310326e-06 -1.3903254e-07 4.1939393e-06
0000d0 e6 b9 32 36 80 62 1c b6 78 c8 e3 b5 f5 4d 00 b7
       2.6632274e-06 -2.3303146e-06 -1.6971162e-06 -7.647545e-06
0000e0 ce 20 a2 b5 6a 59 cb 36 b1 9d a9 35 ad 06 85 b6
       -1.2079488e-06 6.0602806e-06 1.2637375e-06 -3.964486e-06
0000f0 7f 88 0b b6 68 6b f5 35 f2 94 5b 37 07 d3 7f b3
       -2.0792065e-06 1.8285182e-06 1.3088096e-05 -5.9563742e-08
000100 9e a0 e1 34 28 b3 5b b6 2a 8f d5 36 3c 7f 0f 37
       4.202638e-07 -3.2737826e-06 6.364561e-06 8.553088e-06
000110 89 e8 35 37 d2 bd f9 36 01 7c 33 36 25 15 84 36
       1.0842582e-05 7.4428763e-06 2.6745258e-06 3.936368e-06
000120 31 91 3e b6 86 c9 09 b6 50 1c 13 b6 d1 8a cf b5
       -2.8396719e-06 -2.0531893e-06 -2.1921187e-06 -1.5463103e-06
000130 3a 8d b0 36 1f 96 b3 35 58 55 c1 36 d9 b4 9a b6
       5.2616497e-06 1.338023e-06 5.7617835e-06 -4.610611e-06
000140 fa dc d9 35 f0 33 ca b5 e1 31 de b5 bb 45 dc 35
       1.6232073e-06 -1.5065289e-06 -1.6554806e-06 1.6411572e-06
000150 49 4e f5 35 b2 b7 fe b5 37 6c c5 b5 65 b5 19 b6
       1.8276706e-06 -1.8977937e-06 -1.4709138e-06 -2.2904362e-06
000160 3b 35 02 37 51 df 98 b6 0a c1 70 36 bf ea e4 35
       7.7609975e-06 -4.5559505e-06 3.587515e-06 1.7055644e-06
000170 cf c8 9a 35 55 8a f7 36 f5 f4 1d 37 82 ae ae 36
       1.1532337e-06 7.3772776e-06 9.414963e-06 5.2059195e-06
000180 ca ef 01 b6 f4 5a 73 b5 3a 50 c7 35 b8 2d cd bc
       -1.9362074e-06 -9.065691e-07 1.4850004e-06 -0.025046214
000190 fe a2 5a 37 46 0b 58 b7 45 23 ac b6 37 da 05 36
       1.3031762e-05 -1.2877228e-05 -5.1301054e-06 1.9945562e-06
0001a0 37 75 05 36 04 f3 20 35 94 76 a3 36 71 5b ee 36
       1.9886772e-06 5.995828e-07 4.871583e-06 7.103598e-06
0001b0 72 80 02 b6 ad aa 4d b4 97 37 5d b7 64 2c 52 b7
       -1.9446275e-06 -1.9154204e-07 -1.31855695e-05 -1.2527311e-05
0001c0 c9 3e ef 35 67 68 d2 36 b9 ea 17 b6 03 08 ae b6
       1.782516e-06 6.2706417e-06 -2.263738e-06 -5.186537e-06
0001d0 3a fc 2a 37 1b 64 44 36 ce a3 1b b6 99 12 bd b6
       1.0191516e-05 2.9264545e-06 -2.3192147e-06 -5.634804e-06
0001e0 7c 71 10 36 74 0f f9 b5 b2 98 d2 35 07 a7 d0 35
       2.1523729e-06 -1.8556443e-06 1.569066e-06 1.5545819e-06
0001f0 36 b1 2b 37 f0 0a 33 36 4e 41 bc bd 8e a9 a6 b6
       1.0233654e-05 2.6679445e-06 -0.091921434 -4.9669243e-06
000200 b6 b5 1e b6 43 9d c8 36 7e 84 5d 37 72 ce b9 36
       -2.3649604e-06 5.978772e-06 1.3203475e-05 5.537463e-06
000210 41 cd 89 36 24 94 a7 35 2b f5 7b b6 c7 7c 96 36
       4.106813e-06 1.2485584e-06 -3.754462e-06 4.4848744e-06
000220 0e 7b cd b6 08 42 0f b7 34 52 15 36 d3 2a 5c b7
       -6.1238015e-06 -8.538838e-06 2.2250579e-06 -1.3122993e-05
000230 0d ff e7 b5 0d c8 12 b5 75 12 52 b7 d8 dc d4 b6
       -1.7285071e-06 -5.468035e-07 -1.2521273e-05 -6.343802e-06
000240 da 38 db b5 2e f4 d1 36 38 3f 57 37 ea 99 8c b5
       -1.6333317e-06 6.2571116e-06 1.2829718e-05 -1.0475608e-06
000250 28 1d fd 35 47 d5 4d b7 b8 6b da b6 d6 03 ea 35
       1.8858454e-06 -1.226861e-05 -6.5094464e-06 1.7435475e-06
000260 e1 19 5d b5 ea 6b 0f 37 b0 7c e1 b5 b4 08 0a b6
       -8.2366574e-07 8.54859e-06 -1.6800095e-06 -2.0568668e-06
000270 96 4c 3f 37 d8 0e 8f 36 fa 0b 80 35 75 9f ed 35
       1.1402319e-05 4.26346e-06 9.540229e-07 1.7704284e-06
000280 f6 44 71 35 83 f2 c7 b5 18 d2 06 36 b6 f6 5c 37
       8.987985e-07 -1.4897236e-06 2.0089847e-06 1.3170464e-05
000290 83 8c 43 37 17 a4 bb b5 9c b8 03 b6 a3 29 43 36
       1.1655621e-05 -1.3980342e-06 -1.9627978e-06 2.90815e-06
0002a0 d5 87 5c 36 a4 e4 2c 37 7b 25 9c 35 ed 7b 02 b7
       3.286162e-06 1.0305233e-05 1.1633814e-06 -7.7774575e-06
0002b0 91 b7 59 b6 d2 98 b6 b6 b7 77 ed b6 13 27 18 36
       -3.244237e-06 -5.4418133e-06 -7.077087e-06 2.267251e-06
0002c0 5f ae 07 37 d9 a0 6a b6 b5 a1 e2 35 e7 6e 36 37
       8.087226e-06 -3.4962343e-06 1.6885375e-06 1.0873867e-05
0002d0 d5 39 35 b5 2f d8 26 35 c5 d0 bb b5 f7 f8 80 36
       -6.751191e-07 6.215441e-07 -1.3993346e-06 3.8436806e-06
0002e0 41 3d 11 37 2f 7d bd b5 ae cb 90 35 cc 78 ea 35
       8.656935e-06 -1.411803e-06 1.0788115e-06 1.7469515e-06
0002f0 75 d5 f8 35 6a ae 30 b6 1b 2a 10 36 fc bc b9 b5
       1.8539564e-06 -2.6327566e-06 2.148218e-06 -1.3838576e-06
000300 67 82 39 37 9e 18 ed b4 20 fc 9f 36 89 7a 8a 35
       1.1057221e-05 -4.41626e-07 4.7679205e-06 1.0317464e-06
000310 18 79 49 b6 92 5b 10 b6 75 1f 4a 36 01 61 40 b6
       -3.002182e-06 -2.1510973e-06 3.0118656e-06 -2.8666693e-06
000320 fe 30 c3 36 88 1e 05 b6 98 53 c2 36 73 7c 94 b6
       5.8171563e-06 -1.9836316e-06 5.791382e-06 -4.4252315e-06
000330 e5 7e 4c 37 01 c6 a9 b6 0b 7a 15 b6 39 75 1b 37
       1.21888925e-05 -5.059643e-06 -2.2273769e-06 9.266013e-06
000340 1a 27 5a b6 3d 1d 4a 37 26 55 bc 36 83 5e 9a b3
       -3.2507292e-06 1.2046946e-05 5.612749e-06 -7.1883754e-08
000350 7c a8 33 37 ef b8 39 37 33 b5 d8 b5 47 4e e5 b6
       1.070846e-05 1.10699175e-05 -1.614599e-06 -6.8338445e-06
000360 2b c7 7a b6 f6 22 27 b6 28 3e 82 34 f3 27 c6 36
       -3.7368834e-06 -2.490529e-06 2.4259612e-07 5.9055105e-06
000370 85 a9 ff b5 66 10 25 b7 86 95 9d 36 cf fd 5a b7
       -1.9048317e-06 -9.838584e-06 4.6963714e-06 -1.3052907e-05
000380 f8 bc 56 b7 84 af f0 35 35 1b dc b5 2f e1 ba 34
       -1.2799392e-05 1.7932475e-06 -1.6399196e-06 3.4809042e-07
000390 96 32 94 b5 87 35 8c b6 ce d4 41 b7 81 19 0b 36
       -1.1041582e-06 -4.1785565e-06 -1.1553244e-05 2.072746e-06
0003a0 23 be 56 37 f4 c1 ab b6 20 b3 4d b7 d1 b8 33 36
       1.2799664e-05 -5.1187762e-06 -1.2260658e-05 2.6780656e-06
0003b0 c7 0e ec 36 48 c7 83 36 3b 23 81 b5 4a 5d 08 b6
       7.0350684e-06 3.9273036e-06 -9.621502e-07 -2.031988e-06
0003c0 ee 75 13 36 65 be f3 35 d8 50 a9 36 f3 7d e1 35
       2.197335e-06 1.8160323e-06 5.046004e-06 1.6800462e-06
0003d0 5a 51 00 b4 ed 87 bc b6 71 16 2e 36 e6 90 c2 34
       -1.1950524e-07 -5.6186605e-06 2.5941083e-06 3.6240743e-07
0003e0 ee aa f0 36 71 ac ab b6 5f 1e 83 36 a2 c7 8c b6
       7.172456e-06 -5.116272e-06 3.90764e-06 -4.1955655e-06
0003f0 ef a7 ba b5 ec 22 f7 35 49 ed b3 b6 c8 54 11 36
       -1.3906955e-06 1.8413098e-06 -5.3622393e-06 2.1656033e-06

b_classifier.q.2.bias f4 [128]
000000 f7 5a b1 35 93 ff ed 35 5b 6c 61 b6 5c 20 e4 b5
       1.3214002e-06 1.7732258e-06 -3.3590684e-06 -1.6996742e-06
000010 e0 02 69 36 fc ca 41 b6 ca e4 04 b7 05 fd 93 35
       3.472138e-06 -2.8877394e-06 -7.921082e-06 1.1025992e-06
000020 35 e5 12 36 3b 2b 3c b6 d5 80 97 36 cf 20 14 36
       2.1889111e-06 -2.8039346e-06 4.5151487e-06 2.2072816e-06
000030 61 48 86 36 50 10 8b b4 1a a1 53 37 40 bc 98 35
       4.001937e-06 -2.5902636e-07 1.2614089e-05 1.137967e-06
000040 49 9d 51 b7 0d 57 c5 b5 d9 e6 47 37 b4 08 38 36
       -1.2493992e-05 -1.4702979e-06 1.1915073e-05 2.7423202e-06
000050 ab 6b a6 b6 be 81 ab 35 65 57 27 37 92 6e f5 b5
       -4.9597197e-06 1.2778253e-06 9.974324e-06 -1.8286103e-06
000060 0b ec bd b6 4c 93 6e 36 20 b1 5c 36 b1 f5 09 37
       -5.660118e-06 3.5550502e-06 3.2885655e-06 8.223041e-06
000070 80 fd 13 b6 fa 0a 14 b7 91 cb 3f b5 74 bf 9e b6
       -2.2052263e-06 -8.824043e-06 -7.144927e-07 -4.731055e-06
000080 75 61 04 b6 cf ad 1b 36 21 5c 0a b6 4d 56 77 b6
       -1.972626e-06 2.319797e-06 -2.0617229e-06 -3.6856102e-06
000090 b5 ce 9c 36 5c 53 ee 35 63 dc dc 36 79 34 01 36
       4.673226e-06 1.7756643e-06 6.5821673e-06 1.925304e-06
0000a0 39 a7 6a b6 d7 c2 54 36 28 77 2d b7 22 2e 57 35
       -3.4966054e-06 3.1703873e-06 -1.0339347e-05 8.0160873e-07
0000b0 90 f1 c3 b5 30 60 6c b7 90 28 41 37 6a fd 14 b6
       -1.4598936e-06 -1.4089092e-05 1.1513141e-05 -2.2201225e-06
0000c0 a7 88 7b 36 b5 bf 1c b7 61 20 41 37 54 39 d9 b5
       3.7481457e-06 -9.34296e-06 1.1511235e-05 -1.6184445e-06
0000d0 dd c0 b1 36 53 68 cb 35 b8 94 06 37 79 f9 2c 37
       5.2974633e-06 1.5155041e-06 8.021649e-06 1.0310084e-05
0000e0 b0 b0 58 b7 d1 0c e2 b4 ce f3 64 36 95 22 34 b6
       -1.29157415e-05 -4.2105106e-07 3.411656e-06 -2.684222e-06
0000f0 f8 48 a9 b6 7d 8c 6f b7 09 d0 47 36 29 0c ba b6
       -5.045087e-06 -1.427822e-05 2.9774403e-06 -5.5446476e-06
000100 f9 c1 89 36 00 01 49 b6 30 aa 94 36 9d 04 52 b7
       4.1054996e-06 -2.9951916e-06 4.430556e-06 -1.25180495e-05
000110 da e3 66 b6 16 0e b4 b5 ca cf 6d 36 76 d2 35 b6
       -3.4405298e-06 -1.3415145e-06 3.5436701e-06 -2.7093606e-06
000120 76 4c 57 36 2b 0b b2 35 e8 9d 36 35 e9 f8 46 b6
       3.2082003e-06 1.3265284e-06 6.803007e-07 -2.9649184e-06
000130 49 a4 e9 35 68 f3 0e b6 28 3b 0f b6 8e 7e 3b 35
       1.7407666e-06 -2.130133e-06 -2.1343094e-06 6.984709e-07
000140 a9 4d 28 b6 99 1a f3 36 5e 7b 70 b7 ba 7c 70 36
       -2.5079155e-06 7.2450607e-06 -1.4333838e-05 3.5835387e-06
000150 c7 56 11 36 f1 01 0f b6 97 94 ea b5 fc 9f f6 b5
       2.1657195e-06 -2.130979e-06 -1.7477604e-06 -1.837499e-06
000160 f1 14 fb b5 e5 a7 31 37 3f 42 15 36 7b f2 e6 36
       -1.8707052e-06 1.0589113e-05 2.224129e-06 6.8827626e-06
000170 68 73 2c b5 cc ea 38 b6 cc 47 f3 36 42 d6 30 36
       -6.424293e-07 -2.7554806e-06 7.2503226e-06 2.6350758e-06
000180 84 32 05 b6 c4 0e 54 36 88 cf b7 35 6b 9d 63 37
       -1.9847948e-06 3.1599056e-06 1.3694962e-06 1.3566906e-05
000190 f8 ef 37 34 08 6e 6d 36 79 4f 19 b7 35 91 98 36
       1.7130503e-07 3.5379799e-06 -9.138014e-06 4.5468573e-06
0001a0 36 7b 2a 36 1f 32 6b b6 6c ad 7d b6 f3 b4 09 b7
       2.5403692e-06 -3.5046903e-06 -3.7800883e-06 -8.207967e-06
0001b0 8c 81 ad b5 d4 3f 8c 37 5b f9 58 b7 20 77 d6 b6
       -1.2927208e-06 1.6719023e-05 -1.2932661e-05 -6.391565e-06
0001c0 0a ac 06 36 09 5b 2a b7 4d a1 41 37 ed 5c 1d 37
       2.0067696e-06 -1.0153985e-05 1.1541252e-05 9.379565e-06
0001d0 42 76 c2 b6 4b 4d 0e b6 91 2c a5 36 26 bb 2b b6
       -5.7954176e-06 -2.120464e-06 4.9225714e-06 -2.558992e-06
0001e0 1a d6 5b b7 a2 a7 37 36 9b 24 d3 36 46 db 74 37
       -1.3103267e-05 2.73667e-06 6.2925515e-06 1.4594587e-05
0001f0 97 97 7d b6 8a b5 b6 35 56 f5 2c b6 c9 5d 33 37
       -3.7788175e-06 1.3612892e-06 -2.5772802e-06 1.06910675e-05

b_classifier.fcc.weight f4 [2, 2, 768]
000000 53 b7 6e bc 0f 80 80 3b f8 36 69 bc e2 85 c6 bc
       -0.014570075 0.003921516 -0.014234297 -0.024233762
000010 bf 9e 81 3c 14 bb ea bb 8f 69 fe bc 09 23 b7 3c
       0.015822766 -0.0071634147 -0.031056194 0.022355573
000020 43 ad ea bc 52 6c 80 bd 03 99 c4 bc 16 93 b3 3b
       -0.02864707 -0.062706605 -0.023998743 0.0054801805
000030 d0 e7 3d bb 1b 8f c9 bc 94 22 dc bc 7d 65 fb 3b
       -0.0028977282 -0.02460437 -0.026871957 0.0076720105
000040 ca 8b 21 3d 61 98 81 3c f6 89 90 ba 26 6e 59 bc
       0.039439954 0.01581973 -0.0011027444 -0.01327089
000050 e6 18 a0 3c bd 92 5f 3d 36 df 85 3c 7f 0e 82 bc
       0.019543123 0.0545833 0.016341787 -0.015876053
000060 c3 7a 16 bd ad 09 e9 3c d9 99 10 3d 3f bc 6b bd
       -0.03673817 0.028446997 0.03530297 -0.057552572
000070 bd 25 c6 bc 97 97 6d 3c f0 32 8c 3d 20 a8 cb 3b
       -0.024187917 0.014501474 0.06845653 0.0062151104
000080 fe 12 2c bc 00 7c 06 3d 94 13 2b 3b 26 72 04 bd
       -0.010502575 0.0328331 0.0026104199 -0.032335423
000090 3e 95 bb 3a 0e 2e 2f 3b f1 56 06 bc 93 1d 28 bd
       0.0014311445 0.0026730332 -0.008199439 -0.04104383
0000a0 9a aa b2 3c b8 e4 63 3b c1 e0 5a bc 44 42 05 3c
       0.021809865 0.0034773778 -0.01335925 0.008133475
0000b0 cc 2e 00 3b 0e 3c 49 3a d6 d2 d0 bb 7e ae 0b bd
       0.0019559143 0.00076764903 -0.00637279 -0.034101956
0000c0 ab c9 7f bc 7a 8c 96 3d a8 61 2c bd 80 10 ea bc
       -0.015612046 0.073510125 -0.04208532 -0.028572321
0000d0 73 4f 86 3c 9c e6 df 3c 3d 2b b9 3c 6f 3d 88 bc
       0.016395306 0.027331643 0.022603625 -0.016630856
0000e0 58 e5 39 ba 38 e2 e1 3a 12 36 2b bd 51 90 5d bd
       -0.0007091365 0.0017233556 -0.041799612 -0.05409271
0000f0 86 84 89 bc 09 65 34 3c 1b 30 25 3c da 6b 84 bc
       -0.016786825 0.011010417 0.01008227 -0.016164709
000100 a2 43 c7 bc 73 7e 7c 3c 8a da ba 3b b2 bb 76 bb
       -0.024324242 0.015411007 0.0057023214 -0.0037648496
000110 44 f7 1b bd 83 23 f0 bc 7b 95 9f ba 34 e0 b3 bb
       -0.038077608 -0.029313808 -0.0012175286 -0.0054893736
000120 15 f1 bd bb 1a c9 b9 bc 16 c2 e0 bc 7a 43 c9 39
       -0.0057965615 -0.0226789 -0.027436297 0.00038387981
000130 78 09 4b 3d 71 f1 33 3d 51 79 0f 3b 0d 7a 6a bc
       0.049569577 0.04393143 0.0021892379 -0.014311326
000140 49 f7 c5 3c c8 ca 01 bc e7 24 b6 3c 2f 5f 9b bc
       0.024165766 -0.007921882 0.022234393 -0.018966286
000150 cc 71 c8 bb e4 40 98 3b 42 b6 cc bc ab 72 d9 3b
       -0.0061170813 0.0046464074 -0.024989251 0.006635984
000160 43 40 34 bc f9 c4 ec 3c 1c 95 91 bc ce 10 51 bd
       -0.011001649 0.028902518 -0.017771296 -0.051041417
000170 fc 36 06 bd 48 eb 3b bc af 04 92 bc b7 da 84 3b
       -0.03276728 -0.01146967 -0.017824499 0.004054393
000180 45 b3 be bc 2c 5b 38 bc 0c 1e 2f 3d ff 5a 98 3c
       -0.023278842 -0.011252206 0.042753264 0.018598078
000190 ec 4d 57 3b bb 77 5c 3c 48 21 8a bd 38 8b 50 3c
       0.0032852842 0.01345628 -0.06744629 0.012728505
0001a0 ce 1d 20 bc fe c8 73 bb d2 08 e0 bb 3a 4c c4 3c
       -0.009772731 -0.0037198658 -0.006836989 0.023962129
0001b0 2a 46 31 ba 3c 4e 89 3c 31 c5 57 3c ab 83 b2 bc
       -0.00067624694 0.016760938 0.013169573 -0.0217913
0001c0 79 d0 af 3b 72 62 af bc 34 a8 69 3c 83 7c 8b 3c
       0.005365428 -0.021409247 0.014261294 0.017027145
0001d0 19 72 9e bc 3c ef 4c bd db bc a7 3c 03 3f c5 bb
       -0.019341515 -0.05003284 0.020475795 -0.0060194745
0001e0 99 f4 44 bc cd f7 f7 bc 7b 7e 11 3c a7 76 90 bc
       -0.012021207 -0.030269528 0.008880253 -0.017634703
0001f0 5e 7f 34 bd 7a b3 2d 3c da ae 95 bc 93 61 db 3c
       -0.04406678 0.010601873 -0.018271852 0.026779925
000200 7e 14 02 3c 51 06 09 3b ad d1 10 3b 93 1a 82 3b
       0.007939456 0.0020908306 0.0022097633 0.003970453
000210 d7 c0 8a 3d c6 de 2d 3c 2f 24 3c bc e0 3b 8e 3d
       0.067750625 0.010612195 -0.011483236 0.06945014
000220 86 40 d0 3c 4a cd b4 3a bd 4d a4 bc 06 bc 9c 3a
       0.025421392 0.0013794091 -0.0200566 0.0011957891
000230 af 00 76 bc 17 d5 17 bd e0 08 12 3d 50 16 cb 3c
       -0.015014811 -0.037068453 0.035652995 0.024790913
000240 82 84 45 bc 4e 64 20 bc 6e 21 c6 3c c6 fb 78 bc
       -0.012055518 -0.0097895395 0.024185862 -0.015196746
000250 28 22 c4 3c c7 16 cd bb 8a 37 ef 3c 1d 43 0c bd
       0.023942068 -0.006258819 0.029201288 -0.03424369
000260 25 d4 9b 3d e3 71 f2 3b da 55 0d bd d7 9b b3 bb
       0.07608823 0.0073988303 -0.034505703 -0.005481224
000270 58 5d dd 3c a7 22 f5 3c 2c 1a 60 3d e9 aa 71 3d
       0.027022049 0.02992375 0.05471246 0.059000883
000280 6a e1 3e 3c 30 39 28 bb ad f8 9d bc 83 6e a9 bc
       0.011650423 -0.0025668852 -0.019283617 -0.020682579
000290 c7 18 03 3b ec 64 33 bd f0 89 c8 bc 5b 7d c8 bb
       0.0020003782 -0.04379742 -0.024479836 -0.006118459
0002a0 a2 27 45 bb b3 8a 64 3a af 81 8f 3b d8 33 aa bc
       -0.0030083437 0.00087181776 0.004379473 -0.020776674
0002b0 31 e3 f6 bc 03 a6 0a 3d 75 13 ce ba 98 de 06 3d
       -0.03013763 0.033849727 -0.0015722351 0.032927126
0002c0 aa d2 8a bb a5 8e 59 3d eb ed 6b 3c be 7b 7b 3b
       -0.004236539 0.053114552 0.014399986 0.0038373317
0002d0 19 0a 9d 3c 8c 6e ba bc f6 0a de bb cc 25 16 3d
       0.019169854 -0.022757791 -0.006776209 0.03665714
0002e0 5d 15 fe 3b 60 ea 8b bc d8 16 2c 3c 0f 47 f5 bc
       0.0077540115 -0.017079532 0.010503493 -0.02994111
0002f0 e2 e3 c2 bc 31 aa 88 bb 58 04 a6 bc d3 9b c5 bc
       -0.023790304 -0.004170679 -0.020265743 -0.024122154
000300 a8 0c ba 3c 01 16 3f bc 91 c8 6e 3a b3 b1 b3 3c
       0.022711113 -0.011662961 0.0009108866 0.02193532
000310 65 bf be 3c c9 9b 6a bc 36 ff 14 bb f3 29 af 3c
       0.023284623 -0.014319369 -0.0022735125 0.021382308
000320 74 d8 cd bb a0 9b 38 bc bb 8f 02 3d fb 45 a4 3b
       -0.0062819067 -0.011267573 0.031875353 0.005013225
000330 ce 50 0c 3c c5 59 cf 3c d7 69 23 3d 1e 1f 36 bc
       0.008564187 0.02531136 0.03989586 -0.011115817
000340 5e df 20 bd 63 d3 1f 3c 82 1d 52 3c 80 37 11 3d
       -0.03927552 0.009754988 0.012824418 0.03545332
000350 fd 8e 33 3d 34 3c 15 bb a3 51 b4 bb 8c 48 05 3b
       0.043837536 -0.002277148 -0.005502896 0.002033743
000360 aa 0a ff 3b 31 74 82 bc 36 85 d8 3b 75 53 a9 39
       0.0077832537 -0.015924545 0.006607677 0.00032296372
000370 d7 1f 02 3d fe 5f ab 3b cb 92 b1 3c d8 50 81 bb
       0.031768646 0.005229949 0.021676442 -0.003946405
000380 4c b0 5e 3c 6f 63 b1 bb 53 99 e6 3b a5 69 af bc
       0.013591837 -0.0054134647 0.0070373206 -0.02141268
000390 48 f1 d6 3c 1e cd c4 b9 cd 0a 41 3c 35 fd a0 3b
       0.026238099 -0.00037536857 0.01178236 0.004912997
0003a0 41 c5 a6 3c 67 5a 46 3d fe b5 28 bc ec 73 0c bb
       0.02035773 0.04842606 -0.010297297 -0.00214314
0003b0 ed ce f8 3c 2d e4 b0 3c 4e 77 b0 3c ed 51 aa 3c
       0.030372107 0.021593178 0.021541264 0.020791018
0003c0 58 95 97 3b 4e dd 1d 3c d4 a1 4e 3c 4f 68 45 3d
       0.0046259575 0.009635283 0.012611825 0.04819518
0003d0 11 88 5e 3d 14 e4 90 3c 14 02 82 3c d8 a3 45 bb
       0.05432898 0.017686881 0.015870132 -0.0030157473
0003e0 4b 02 cd 3b dd e9 ca bc 93 31 54 3c 40 1c 9c bc
       0.006256377 -0.024769718 0.012951273 -0.01905644
0003f0 48 6e 11 3c ca 3c 42 bc c6 76 c2 3c d6 a2 f8 3c
       0.008876391 -0.011855314 0.023738276 0.030351084

b_classifier.fcc.bias f4 [2]
000000 96 3f 2c ba 54 b7 17 ba
       -0.00065707543 -0.0005787511
