mil/weights/20241120/fold_1_6.pth (torch, 481804 bytes, 8 tensors)

i_classifier.fc.0.weight f4 [2, 768]
000000 56 ca 3f bd 51 79 94 bc 80 25 8e bd d5 89 59 bd
       -0.046823822 -0.018124254 -0.06940746 -0.053109962
000010 e9 4c 3f bc 6f 54 c7 bb 59 b8 8a bd 40 63 f9 bc
       -0.011676052 -0.0060830633 -0.06773443 -0.030442834
000020 f9 57 ba 3c 97 52 98 3d 71 9c 41 bd d3 f7 d5 bc
       0.022747027 0.07437628 -0.047268335 -0.026119148
000030 c5 2c 9c bb f6 48 5a ba 6b b7 07 3c d7 50 8e bb
       -0.004766079 -0.0008326912 0.008283476 -0.004343133
000040 98 98 59 3d 4d 76 4d bc 17 88 6b bc 81 a0 47 3d
       0.05312404 -0.012540412 -0.014375708 0.048737053
000050 b1 bf 70 bd 50 26 13 bc 02 16 08 bc 01 a2 a3 3c
       -0.05877656 -0.008981302 -0.008306028 0.01997471
000060 72 50 48 bd 73 34 6a 3c f4 9a 50 3d 4f 4e 0b bd
       -0.048904844 0.014294731 0.050929025 -0.034010228
000070 24 87 ba bc 57 34 34 3d 39 d0 38 bd 8e fe 1d 3d
       -0.022769518 0.043995228 -0.04512045 0.03857284
000080 59 1e 49 39 5c 04 51 bc a3 da 96 bd 82 3d 2f 3d
       0.00019180159 -0.012757387 -0.073659204 0.042783268
000090 21 ec 4a bc 5c d7 0a 3d 22 d5 7b bc b7 5c 6b 3c
       -0.012385399 0.03389679 -0.015370639 0.014365367
0000a0 c3 84 58 bc 64 90 b4 3d 7b 79 6d 3c a1 87 52 bd
       -0.013215247 0.08816603 0.014494295 -0.051398877
0000b0 53 cf a0 bb 3b e3 54 bc 82 a3 ae bb ba 18 5b bc
       -0.0049075275 -0.012993629 -0.0053295502 -0.0133725945
0000c0 38 91 7b bb da 91 52 3c b3 1e b5 bc 95 d5 32 bd
       -0.0038386118 0.012852157 -0.022109365 -0.04366072
0000d0 49 d1 9d bb 92 bc a1 3b b8 28 ac bc 53 a6 32 bd
       -0.0048162085 0.0049358094 -0.02101551 -0.04361565
0000e0 eb a6 8d 3d 9f bf 43 3d 2d d0 8e 3d 11 73 9d bd
       0.06916603 0.047790166 0.069733 -0.07687963
0000f0 14 3c 3b 3d 9d 16 44 bc 5e 00 e4 bc 1f 21 0b 3c
       0.04571159 -0.011968282 -0.027832206 0.008491783
000100 94 71 05 3d c5 9e f6 3b 46 a0 30 3d 89 82 c1 3c
       0.03257902 0.007526251 0.0431216 0.023621814
000110 3a 04 ba 3c 5b d0 3e bd 54 3b 56 bd d3 fe d8 3a
       0.022707094 -0.046585422 -0.052302673 0.0016555436
000120 71 89 ac bc 83 00 a4 3a 4e e6 df bc ab b0 36 bd
       -0.02106163 0.001251236 -0.027331498 -0.044602077
000130 31 3e fb 3c a9 98 94 bc fb 6e 91 3d b3 e6 c1 bb
       0.030669304 -0.0181392 0.07101246 -0.005917394
000140 bc a3 99 bc 94 55 00 bc b3 f3 88 3b 6e f6 69 3c
       -0.018754832 -0.007832903 0.004179442 0.014279945
000150 fb db cd 3c 71 4f 1c 3d 7d fd 64 3c 0f b6 1b bd
       0.025129309 0.0381617 0.013976452 -0.03801542
000160 6d 29 4b bc 43 c4 53 bd 66 eb 0d bd 98 21 c9 3d
       -0.012400013 -0.05170084 -0.03464832 0.098208606
000170 fa 34 74 3c 78 35 9c 3c 13 c7 a7 3c 00 89 9a 3d
       0.014905209 0.019068465 0.020480668 0.07545662
000180 00 52 f7 bb 25 77 88 3b 71 2b 6d bb d5 f5 f4 3d
       -0.007547617 0.0041645938 -0.0036189223 0.11960951
000190 0a 17 35 bb b7 66 b7 bb 43 20 38 3d c4 8f 59 bd
       -0.002763214 -0.0055969614 0.044952642 -0.05311562
0001a0 85 31 d2 3c 6d 91 04 bb 2a 4d 70 3d 06 b9 8e bd
       0.025658378 -0.0020228282 0.05866734 -0.06968884
0001b0 8e a6 22 bd 35 9e b6 bb da 34 1d 3b b5 1f 07 bd
       -0.03970962 -0.005573059 0.00239878 -0.032989223
0001c0 ea 9a e9 bc 59 59 77 3c 12 19 93 3c 24 fb c1 3c
       -0.028516252 0.015096986 0.01795629 0.023679323
0001d0 89 25 b7 bc 08 53 06 bc 3f 8b 7d 3d a8 10 d0 3c
       -0.022356765 -0.008198507 0.061900374 0.025398567
0001e0 2e 2a ae bb fb f6 a7 bc c5 fd f9 bb d2 fc 8a 3c
       -0.005315087 -0.020503512 -0.0076291286 0.016966257
0001f0 a1 0d f3 bc 6f e2 9a 3d e4 37 1f bd 96 c1 0c 3d
       -0.029669585 0.0756272 -0.03887166 0.034364305
000200 cf 9a 8e 3c e9 44 f9 3b 00 24 2e 3d c6 fe 00 bc
       0.017407803 0.0076070917 0.0425148 -0.007873243
000210 86 7c 9c 3c d7 fd 01 bd ff 1c ee bc e6 e3 a5 3c
       0.019102346 -0.03173622 -0.02906656 0.020250272
000220 27 07 76 3c f7 e5 a0 bd cb 15 45 bc dc 1b 43 bc
       0.015016354 -0.07856362 -0.012029122 -0.011908498
000230 2b ff 7c 3c 6e 7c 37 bd 77 bb 62 bd ab 96 c0 bc
       0.015441696 -0.0447964 -0.05535456 -0.023509344
000240 5e e1 75 3c 5e 70 87 bc a8 97 1e bd 8b 62 88 3c
       0.015007345 -0.016533073 -0.03871885 0.016648551
000250 fb ef 44 3c 60 2f 2b bc 73 94 3f ba c3 61 96 bd
       0.012020106 -0.010448307 -0.00073081924 -0.07342865
000260 57 9e 37 3d 33 85 02 3c 69 44 75 3b 9b e3 2d 3d
       0.04482874 0.0079663275 0.0037424809 0.04245339
000270 6b da 49 3c 7a c4 16 3c 45 e1 58 3c c6 d5 6e 3b
       0.012320141 0.009202117 0.013237302 0.0036443337
000280 4b 2f e6 3c de d2 bd bc 8a 2c a3 3c c2 4e 70 3c
       0.028098723 -0.023171838 0.019918699 0.014667215
000290 ce 9c 46 3c 83 04 1c 3d 18 cf 46 bc 92 20 10 3c
       0.012122346 0.03809024 -0.012134336 0.008796828
0002a0 16 71 ad bc 6c 1b 91 3d d0 56 a7 bc 50 e9 10 39
       -0.021172088 0.070853084 -0.020427138 0.00013819826
0002b0 18 84 87 bc 9a 36 00 bd 42 89 b2 3d ad 3c 90 3d
       -0.01654248 -0.031302072 0.08717586 0.07042823
0002c0 a7 26 c9 bc 94 5d 06 3d 12 3d 73 ba d0 c1 71 3c
       -0.024554564 0.032804087 -0.00092788145 0.014755681
0002d0 d8 13 bd bd f7 91 93 3b 8e ce 8b bd af 5f b0 bc
       -0.092323005 0.0045034843 -0.068265066 -0.02153
0002e0 07 21 10 bc 6e 1f f0 3b 2a 39 fa 3b b2 e5 ee bb
       -0.008796937 0.0073279655 0.007636209 -0.0072905654
0002f0 41 66 b9 3c 69 cf 26 bd 1a fa ce ba bf 5b 59 3d
       0.022631766 -0.040725145 -0.0015791089 0.05306601
000300 50 e8 06 3d 27 24 60 3d 04 44 82 bb 3b 55 28 3d
       0.032936394 0.054721978 -0.0039753933 0.041096907
000310 2c 07 97 3c ef 1b bc 3b 42 f6 54 bd 50 3d 19 bd
       0.018436037 0.0057406346 -0.051992662 -0.037411988
000320 24 cd 22 bc 01 d2 41 bb 4c 5b a3 bc 67 bf 34 bd
       -0.009936605 -0.0029574635 -0.019940995 -0.044127848
000330 23 f5 e7 3c d3 2d 8c 3d df fa 85 3b b2 f0 01 3d
       0.028315132 0.06844678 0.004088744 0.031723686
000340 a2 b2 c5 3c 57 dc 6c 3c 2b 3e ec bb a3 d8 b9 3c
       0.02413303 0.01445683 -0.0072095594 0.022686308
000350 57 43 77 bc c0 56 6d bd ed 50 bb ba f8 f7 84 bc
       -0.015091739 -0.05794406 -0.0014291086 -0.016231522
000360 cb a2 df 3b 21 e7 6c 3d da 9b 59 bd 45 19 82 3c
       0.0068248264 0.05783761 -0.053127147 0.01588119
000370 11 8d 0e 3d 67 81 5e 3d 03 57 5f bd 99 0d 65 3d
       0.0348025 0.054322626 -0.05452634 0.05592117
000380 da 88 5b 3d cd 7b bf bb 37 0f 3c 3d 2f 73 7c bc
       0.05359731 -0.0058436156 0.045912948 -0.015408321
000390 1a 11 46 bd 52 2b 00 bd d7 eb a4 3c c0 93 a9 bc
       -0.048356153 -0.031291313 0.020131988 -0.020700336
0003a0 bc 0a 37 3d 53 d9 02 3c f6 ea 09 3d f0 d4 7b 3c
       0.04468797 0.007986384 0.03367134 0.0153705925
0003b0 79 59 9b bb 27 ed 94 3c fd 33 01 3d a0 1d c7 3c
       -0.0047408906 0.01817949 0.03154372 0.024306118
0003c0 25 34 74 bc 0c c0 6d 3c 74 f1 48 bd 56 d9 2b bd
       -0.01490501 0.01451112 -0.049058393 -0.041955315
0003d0 76 0e 13 bd f4 4b 25 bd 20 75 0e bd 7b 5c 01 bd
       -0.035902463 -0.040355638 -0.034779668 -0.031582337
0003e0 7d 91 93 3b 54 72 b1 3c 8f 5b f8 3b 64 28 1e bd
       0.0045034275 0.021660961 0.007579274 -0.03861274
0003f0 8b 94 02 bc 9a 70 91 bc 00 c6 51 bd c3 c0 1f bc
       -0.007969986 -0.017753888 -0.05121422 -0.009750548

i_classifier.fc.0.bias f4 [2]
000000 b1 13 f6 bb 63 c1 81 3d
       -0.0075096716 0.06335714

b_classifier.q.0.weight f4 [128, 768]
000000 b1 3c 2b b6 c0 ab 81 36 56 26 8b 36 bc 15 53 b6
       -2.5516313e-06 3.864494e-06 4.1469857e-06 -3.1454101e-06
000010 9b f6 c7 b6 1a 2b 10 36 d1 aa 35 36 37 01 0e b6
       -5.959371e-06 2.148276e-06 2.707053e-06 -2.1160356e-06
000020 55 93 10 b6 83 0c 15 b5 b4 22 1c b6 8b 47 88 36
       -2.154343e-06 -5.552503e-07 -2.3266011e-06 4.0614445e-06
000030 0e 67 1f 36 16 14 33 36 b6 8e 41 b6 46 27 84 36
       2.3752832e-06 2.668477e-06 -2.884231e-06 3.9384786e-06
000040 50 32 d5 b5 7a 61 1c b6 fa 06 d6 35 ee d3 3a b6
       -1.588438e-06 -2.330255e-06 1.5946273e-06 -2.783952e-06
000050 5a d4 07 36 77 95 44 b7 a7 8a 2b 36 fa 61 a2 36
       2.0240172e-06 -1.171731e-05 2.5561692e-06 4.839382e-06
000060 77 40 36 37 c8 3e 13 36 d7 a1 90 36 a7 d6 17 36
       1.0863055e-05 2.194125e-06 4.310375e-06 2.2625698e-06
000070 39 ef 06 b6 a0 c7 19 36 a7 78 4f 37 67 8a 91 b6
       -2.0106802e-06 2.2914974e-06 1.2366253e-05 -4.337449e-06
000080 fc c8 c7 b6 8a ee 59 36 22 b1 80 36 f4 d0 0d 36
       -5.95406e-06 3.2474368e-06 3.8353182e-06 2.1132264e-06
000090 2d bc 33 36 b9 2f 38 b6 21 3a ea b6 22 b2 19 36
       2.6782611e-06 -2.7445915e-06 -6.9805105e-06 2.2902464e-06
0000a0 ad ef 6a b6 b9 05 13 b6 8a ac 12 b6 75 8d 01 b6
       -3.5008227e-06 -2.1908038e-06 -2.1856126e-06 -1.9304837e-06
0000b0 64 7a 12 36 d7 43 f4 36 65 b0 24 b7 46 3a f8 35
       2.1826936e-06 7.2796643e-06 -9.816232e-06 1.84944e-06
0000c0 28 77 46 37 68 ad 33 b6 25 07 f8 35 c2 87 02 36
       1.1829463e-05 -2.6774014e-06 1.8479519e-06 1.945053e-06
0000d0 07 af 30 b6 91 48 13 36 b3 2d 43 b6 a9 a4 8a 35
       -2.6327923e-06 2.1946946e-06 -2.9083865e-06 1.0329724e-06
0000e0 e7 c3 51 37 3d 92 52 36 4c c1 5e b6 7e 93 8c b6
       1.2502983e-05 3.137756e-06 -3.3193091e-06 -4.1894955e-06
0000f0 cc cc 0f 36 15 f0 02 b6 0c 9d 20 36 f6 0a 19 36
       2.1427868e-06 -1.9511256e-06 2.3933271e-06 2.2805157e-06
000100 27 db 22 b6 19 c3 57 37 ce 5e b6 36 82 57 2a b6
       -2.4267445e-06 1.2860423e-05 5.4350594e-06 -2.538291e-06
000110 77 61 0f 36 f5 f2 3f 36 86 91 92 b6 dd 62 40 b7
       2.1365393e-06 2.8602637e-06 -4.36808e-06 -1.146711e-05
000120 74 fc 96 b6 53 7a 59 36 46 35 f1 34 04 a2 2e 37
       -4.4997378e-06 3.2406722e-06 4.492851e-07 1.040893e-05
000130 01 c7 0b 37 4e 98 35 36 7a ab 53 b7 b2 8c 26 36
       8.33138e-06 2.7059755e-06 -1.2616505e-05 2.4817823e-06
000140 c8 f2 0d b6 7e de 21 b6 2d d2 8e b6 1b 96 dc 36
       -2.1151955e-06 -2.4120377e-06 -4.2563975e-06 6.5739855e-06
000150 af 13 84 36 6e b0 f6 35 26 68 13 37 57 ab 0d 36
       3.936198e-06 1.8379776e-06 8.786132e-06 2.111037e-06
000160 2e 74 f3 b5 81 e8 30 b6 e2 38 4b 37 8f 62 15 b6
       -1.8138724e-06 -2.6361379e-06 1.2112987e-05 -2.2260099e-06
000170 1a 51 1c 36 d5 53 0c b6 61 8c b0 36 df c6 1b b6
       2.3293019e-06 -2.0910422e-06 5.261551e-06 -2.3212558e-06
000180 8f 69 17 b6 d4 e8 5f b6 66 69 37 b6 8a 26 4c b6
       -2.2562197e-06 -3.3365113e-06 -2.7330475e-06 -3.0420802e-06
000190 aa 21 02 37 86 62 1a 36 e6 f5 63 36 cd 68 2e b6
       7.756442e-06 2.3005136e-06 3.3968768e-06 -2.5989023e-06
0001a0 15 77 36 37 e3 17 2b 36 97 ca ac b6 85 bd 57 b7
       1.0875771e-05 2.549489e-06 -5.149584e-06 -1.2859125e-05
0001b0 80 f7 b8 b6 23 78 28 36 40 7d 4a 36 00 0a 9c b6
       -5.51244e-06 2.510388e-06 3.017325e-06 -4.6503264e-06
0001c0 0e b2 43 b6 4f 65 19 b7 82 80 23 b6 1d aa 13 b6
       -2.9160906e-06 -9.143098e-06 -2.4363694e-06 -2.2003726e-06
0001d0 2c 1d 16 36 b9 6f 11 b6 9c 10 21 36 27 3d be b5
       2.2368722e-06 -2.1671715e-06 2.4000537e-06 -1.4173901e-06
0001e0 b8 29 61 b6 f4 95 50 b7 d5 35 53 b6 8d 22 3c 36
       -3.3551896e-06 -1.243268e-05 -3.1472784e-06 2.8034294e-06
0001f0 cd 92 a3 b6 ab 94 64 36 a8 ae 56 b7 ad e2 06 36
       -4.8748684e-06 3.4061184e-06 -1.2796059e-05 2.0099499e-06
000200 6b 8b a2 b6 9f 26 a5 b6 8e 12 97 35 d5 c8 00 b6
       -4.8442066e-06 -4.9218793e-06 1.1255777e-06 -1.9190386e-06
000210 6e 53 3d b7 0f ba 3d 36 46 bd af 35 be ef 96 b4
       -1.1284703e-05 2.8271495e-06 1.3093602e-06 -2.8114113e-07
000220 92 31 06 b6 f7 05 99 b6 dd b4 3b 36 f0 68 08 36
       -1.999641e-06 -4.5604497e-06 2.7970448e-06 2.032666e-06
000230 ec b9 a3 36 b1 db 25 b6 72 a6 35 b6 8e e0 16 b6
       4.8794227e-06 -2.4714793e-06 -2.7067986e-06 -2.248245e-06
000240 7e b1 03 b7 c8 b8 1e 36 c9 8a 28 b6 68 39 bb b5
       -7.849534e-06 2.3651392e-06 -2.5114734e-06 -1.3949293e-06
000250 8a ba 2c b7 10 7e 12 b6 d6 51 bf b6 9c 7c ad 36
       -1.0295431e-05 -2.1829073e-06 -5.7017705e-06 5.170308e-06
000260 52 d2 85 b6 c8 7d 33 b7 2d a7 44 37 78 12 2f b6
       -3.9881934e-06 -1.0698517e-05 1.1721434e-05 -2.6087782e-06
000270 dc b9 53 37 b3 5f 4c 36 bb 82 f6 35 fe 80 05 b6
       1.2619854e-05 3.0454073e-06 1.8366476e-06 -1.9893628e-06
000280 7b 61 1d b6 c7 40 d6 b6 ea 1f 93 b4 45 b4 b2 b6
       -2.3451564e-06 -6.385238e-06 -2.7404104e-07 -5.3257995e-06
000290 10 71 b4 36 ef 47 05 36 4e 7b a2 b6 61 35 e2 b5
       5.3775802e-06 1.9860415e-06 -4.842331e-06 -1.6853847e-06
0002a0 cf 25 5a b6 9e 0e 8e b6 43 b8 1c 36 75 35 95 b6
       -3.250654e-06 -4.2336314e-06 2.3353066e-06 -4.4467693e-06
0002b0 58 63 0d 37 8a 73 54 36 ce 60 10 36 21 10 4a b6
       8.427385e-06 3.1657714e-06 2.151402e-06 -3.0109734e-06
0002c0 2f ba cd b6 73 db 70 36 2d be 40 b6 82 ea e2 b6
       -6.1311507e-06 3.5890523e-06 -2.8720926e-06 -6.762625e-06
0002d0 2a 27 21 37 fa cf 2c 36 c4 ea 10 36 43 65 3f 36
       9.605466e-06 2.5751056e-06 2.1594324e-06 2.852016e-06
0002e0 39 f2 26 b6 f5 62 a8 b6 67 4c 26 36 5e a1 f9 b5
       -2.487692e-06 -5.0183103e-06 2.47804e-06 -1.859891e-06
0002f0 7c c7 ec b5 54 17 39 b6 74 d7 68 b6 85 cb 7a b6
       -1.7641428e-06 -2.7580727e-06 -3.4696104e-06 -3.7371367e-06
000300 db b8 0e 36 bc d2 04 36 c1 e9 a7 36 38 8b 0e 37
       2.126725e-06 1.9792196e-06 5.0042004e-06 8.496274e-06
000310 de 95 48 b6 cb cf 57 37 43 fb ea 36 12 11 4f 37
       -2.9889557e-06 1.2863379e-05 7.002994e-06 1.2342136e-05
000320 fe a2 5d 36 80 44 1d 36 a9 c1 28 b6 75 9e 14 b6
       3.302644e-06 2.3434695e-06 -2.5146676e-06 -2.2145953e-06
000330 f3 59 84 36 ab cb 57 37 fc a0 89 36 3a 6c 30 36
       3.944378e-06 1.2862419e-05 4.101659e-06 2.628904e-06
000340 2b ad b5 36 9f 62 2f 36 f0 8a 5f b6 15 a1 1d 36
       5.4143798e-06 2.6134437e-06 -3.3310462e-06 2.3488585e-06
000350 7d 58 14 36 a9 29 37 b7 d3 01 b8 b5 19 99 a9 36
       2.2105226e-06 -1.091735e-05 -1.3709599e-06 5.0544154e-06
000360 78 17 63 36 79 f5 6f b6 30 88 55 b7 62 a3 32 36
       3.3839297e-06 -3.575666e-06 -1.2727498e-05 2.6619168e-06
000370 d1 83 45 b6 65 46 57 37 60 cd 07 b6 43 26 14 36
       -2.9432015e-06 1.2831389e-05 -2.0236112e-06 2.207599e-06
000380 ba 18 73 36 14 d3 53 b7 29 60 2b b7 7e af f5 b6
       3.6224214e-06 -1.26257255e-05 -1.0214783e-05 -7.321999e-06
000390 3d 07 32 36 47 07 ca 35 35 01 1f b6 f7 f7 23 36
       2.652828e-06 1.5052291e-06 -2.369355e-06 2.4433227e-06
0003a0 04 a8 7a b6 15 c3 58 b6 65 83 23 b6 d5 32 81 36
       -3.73507e-06 -3.230006e-06 -2.4365374e-06 3.850417e-06
0003b0 be 84 0f b6 05 54 a9 b6 ed a2 5b b6 4c 0b 9f 36
       -2.1385927e-06 -5.0463736e-06 -3.2728378e-06 4.7398844e-06
0003c0 3d 61 0b b6 59 92 24 b6 a0 a4 15 b6 87 07 fa 35
       -2.0769214e-06 -2.452309e-06 -2.2298555e-06 1.8628642e-06
0003d0 b5 43 26 b6 fa 38 f1 36 f4 a8 42 b6 d0 12 51 b7
       -2.4775338e-06 7.1889926e-06 -2.9006596e-06 -1.2461751e-05
0003e0 d2 30 1b 36 4a bb 67 36 f4 d9 2f b7 01 b1 bf b6
       2.3125217e-06 3.45307e-06 -1.0481559e-05 -5.7128495e-06
0003f0 82 b3 b9 36 ba 88 f1 35 9d 47 ff 35 b0 f0 10 b6
       5.534327e-06 1.7995692e-06 1.9019823e-06 -2.159777e-06

b_classifier.q.0.bias f4 [128]
000000 17 b3 0d 36 38 94 b3 b6 e7 46 54 37 ef 07 41 b7
       2.1114881e-06 -5.3518706e-06 1.2652693e-05 -1.1505544e-05
000010 c0 48 54 b7 3c fd e9 b5 74 83 4e b7 85 f1 fd b5
       -1.2653123e-05 -1.7433554e-06 -1.2309163e-05 -1.892026e-06
000020 54 49 36 b7 f7 58 c7 b5 8d f8 b5 b5 6b d1 33 b6
       -1.0865118e-05 -1.4852548e-06 -1.3557889e-06 -2.6794976e-06
000030 94 07 5e 36 c3 c8 0b b7 33 b7 ca 36 b2 5d 38 37
       3.308499e-06 -8.331789e-06 6.0413963e-06 1.098907e-05
000040 de f0 d8 b5 8d ca 25 37 0a 98 14 b6 b4 2f e8 35
       -1.6163356e-06 9.881926e-06 -2.2142217e-06 1.729923e-06
000050 5d 99 e0 b6 b6 2c 85 35 e9 53 0b 37 92 6a 08 36
       -6.693574e-06 9.922285e-07 8.3045825e-06 2.0327611e-06
000060 7d 9a 48 b7 4c 94 06 37 5a cd 29 37 8e ab a3 36
       -1.1956899e-05 8.0215505e-06 1.0120997e-05 4.87775e-06
000070 fc 94 e8 36 99 e0 e5 35 e4 67 13 b6 e3 8b 14 36
       6.931483e-06 1.7127196e-06 -2.196518e-06 2.2135143e-06
000080 20 62 ac 36 38 90 b6 b6 30 0e 21 36 c5 4f 04 b6
       5.1374227e-06 -5.440812e-06 2.3999128e-06 -1.9715965e-06
000090 b1 e6 24 b7 c7 1c 01 36 73 ac 29 35 c0 67 36 b6
       -9.828874e-06 1.9239249e-06 6.320835e-07 -2.7180504e-06
0000a0 36 14 a7 34 61 0a 7d 36 d8 7b 09 36 89 b3 40 36
       3.112088e-07 3.770598e-06 2.0486677e-06 2.8714733e-06
0000b0 f7 5e 57 37 75 ce b7 35 44 04 ea b5 ed 3b 77 b6
       1.2837109e-05 1.3694649e-06 -1.74356e-06 -3.684075e-06
0000c0 b8 12 34 b7 dd 1c d4 35 a0 f1 56 37 15 18 a3 35
       -1.0733194e-05 1.5803631e-06 1.2811652e-05 1.2151455e-06
0000d0 0f 7a dc b6 0c 01 2b 37 38 1d 32 b7 1f 17 20 b7
       -6.5707204e-06 1.0192638e-05 -1.061643e-05 -9.5421265e-06
0000e0 22 3c 0c b7 51 ee 9e 36 c6 ab 3d b7 6b c8 25 36
       -8.358651e-06 4.7365106e-06 -1.1305272e-05 2.4703575e-06
0000f0 a8 cb 37 36 3c 37 02 b7 3b c7 a1 b5 af aa 2e 36
       2.7387669e-06 -7.761464e-06 -1.2053418e-06 2.6027371e-06
000100 ad 17 51 b7 18 2a 07 b7 3b 50 6e 36 cb a6 ea b5
       -1.2462883e-05 -8.056428e-06 3.5511464e-06 -1.7482902e-06
000110 35 d9 06 b7 95 91 42 37 77 f1 f2 36 8f ed 45 37
       -8.037595e-06 1.1597197e-05 7.240272e-06 1.1797426e-05
000120 1f 93 00 36 1e cb cd b6 90 84 0b b6 48 34 53 37
       1.9159122e-06 -6.133122e-06 -2.0789776e-06 1.2588753e-05
000130 8d 3e c6 35 cb e1 40 37 26 1d 1a b7 69 ba db 35
       1.4770354e-06 1.1496663e-05 -9.185902e-06 1.6371024e-06
000140 26 b9 63 b6 ac 4d 05 b6 d0 ac 04 36 99 23 05 b7
       -3.3933406e-06 -1.9863755e-06 1.9770123e-06 -7.935706e-06
000150 2f 1d 98 b5 30 54 15 b7 7c 8b 4b b7 16 38 92 36
       -1.1333376e-06 -8.9006935e-06 -1.2132219e-05 4.3576683e-06
000160 d2 41 1f 36 cb 51 1a 37 e7 b7 22 37 c4 5f 60 b6
       2.3731159e-06 9.198159e-06 9.698771e-06 -3.3434344e-06
000170 3d de 77 b5 ad 41 19 b6 c9 14 56 b7 0b dd 35 37
       -9.233807e-07 -2.2837005e-06 -1.2760233e-05 1.0839906e-05
000180 3e 81 15 b6 11 73 31 b7 7f 24 c1 36 0c 19 15 b6
       -2.227796e-06 -1.0576813e-05 5.756097e-06 -2.221731e-06
000190 03 1d e2 b6 56 03 49 b7 dc c6 16 37 53 87 28 b6
       -6.7387023e-06 -1.198131e-05 8.986997e-06 -2.511272e-06
0001a0 59 bf d8 36 a0 08 a5 36 5a fe d8 35 c1 d6 0a 37
       6.4595774e-06 4.9183873e-06 1.616728e-06 8.275442e-06
0001b0 14 f0 4c b5 78 9f ee b5 f5 cc 57 b7 16 95 b0 35
       -7.634528e-07 -1.7778793e-06 -1.2862719e-05 1.3156412e-06
0001c0 0c 2e 57 b6 b1 2a 85 35 a4 17 38 b6 8d 92 01 36
       -3.20643e-06 9.921697e-07 -2.7431897e-06 1.9307802e-06
0001d0 41 28 45 37 04 c7 36 36 2b 8b 0b 36 96 6f 52 36
       1.1751487e-05 2.7235956e-06 2.079362e-06 3.135739e-06
0001e0 fa 85 4d b7 25 97 dd b5 61 0e 02 b7 93 0a 78 35
       -1.2250146e-05 -1.6509772e-06 -7.751952e-06 9.2402587e-07
0001f0 e2 bb 85 36 9f f0 1c 37 ca b2 e4 35 17 80 55 37
       3.9855813e-06 9.354349e-06 1.7039358e-06 1.2725613e-05

b_classifier.q.2.weight f4 [128, 128]
000000 c9 f8 2d b7 bf c9 f7 b5 d8 c5 23 35 9b e4 08 37
       -1.0369528e-05 -1.846165e-06 6.101013e-07 8.159458e-06
000010 63 91 e9 35 2d fa 98 36 5e 03 2a 36 8d a4 7e b6
       1.7402166e-06 4.5590773e-06 2.5333934e-06 -3.794473e-06
000020 2c 1c d2 36 22 ea 08 36 35 ce 31 36 3a a4 e4 35
       6.2617673e-06 2.0401862e-06 2.6495084e-06 1.703512e-06
000030 e5 4f e3 35 f6 80 53 b6 54 28 cb b6 77 86 7b 35
       1.693607e-06 -3.1516515e-06 -6.0545663e-06 9.370046e-07
000040 c9 80 57 b7 e6 68 38 b3 d2 5e 7f 36 05 c7 ef b5
       -1.2844984e-05 -4.2936243e-08 3.8053154e-06 -1.786481e-06
000050 20 5e 08 37 62 aa cf 35 37 1f f1 b5 95 21 fe 35
       8.128147e-06 1.547229e-06 -1.7964984e-06 1.8934248e-06
000060 2c a7 d5 b4 f6 23 6f 36 2e 5b 43 37 19 83 22 b7
       -3.9795975e-07 3.5634707e-06 1.1644135e-05 -9.686476e-06
000070 10 d5 cc b6 f2 82 42 37 fd 7f 0e 37 19 0d 1c b7
       -6.1044775e-06 1.1593789e-05 8.493659e-06 -9.301374e-06
000080 28 55 0c 36 36 3b 05 36 29 6a fb b5 57 b2 15 36
       2.0911193e-06 1.985301e-06 -1.8731854e-06 2.2306538e-06
000090 83 fe 97 33 28 bd c2 36 57 2c 38 b6 ce 9c 39 b6
       7.077781e-08 5.8036712e-06 -2.7443946e-06 -2.765842e-06
0000a0 3e 48 32 37 f6 fb dd b6 d0 16 f4 35 d8 bd bd 35
       1.0626447e-05 -6.6156454e-06 1.8186056e-06 1.4136849e-06
0000b0 ef 3d 01 b6 f4 e7 1a 36 a6 c1 57 37 2d e0 15 36
       -1.9258548e-06 2.3082803e-06 1.2860086e-05 2.2333218e-06
0000c0 f2 29 91 b6 89 00 0c 36 9f 5c 0f 36 31 be 8f 36
       -4.32622e-06 2.0861937e-06 2.1362573e-06 4.2838733e-06
0000d0 6e 20 31 37 84 c2 d5 b5 54 44 c0 b6 42 b5 3b 37
       1.0557573e-05 -1.5926348e-06 -5.7300003e-06 1.1188271e-05
0000e0 b2 ff 74 36 1b 69 fd 35 d3 bb 1f b6 ac 94 35 37
       3.6507668e-06 1.8880559e-06 -2.3802174e-06 1.0823056e-05
0000f0 d1 53 f6 b5 31 e2 bc 35 e9 2a a6 36 68 70 dd 36
       -1.8352822e-06 1.4072922e-06 4.952181e-06 6.599399e-06
000100 4f c8 e8 36 3f b0 ec 35 b4 1e 08 b6 bf 5a 19 b6
       6.937458e-06 1.7634665e-06 -2.028345e-06 -2.2851598e-06
000110 79 90 e9 36 8b 01 ea b5 53 aa 0b 33 e0 80 d5 35
       6.96076e-06 -1.7434808e-06 3.251837e-08 1.5907244e-06
000120 d5 89 83 b6 6d b4 1d 35 de 3c f6 36 b7 91 52 37
       -3.92015e-06 5.874961e-07 7.338457e-06 1.2550902e-05
000130 45 9e 0c b6 16 19 e1 36 e1 d5 29 b7 ef 40 03 36
       -2.095375e-06 6.708443e-06 -1.01229825e-05 1.9558317e-06
000140 50 70 05 b6 26 af 34 36 9a 1c ee b5 ef 67 45 b7
       -1.988392e-06 2.692404e-06 -1.7740706e-06 -1.1766314e-05
000150 0e 6c 05 37 7e 17 6f 36 fb e1 4d 37 31 a4 00 36
       7.952576e-06 3.562745e-06 1.2271567e-05 1.9169058e-06
000160 50 fe de 36 d7 c5 b6 36 0b 43 0c b6 5f 3a 0f b6
       6.6457214e-06 5.4470543e-06 -2.090065e-06 -2.1342637e-06
000170 ae ad 98 35 8c dd 23 b6 a0 7d 60 35 5d 64 f2 36
       1.137543e-06 -2.441785e-06 8.362931e-07 7.223846e-06
000180 57 4b 97 b5 1d ca c7 35 0e 41 e1 b6 30 eb 18 b6
       -1.1272303e-06 1.4885478e-06 -6.713096e-06 -2.2786662e-06
000190 55 e8 80 b6 c7 82 f0 b5 b6 a5 5a 36 ee 03 5a 36
       -3.8417443e-06 -1.7919455e-06 3.2580988e-06 3.2486819e-06
0001a0 7b 30 cd b5 82 f5 88 36 6e 93 da b4 51 a3 1c b7
       -1.52878e-06 4.0816967e-06 -4.0712933e-07 -9.33635e-06
0001b0 4e dc 0a 37 9d 8b 0d b6 9c a5 19 36 3e 2e f0 b6
       8.276735e-06 -2.1091903e-06 2.2895174e-06 -7.1579407e-06
0001c0 3e 38 58 b6 3a 04 6b 36 70 1a c9 35 82 c7 33 b6
       -3.2219245e-06 3.502019e-06 1.4983361e-06 -2.6789207e-06
0001d0 16 dd 1a b7 78 e0 ae 36 f1 c2 06 b7 15 80 a7 36
       -9.230591e-06 5.2117357e-06 -8.032411e-06 4.9918985e-06
0001e0 d2 cd 8a 36 67 38 57 37 ad fc 20 36 90 41 10 36
       4.136681e-06 1.2828131e-05 2.3988935e-06 2.1495835e-06
0001f0 de 72 d2 36 30 3c 34 36 a5 96 cc 36 de b6 28 36
       6.27186e-06 2.6857124e-06 6.097211e-06 2.5140394e-06
000200 35 ff 2b b6 4f ea a5 35 81 2e 73 36 44 43 9c b6
       -2.5629536e-06 1.2361651e-06 3.623689e-06 -4.656993e-06
000210 08 e2 53 35 7f 5f dd b5 2c b7 57 37 e9 b3 8f b6
       7.8932544e-07 -1.6493576e-06 1.2857647e-05 -4.2826764e-06
000220 bc fd 67 36 61 44 6f b6 94 fd 9c b5 4b f5 73 b6
       3.4569375e-06 -3.5653577e-06 -1.1696707e-06 -3.63526e-06
000230 0d 54 4a 37 05 0c e4 b6 95 7f 54 b7 f7 dd ca b6
       1.2059708e-05 -6.7963288e-06 -1.266589e-05 -6.0459092e-06
000240 80 3f 18 37 73 c3 02 b6 63 10 d5 35 0e b1 07 b7
       9.074691e-06 -1.9485276e-06 1.5874506e-06 -8.087851e-06
000250 61 3b 92 b6 bd 7a 99 b5 62 c5 75 36 78 b2 0b b7
       -4.3580517e-06 -1.143511e-06 3.6622737e-06 -8.326599e-06
000260 0e 4c 07 b7 5a f9 fe 35 db 88 3c b7 fd e0 37 b7
       -8.064335e-06 1.8997046e-06 -1.1237537e-05 -1.0960034e-05
000270 ca c2 01 37 15 58 40 b7 64 01 21 b5 5a 81 55 b7
       7.734352e-06 -1.14646e-05 -5.99792e-07 -1.2725906e-05
000280 d5 e0 84 b4 20 4e 51 b4 f6 d6 80 b6 77 fd 09 b6
       -2.4750503e-07 -1.9493064e-07 -3.839722e-06 -2.0562127e-06
000290 59 74 a3 b6 8c ea 12 37 5d 31 d2 b6 94 81 13 37
       -4.871323e-06 8.756888e-06 -6.2642343e-06 8.7920525e-06
0002a0 08 4d a1 35 44 54 8f b5 33 a8 65 35 57 52 64 b6
       1.2017854e-06 -1.0678855e-06 8.555391e-07 -3.4022576e-06
0002b0 d2 08 53 37 06 45 f8 36 39 4e 04 b6 69 c6 50 b7
       1.2578634e-05 7.3990113e-06 -1.9715064e-06 -1.2443962e-05
0002c0 b1 0c 40 37 65 ec 4d 37 62 5d 55 b7 c9 f0 c1 36
       1.1447047e-05 1.2273992e-05 -1.2717532e-05 5.7798793e-06
0002d0 6b 42 ce b6 8f 13 07 36 e0 8a a5 36 42 87 21 b6
       -6.1470105e-06 2.0127952e-06 4.9335504e-06 -2.40696e-06
0002e0 05 da 47 37 02 a6 3d b7 8b 7f d4 b6 94 0b 10 36
       1.1912086e-05 -1.130393e-05 -6.3329403e-06 2.1464411e-06
0002f0 63 e3 9e 36 34 c2 98 35 05 8a 3d b7 a8 d5 3c b6
       4.7352382e-06 1.1381403e-06 -1.1297413e-05 -2.8138547e-06
000300 ad 77 05 36 b7 9e 59 b6 84 f2 4d b7 bf 6c 51 b7
       1.9888205e-06 -3.2427904e-06 -1.2275417e-05 -1.248269e-05
000310 38 16 51 b6 ee 4b 8c b6 c9 66 0e b6 78 02 4d 36
       -3.115636e-06 -4.1811645e-06 -2.1219478e-06 3.0548817e-06
000320 dd d7 41 b7 5f d7 95 36 14 b4 3e 37 85 5b 70 b6
       -1.1553956e-05 4.4656185e-06 1.136681e-05 -3.5816058e-06
000330 17 c8 11 b6 f6 49 bf b6 ca 07 99 b6 fb 7d 02 b6
       -2.1723151e-06 -5.7008538e-06 -4.560662e-06 -1.944484e-06
000340 0a 26 c2 36 52 46 da 36 9b b6 c1 35 77 ea f2 b5
       5.786079e-06 6.5050926e-06 1.4432766e-06 -1.8098643e-06
000350 20 c2 e2 b6 f4 09 90 b6 9d 90 02 b7 95 19 46 35
       -6.757924e-06 -4.292693e-06 -7.782274e-06 7.3797975e-07
000360 06 25 e8 36 c4 cf 8a b5 6e 8c 0d b7 81 c8 2a 37
       6.918449e-06 -1.0342269e-06 -8.436951e-06 1.0179473e-05
000370 9b a9 37 37 6f 43 57 b7 af c2 4b 37 63 71 63 35
       1.0947139e-05 -1.2830699e-05 1.2145071e-05 8.472909e-07
000380 e2 17 42 b5 b5 2c fe 36 9b de 5c b4 26 bc 9a b5
       -7.2305386e-07 7.5749945e-06 -2.057008e-07 -1.1528653e-06
000390 6e 26 b2 36 5e e5 18 b6 35 2d 34 37 db 44 55 b7
       5.309287e-06 -2.2783274e-06 1.0739362e-05 -1.2711821e-05
0003a0 47 74 b8 b5 2a 3c 59 36 5f 60 4d 37 0f c1 f1 b5
       -1.374291e-06 3.237054e-06 1.224139e-05 -1.8012087e-06
0003b0 33 ba 2d 37 62 6f 0e 37 c2 97 05 b7 2c df 97 35
       1.0354956e-05 8.489793e-06 -7.962752e-06 1.1315328e-06
0003c0 82 13 8e b6 32 ec bf 35 33 a9 c9 b5 3c 4f 54 37
       -4.234201e-06 1.4299351e-06 -1.502491e-06 1.2654633e-05
0003d0 fe 1b f1 35 ff 19 ca 35 6e ae 55 b7 7d 69 2f b7
       1.7964046e-06 1.5057739e-06 -1.2736402e-05 -1.0455374e-05
0003e0 a2 26 08 b6 c3 40 0c b6 a8 76 66 b6 75 13 55 37
       -2.0288066e-06 -2.0899322e-06 -3.4341738e-06 1.27003195e-05
0003f0 44 f5 4b 37 0b d0 26 36 24 11 8c 36 ce 1f 37 b7
       1.2156848e-05 2.4857025e-06 4.1743206e-06 -1.0915055e-05

b_classifier.q.2.bias f4 [128]
000000 7a 49 0b 36 9c 87 b9 b6 29 0c 1b 36 fb 00 27 b7
       2.0755383e-06 -5.5292167e-06 2.3103878e-06 -9.954204e-06
000010 2b 13 23 37 e2 46 17 b7 50 1f 13 37 26 71 30 37
       9.72002e-06 -9.016805e-06 8.769173e-06 1.0516762e-05
000020 24 2a 40 b7 82 11 25 b7 05 fa 77 36 1b 4d 2e b7
       -1.1453903e-05 -9.838843e-06 3.6951399e-06 -1.0389161e-05
000030 52 9c f3 b6 e6 84 c4 b5 16 0d 5c 36 94 1a f9 35
       -7.2601624e-06 -1.4641817e-06 3.2790172e-06 1.8559681e-06
000040 1b a2 9a b5 50 a7 0a b6 11 d6 22 b6 9b 45 58 b7
       -1.1521073e-06 -2.0660991e-06 -2.4264484e-06 -1.289081e-05
000050 e2 40 09 b6 37 33 4c b6 e5 8c b4 b6 2b ec c0 b5
       -2.0452358e-06 -3.042818e-06 -5.3808203e-06 -1.4373849e-06
000060 91 f9 32 37 f0 c4 09 b6 2d 0c 1c b6 ce f5 d3 b5
       1.06677335e-05 -2.0529224e-06 -2.3252899e-06 -1.5792264e-06
000070 6a 69 30 37 79 02 04 37 07 d9 50 37 34 e8 c2 35
       1.0514961e-05 7.868389e-06 1.2448297e-05 1.4521706e-06
000080 d1 88 d5 35 6e b1 10 b5 3a fc a0 35 52 79 cc 35
       1.5909555e-06 -5.3902374e-07 1.1994337e-06 1.5234493e-06
000090 3f 39 36 b6 e2 50 1b 36 0f 84 ed b5 84 65 f2 b5
       -2.7153435e-06 2.314388e-06 -1.769631e-06 -1.805995e-06
0000a0 c3 05 b1 35 b2 b3 c6 b5 96 4c e9 b6 f5 2f 36 b7
       1.3189205e-06 -1.4804448e-06 -6.952857e-06 -1.0859211e-05
0000b0 9f 05 ed b5 e9 84 f6 36 b4 51 a2 b5 48 83 4f b7
       -1.7659512e-06 7.346844e-06 -1.2093719e-06 -1.2368728e-05
0000c0 68 0f fd b5 43 84 b9 35 04 d3 8a 36 fd 12 7e b6
       -1.8854453e-06 1.3822067e-06 4.137286e-06 -3.7860002e-06
0000d0 87 b7 c0 36 98 a3 dd 36 36 8c 00 b6 47 1b 53 b7
       5.7434113e-06 6.605358e-06 -1.91551e-06 -1.2582931e-05
0000e0 0b 2c 24 b6 37 20 46 b6 2e f2 36 b7 40 65 53 37
       -2.446354e-06 -2.952305e-06 -1.0904432e-05 1.2600154e-05
0000f0 f3 7f a3 b5 bd 5f 01 36 e4 df fd 36 a5 d0 e3 35
       -1.2181684e-06 1.9278225e-06 7.566052e-06 1.6973542e-06
000100 39 3d 38 37 5e 6b 6f b6 e2 96 e4 34 bd c4 04 36
       1.0981509e-05 -3.5676271e-06 4.257809e-07 1.978405e-06
000110 13 73 ec 35 55 9f 55 37 1f 0e 8d 36 be ec 69 36
       1.7616861e-06 1.2732887e-05 4.2037714e-06 3.4857508e-06
000120 94 90 54 36 04 6e ab b6 23 f3 1b 37 43 73 ef b5
       3.1674617e-06 -5.1090046e-06 9.29533e-06 -1.7840433e-06
000130 78 3f 9f 36 2a e0 91 36 75 c2 92 35 cc 09 08 36
       4.745958e-06 4.347433e-06 1.0934442e-06 2.0271282e-06
000140 c4 e1 91 b5 da 74 a4 b6 11 02 0e b7 11 5d 53 b7
       -1.0869048e-06 -4.901184e-06 -8.464341e-06 -1.2598249e-05
000150 08 7f 2e b6 64 ed 4c b7 62 22 b1 b5 02 e0 4d 37
       -2.6001962e-06 -1.2214619e-05 -1.3197534e-06 1.2271108e-05
000160 92 16 1e 35 e4 b6 52 b5 da 94 56 b7 dd 5f dc 35
       5.889243e-07 -7.8497237e-07 -1.2790051e-05 1.6419177e-06
000170 1d bf 45 b7 6f ff 85 36 d0 ba 11 36 a3 ea 2a b5
       -1.1786612e-05 3.9934453e-06 2.1715423e-06 -6.3671376e-07
000180 2a 86 99 b5 ae c0 49 37 d5 80 db 36 2d a3 3b b6
       -1.1438435e-06 1.2025395e-05 6.5417066e-06 -2.7960152e-06
000190 0e be 1b 36 80 5e 11 36 ab cc 49 b7 46 de 29 b6
       2.3207426e-06 2.166169e-06 -1.2028187e-05 -2.5312343e-06
0001a0 25 c1 7f 36 7e 96 4b 37 83 b0 0b 37 57 45 12 b6
       3.8110386e-06 1.2134782e-05 8.326143e-06 -2.1796056e-06
0001b0 1e 0a aa 35 a3 ea 1c 37 5b e2 4f b7 b7 ae 01 b6
       1.2668932e-06 9.352955e-06 -1.2390864e-05 -1.9324195e-06
0001c0 a0 98 51 36 f5 2c 7d b5 b6 59 08 37 93 14 c1 b5
       3.1232266e-06 -9.4315266e-07 8.127119e-06 -1.4385608e-06
0001d0 c1 56 93 b5 f1 1f 09 b5 73 bf c2 b5 d2 6e 33 35
       -1.0977602e-06 -5.108296e-07 -1.4509845e-06 6.684396e-07
0001e0 e0 b0 3f b7 ef ee 26 b7 67 db af b6 11 69 4e b7
       -1.1425669e-05 -9.950002e-06 -5.240948e-06 -1.23030195e-05
0001f0 4a 2c 17 37 ec 0b a1 35 f6 75 ea 35 61 7a ca b6
       9.010613e-06 1.1998904e-06 1.746869e-06 -6.034316e-06

b_classifier.fcc.weight f4 [2, 2, 768]
000000 55 21 04 bd 59 eb 1b bd d6 04 00 3c 29 89 f9 3b
       -0.03225835 -0.038066242 0.007813653 0.0076152277
000010 b5 7f 45 bd d0 0e fd 3c 7e ae 85 3c b7 6a c5 3c
       -0.048217494 0.030890852 0.016318556 0.024098737
000020 7c cb 33 bd 53 a5 8c 3b 20 33 ae bc 9c 37 b0 3c
       -0.04389523 0.004292169 -0.021264613 0.021510892
000030 cc 9b 36 3c 63 64 9d bc b4 ed 03 3d 00 0b 8b 3c
       0.011145543 -0.019212907 0.032209113 0.016973019
000040 9b c2 b6 bc 58 f1 62 bb b2 41 d3 bc ac d1 0e 3c
       -0.022309592 -0.0034628715 -0.025788162 0.008716982
000050 3d 3d ff 3c ac cc b1 3c 47 43 97 3b b4 62 bd bc
       0.03115713 0.02170404 0.0046161744 -0.023118354
000060 2b 7c 49 bd 18 9e 1a bc 5f d4 25 bc e6 8f 9c bc
       -0.04919068 -0.009437107 -0.010121434 -0.019111585
000070 cd 05 b8 3c a3 86 71 bc fa bd 1e bd b3 a4 00 bd
       0.022463704 -0.014741573 -0.038755395 -0.03140707
000080 3c 30 03 3d ae 84 2f 3c f4 ed a6 3b 98 1b 14 3b
       0.03202842 0.010712786 0.005094284 0.0022599455
000090 fb 88 42 bc 91 d6 cd 3b 82 31 61 bb 08 5d ed ba
       -0.011873479 0.006281682 -0.0034361784 -0.001810939
0000a0 65 a9 69 3b d3 93 0b bd 5d 87 ca 3b 72 a7 71 bc
       0.0035653946 -0.034076523 0.0061806873 -0.014749395
0000b0 5f bb 24 bd db 9f 9f ba ab 32 a6 3b 74 90 18 3d
       -0.040217753 -0.0012178378 0.005071958 0.037247136
0000c0 c4 ab ec bc 9a eb 0e 3d 2f 91 d4 bc 65 28 a8 3b
       -0.028890498 0.034892656 -0.025948135 0.0051317685
0000d0 d1 73 32 bc 25 17 ff bc b0 31 14 bd 8c 13 93 3c
       -0.010891871 -0.031138966 -0.0361802 0.017953657
0000e0 55 83 00 bd 37 0c a1 3c f5 d3 17 3d 94 00 d9 bc
       -0.031375248 0.019659145 0.037067372 -0.026489533
0000f0 58 ea 48 bc 26 de e6 bc 28 a8 c2 3c 3e fd 9a 3c
       -0.012262903 -0.0281821 0.023761824 0.018919583
000100 53 a6 53 bc 95 01 11 bd 41 c7 95 bb a2 94 56 bd
       -0.012918073 -0.0354019 -0.004570872 -0.05238784
000110 a7 4a be bc c9 23 40 bb 7d 73 69 3b 97 fa 24 3d
       -0.023228956 -0.0029318205 0.0035621815 0.040278044
000120 c1 bd 3f 3c 4c 91 48 3d fc 28 87 3c 78 85 8c bc
       0.011702956 0.04896669 0.016499035 -0.017153487
000130 97 b2 a6 bc cd 93 be 3a 28 12 60 3c 35 80 ca 3c
       -0.02034883 0.0014539898 0.013676204 0.024719337
000140 87 a2 36 3c ff d1 27 3c 33 7b 2b bb 3a b9 79 bb
       0.011147148 0.010242938 -0.0026165962 -0.0038104788
000150 6a 6a 71 3d 02 33 9e 3c b7 94 75 bc 18 e9 98 3c
       0.058939375 0.019311432 -0.01498907 0.018665835
000160 00 dc b5 bc 82 9f 14 bc 06 d4 b9 3a c7 83 17 bd
       -0.02219963 -0.009071233 0.0014177568 -0.036990907
000170 89 0c b1 3b 8b 5d f8 3c 6e a6 82 bc 6b c2 f2 3b
       0.0054031056 0.030318042 -0.0159485 0.0074084303
000180 16 b0 9d bc c8 69 af bd 0c 6b 06 bd dc f5 56 bc
       -0.019249003 -0.08565098 -0.03281693 -0.013120141
000190 84 da 0b bc a7 77 01 bc a2 9f 2a 3b 10 07 f1 bb
       -0.008535985 -0.0079020625 0.002603509 -0.0073555782
0001a0 3d 4e 13 3d bd 3c 1d bc 72 83 a4 bc 24 3c a5 3b
       0.035963286 -0.009597001 -0.02008221 0.0050425697
0001b0 bb 17 cc bc 3c 00 79 3b 86 54 9e 3c 2f 8a 07 bd
       -0.02491366 0.0037994524 0.019327413 -0.033090767
0001c0 77 28 79 3c 3e 58 e9 3c ca 78 7c bd 0f 17 7e bd
       0.0152074015 0.02848446 -0.06163863 -0.06203371
0001d0 ba 9e ab bc a5 f8 3c bd d4 c8 4b 3d 13 c9 38 3b
       -0.02094971 -0.046135563 0.04975207 0.0028196021
0001e0 33 2e 00 bd 50 25 bf 3c 3d 77 d5 3c a4 dc af bc
       -0.03129406 0.023333222 0.026057834 -0.021467514
0001f0 be c4 07 bc f2 2a 7f ba d1 be 06 bb 0c 95 0a 3d
       -0.008286653 -0.00097338774 -0.0020560513 0.03383355
000200 7e 9b a9 bc 2d ea 3a 3c 26 e7 2e 3d ca 09 43 bd
       -0.020704027 0.011408371 0.04270091 -0.047616757
000210 13 d8 9e bc 34 5c a5 bb 0c cf 5f 3d bb 31 69 bc
       -0.019390142 -0.005046392 0.054640815 -0.014233048
000220 b1 1e 7a bc ef 5f 56 3c 07 dc 9f bb 06 b2 dd 3c
       -0.015266106 0.013084396 -0.004878524 0.027062427
000230 6d 88 94 3c 05 30 68 3c d1 e7 a0 bc 5a 19 c5 bb
       0.01813146 0.014171605 -0.019641789 -0.006014985
000240 68 bf 3f 3c 0f 0c 25 3c 3c df df bc 27 67 7a bc
       0.01170335 0.010073676 -0.027328126 -0.0152833825
000250 e5 f2 9e 3c b5 ac 21 bc bd cb cb 3c 68 d4 a9 bc
       0.01940293 -0.009867837 0.024877423 -0.020731166
000260 6d fd 92 3a f9 c4 e6 3c e9 44 14 bd 26 c6 75 3c
       0.0011214443 0.028170096 -0.03619853 0.015000856
000270 ee 33 8b bc 9f 38 a2 bb 7c b3 bb bb 93 b0 21 bc
       -0.016992535 -0.0049505974 -0.0057281833 -0.009868759
000280 23 88 8c 3b 99 0a 0e bd d2 d9 81 bc f4 75 cf 3b
       0.0042886897 -0.034678075 -0.015850935 0.0063312
000290 b0 4d 4a 3d 91 ce 7d 3d 69 23 02 bc cd 5a b8 3b
       0.049390495 0.061964575 -0.007943013 0.0056260587
0002a0 60 32 aa 3c 4c 14 f9 3c f9 73 c0 3b 13 69 9f bc
       0.020775974 0.030405186 0.0058732 -0.019459283
0002b0 d5 8d cc 3c b3 93 c8 3c a7 cb f7 bc cf 12 1e bd
       0.024969975 0.024484491 -0.030248476 -0.038592156
0002c0 d3 66 22 3d 76 a3 33 3c e5 3d a3 3c f6 c5 96 bb
       0.039648842 0.010964265 0.019926975 -0.0046012355
0002d0 6b 1f 35 bd 8b a4 b5 3c 8f 1e cd 3c cf d8 17 bd
       -0.044219416 0.022173187 0.025038986 -0.037072
0002e0 d1 8a 3a bd ec 19 50 3d 16 91 32 bb c2 a4 ff 3c
       -0.045542542 0.05080597 -0.0027247122 0.031206492
0002f0 2d 69 1a bb df 3c 06 3d 17 85 92 3b 1e e0 18 bd
       -0.0023561225 0.032772895 0.004471432 -0.03732311
000300 0d ef 01 3d f5 8e 1c bc e0 43 e2 3c b6 d8 24 3a
       0.031722117 -0.009555568 0.027620256 0.0006288396
000310 a0 cc 94 ba 40 34 fc 3c 4c c6 d8 ba 1b 1d 25 bc
       -0.0011352487 0.030786633 -0.0016538589 -0.01007774
000320 49 ff 6a 3d 63 23 5c 3c 77 cd eb ba 1d c5 56 bd
       0.057372365 0.013436171 -0.001799031 -0.052434076
000330 bd 2b 28 3d ef 44 25 bd 2e 96 a6 bb cd f0 5c bc
       0.041057337 -0.040348943 -0.005083821 -0.013485146
000340 04 86 20 bd e3 4e b5 bc 0e bb 20 ba 47 98 10 3d
       -0.039190307 -0.022132343 -0.0006131389 0.035301473
000350 7f fc e8 ba 77 bd df 3c 37 a7 d9 3b 46 e2 28 3c
       -0.0017775445 0.027312024 0.006642248 0.010307854
000360 a2 6e 6c bc 7a 1b 1a 3b 01 d8 78 bc 5d 9c b0 bb
       -0.014430674 0.0023514912 -0.015188218 -0.0053897337
000370 01 99 98 bc c8 d5 89 3c 72 a9 2e bd f8 cc 4d bb
       -0.018627645 0.016825572 -0.042642064 -0.0031402688
000380 08 e3 02 3d c9 e5 24 bc b5 eb 01 3d d6 cd 16 3d
       0.031954795 -0.010064551 0.03171893 0.036817394
000390 11 e1 62 bc 0c 4b 4c 3b 58 20 c1 bc 5e 8b 4a 3b
       -0.013847605 0.003117266 -0.023574993 0.0030905823
0003a0 76 e4 e1 bc a8 53 f6 bb 7a 93 32 3c 07 c6 87 bc
       -0.027574759 -0.007517297 0.010899419 -0.016573919
0003b0 a4 af 0c bd 24 68 ce 3c 57 3e ce 3c 92 2f 0b bd
       -0.03434719 0.025196142 0.02517621 -0.033980913
0003c0 f6 ce b5 bc e3 9e 98 bc 23 7d 92 3b 00 8c f0 bb
       -0.022193413 -0.01863045 0.004470484 -0.007340908
0003d0 a4 ea 98 bc 9a 75 57 bc 55 fe ab 3b 5c 1d ec 3b
       -0.018666573 -0.013150597 0.0052488246 0.0072056483
0003e0 db 3c 88 3c d1 b4 83 bc 1f 4a 84 3c da fb fe bc
       0.01663058 -0.01607743 0.016148625 -0.031125952
0003f0 c1 2b 45 3c 26 55 07 3d 32 55 27 3c e7 54 2a bd
       0.0120343575 0.03304019 0.010213183 -0.041584875

b_classifier.fcc.bias f4 [2]
000000 d0 15 e9 bb 68 d5 05 3c
       -0.007113196 0.008168556
