mil/weights/20241120/fold_4_6.pth (torch, 481804 bytes, 8 tensors)

i_classifier.fc.0.weight f4 [2, 768]
0.015920905 -0.0067383484 0.031484216 0.056075253 -0.0025213629 -0.022037812 0.05350736 -0.044791505
0.00033836413 -0.036030535 -0.03637365 -0.012319103 0.0017350308 -0.06646039 -0.017127583 0.004657344
0.051713537 -0.02924613 0.044488527 0.029147975 0.016573355 -0.0670394 -0.037687555 -0.010024821
-0.050363895 -0.09915702 0.024840655 -0.039181598 0.06034203 0.035772156 0.06860229 -0.030745791
-0.012594685 -0.019846812 0.018349795 0.024963303 0.044434775 0.005069376 -0.029204438 0.024026217
0.03678557 0.049807698 -0.008896849 0.07651965 0.07349046 0.009927033 -0.010741016 -0.009056967
0.049462765 0.021791512 -0.016352763 -0.006718135 0.011033263 0.029638423 0.039571498 0.028480643
-0.013524335 0.036947828 0.019438779 0.053425584 -0.05380024 0.01372441 0.0046966355 -0.042288687
0.018359477 -0.07629537 -0.004452807 -0.025778558 0.00906357 0.022163823 -0.056551415 -0.006530421
-0.041225467 -0.020239988 -0.08686744 -0.0072271028 -0.009764392 -0.03506317 -0.013999506 0.022261465
0.023192098 0.05876085 -0.032631207 0.016684227 -0.059856832 -0.012552661 0.026813777 0.049322534
0.061475385 -0.031186188 0.027154269 -0.026628707 -0.01757465 -0.07676639 -0.016147893 0.006878998
-0.06294455 0.01891111 0.0049253595 -0.08810571 -0.0026215834 0.051872935 -0.018281832 0.07342442
0.004939518 -0.045273356 -0.02006658 0.024396097 -0.006308916 0.009545708 -0.019249624 -0.09016026
-0.030827846 0.005277631 0.0015219881 -0.009711876 0.029157672 0.009321211 0.03691587 0.02504534
-0.04516267 0.029320832 -0.015631702 -0.011121294 0.017022349 -0.022229414 -0.051995777 0.011253975
0.09089246 -0.024587248 -0.031353846 0.003688682 0.061996885 -0.036746025 -0.03514419 -0.006768361
0.041231908 -0.051572356 0.008486266 -0.02846073 -0.0055038603 -0.038267337 -0.048884097 0.006068475
-0.06534638 -0.05088333 0.017734835 -0.07526595 -0.005377512 -0.05049816 0.072947346 -0.077131286
-0.020278323 0.021450082 0.006399317 0.008626714 -0.008581416 -0.004467239 0.007465052 0.00038311933
0.024550484 0.026076375 0.008404679 0.038337003 -0.0074030748 0.07545528 0.003703769 -0.030625764
-0.033629686 0.045223907 0.03221733 0.027663445 -0.018725932 -0.012471085 0.02297975 -0.0002899341
0.0002486427 0.022412218 -0.0001298587 0.0030355712 -0.013201132 -0.08287029 -0.0619395 0.031555813
-0.01721357 0.019503115 -0.037013233 -0.0002524717 0.03369407 -0.028588593 -0.06509296 0.05584321
0.00495257 0.00030730336 -0.024564186 -0.02946157 -0.0119050285 -0.0008859979 0.024005938 -0.031280477
0.053125985 -0.014790798 -0.006671367 0.057512462 0.028528348 -0.031733993 0.005337424 0.030674128
0.04042695 0.0053401557 0.033788923 0.04389939 0.038645636 0.043402128 -0.001235768 -0.0006300904
0.064640656 -0.012918455 0.028269121 0.041720096 0.008251368 0.033135734 -0.0282497 0.027945507
-0.042699058 -0.04314021 -0.045465536 0.004424337 0.0054405094 0.016760249 -0.06883949 -0.040358886
0.013506177 0.050562527 -0.0009846387 -0.030586878 0.036807273 0.01027192 0.034648295 0.05593082
0.06668021 -0.04983126 0.043191273 0.03401619 0.061926678 -0.0136196595 -0.014964117 -0.038722556
0.039427735 -0.031266272 -0.040937398 0.037057474 -0.017088626 -0.018540293 -0.038731605 -0.03617271
00000000: 8f6c 823c 5dcd dcbb 98f5 003d 2aaf 653d
00000010: 733d 25bb a488 b4bc 892a 5b3d 4c77 37bd
00000020: 7766 b139 c194 13bd 89fc 14bd 10d6 49bc
00000030: f969 e33a 631c 88bd 254f 8cbc a29c 983b
00000040: 93d1 533d 9495 efbc 9a39 363d bcc7 ee3c
00000050: d8c4 873c f44b 89bd 445e 1abd 263f 24bc
00000060: 5f4a 4ebd d612 cbbd a17e cb3c e27c 20bd
00000070: 3429 773d d385 123d 5b7f 8c3d 99de fbbc
00000080: f059 4ebc c895 a2bc 4f52 963c d77f cc3c
00000090: 3d01 363d 021d a63b 253e efbc a1d2 c43c
000000a0: 77ac 163d 2803 4c3d 17c4 11bc 56b6 9c3d
000000b0: 2b82 963d ffa4 223c 16fb 2fbc ac63 14bc
000000c0: 7899 4a3d 1d84 b23c 3bf6 85bc cd23 dcbb
000000d0: dcc4 343c 47cc f23c b915 223d 3d50 e93c
000000e0: 2c95 5dbc 9b56 173d 133e 9f3c c9d4 5a3d
000000f0: a45d 5cbd 59dc 603c 3ce6 993b e736 2dbd
00000100: 9d66 963c bf40 9cbd dae8 91bb 8e2d d3bc
00000110: 5e7f 143c e890 b53c 75a2 67bd 24fd d5bb
00000120: 09dc 28bd 55ce a5bc 8ee7 b1bd 55d1 ecbb
00000130: d4fa 1fbc 669e 0fbd 2f5e 65bc ad5d b63c
00000140: 5bfd bd3c 38af 703d 4da8 05bd 5cad 883c
00000150: 702c 75bd ada9 4dbc 91a8 db3c 6d06 4a3d
00000160: 9dcd 7b3d 2d7a ffbc a172 de3c 7224 dabc
00000170: b6f8 8fbc b237 9dbd 9648 84bc 3869 e13b
00000180: 12e9 80bd 79eb 9a3c e964 a13b c470 b4bd
00000190: dfce 2bbb b778 543d c8c3 95bc 8b5f 963d
000001a0: aedb a13b 8e70 39bd ab62 a4bc 53da c73c
000001b0: 06bb cebb 9a65 1c3c 63b1 9dbc f1a5 b8bd
000001c0: ae8a fcbc faef ac3b 727d c73a 8f1e 1fbc
000001d0: 12dc ee3c feb7 183c 1835 173d e32b cd3c
000001e0: 7efc 38bd 3e32 f03c 0e0e 80bc 1736 36bc
000001f0: 7472 8b3c 761a b6bc 86f9 54bd 9862 383c
00000200: d325 ba3d 326b c9bc e46c 00bd d1bd 713b
00000210: 72f0 7d3d 0083 16bd 5bf3 0fbd 21c9 ddbb
00000220: cae2 283d 893d 53bd fb09 0b3c 7a26 e9bc
00000230: ba59 b4bb 36be 1cbd b13a 48bd 0fda c63b
00000240: 53d4 85bd 0a6b 50bd a548 913c 0925 9abd
00000250: d735 b0bb 29d7 4ebd 6b65 953d 02f7 9dbd
00000260: ba1e a6bc 15b8 af3c 5db1 d13b 1057 0d3c
00000270: 1199 0cbc eb61 92bb 659d f43b 68dd c839
00000280: 191e c93c 1f9e d53c c7b3 093c 4307 1d3d
00000290: 7e95 f2bb 4c88 9a3d efba 723b e2e2 fabc
000002a0: 48bf 09bd b43c 393d 52f6 033d 739e e23c
000002b0: 2067 99bc 8653 4cbc 0740 bc3c 4c02 98b9
000002c0: 425c 8239 d499 b73c ae2a 08b9 6ff0 463b
000002d0: 9049 58bc e6b7 a9bd 46b4 7dbd ab40 013d
000002e0: 7903 8dbc ffc4 9f3c 309b 17bd 2e5e 84b9
000002f0: cb02 0a3d a032 eabc 754f 85bd dabb 643d
00000300: 2b49 a23b 8f1d a139 d53a c9bc 6459 f1bc
00000310: 4f0d 43bc 5042 68ba 1aa8 c43c f51f 00bd
00000320: a29a 593d 1a55 72bc 7c9b dabb 3092 6b3d
00000330: 48b4 e93c 81fb 01bd 8fe5 ae3b 4f48 fb3c
00000340: bb96 253d 79fc ae3b 4166 0a3d d9cf 333d
00000350: e34a 1e3d 6ec6 313d 7ef9 a1ba a72c 25ba
00000360: 5262 843d eda7 53bc a594 e73c b1e2 2a3d
00000370: bf30 073c 56b9 073d ea6b e7bc faed e43c
00000380: 35e5 2ebd cab3 30bd 123a 3abd 07fa 903b
00000390: 4d46 b23b ca4c 893c b8fb 8cbd 5c4f 25bd
000003a0: 0349 5d3c a71a 4f3d fe0e 81ba 5591 fabc
000003b0: 39c3 163d 8e4b 283c 5feb 0d3d b717 653d
000003c0: a28f 883d dd1b 4cbd 55e9 303d 8f54 0b3d
000003d0: d4a6 7d3d fe24 5fbc 0e2c 75bc 8b9b 1ebd
000003e0: fa7e 213d 1011 00bd f9ad 27bd 94c9 173d
000003f0: 72fd 8bbc d0e1 97bc 08a5 1ebd d629 14bd

i_classifier.fc.0.bias f4 [2]
-0.005515638 0.077191986
00000000: 86bc b4bb d516 9e3d

b_classifier.q.0.weight f4 [128, 768]
-1.5851523e-06 -1.4775115e-06 2.9615717e-06 1.04800265e-05 1.1690615e-05 -7.129871e-06 6.08215e-06 3.8653334e-06
1.22447145e-05 -9.43617e-06 4.6610626e-06 9.006443e-07 -1.267034e-07 -1.584718e-06 1.4475426e-06 -2.6796572e-06
-1.8278279e-06 1.8076789e-06 4.619642e-06 -1.7877177e-06 -9.664425e-06 1.2586269e-06 7.828885e-06 1.8100191e-06
1.5446967e-06 9.251728e-07 1.28619395e-05 -4.950867e-06 9.805204e-06 -4.461394e-06 9.7039565e-06 -7.80744e-07
-1.7683993e-06 1.7736559e-06 4.8803304e-06 -5.6229414e-06 1.3041772e-06 -1.0544895e-06 -2.0235348e-06 2.0144944e-06
-2.2965476e-06 1.7190811e-06 2.0653606e-06 -5.51859e-07 -1.8894406e-06 1.8898016e-06 -2.0039297e-06 -1.2198226e-05
-2.679179e-06 -1.1450798e-06 -1.633846e-06 1.0849312e-05 -8.186202e-07 -2.798387e-06 -1.8298122e-06 1.9228714e-06
9.326432e-09 1.15117655e-05 -1.0906579e-06 -1.9826366e-06 -4.3031205e-06 -4.334414e-08 -2.1806531e-07 1.5920733e-06
-7.6056826e-06 -6.0291036e-06 1.5659383e-06 -8.255611e-07 1.0377981e-05 1.2155763e-06 -2.1343412e-06 1.8719475e-06
-3.5063842e-06 -2.0725388e-06 -1.1215602e-05 -1.6596574e-06 -4.9531545e-06 9.488005e-07 1.7407204e-06 -1.1846001e-05
9.336481e-06 -1.8838686e-07 4.3931827e-06 -1.4414344e-06 8.531173e-08 -1.6771193e-06 1.8006268e-06 -1.7977078e-07
1.2991741e-06 -1.4912595e-06 1.942773e-06 7.645003e-06 -1.2317463e-05 8.802055e-06 -6.8278537e-06 -6.667663e-07
1.454156e-06 -5.7285666e-07 8.349226e-06 2.067297e-06 1.9302029e-06 -2.0725374e-06 -1.2748245e-06 9.2310927e-07
2.8880106e-06 1.2674536e-06 1.3608326e-06 3.5561013e-06 -1.4829476e-06 -1.5804109e-06 -6.9629203e-07 2.7242147e-06
-1.6327411e-06 5.837979e-06 -9.0257873e-07 6.9620623e-06 -3.895893e-06 6.394919e-06 2.5576023e-07 2.3355483e-07
-4.493553e-06 1.6030825e-06 1.2813281e-05 -8.789218e-06 -3.0436166e-07 1.4393428e-06 2.9920753e-07 -1.0569134e-05
1.2203559e-06 -2.8073403e-06 -1.1884507e-06 9.8299545e-08 7.630678e-07 1.6360509e-06 1.1084686e-05 1.0196263e-05
1.1104384e-05 1.3923237e-06 -7.6402885e-06 1.7393638e-06 1.2063512e-05 -1.0459007e-06 -1.6118204e-06 4.840339e-06
-1.2007201e-05 -1.6613708e-06 -1.0673749e-06 8.881963e-06 -2.4806668e-06 4.599747e-06 3.9356996e-06 -1.12911e-05
-3.2184357e-06 6.5234453e-06 -2.4981264e-06 -1.9273346e-06 7.015319e-06 -1.2655382e-05 -2.2806848e-06 2.029156e-06
-6.9426505e-07 7.634119e-06 7.3660783e-07 3.0641377e-07 1.0380085e-06 -1.2375844e-05 1.7506077e-06 1.2844173e-05
-2.6509435e-06 -1.2690899e-05 -9.362057e-06 2.533874e-06 1.02317435e-05 -9.109618e-06 1.033384e-06 -4.3962007e-07
-5.4340776e-06 2.7784258e-06 -1.5199766e-06 -4.3180867e-06 1.2679166e-05 -5.178988e-06 -7.920328e-06 -1.2863326e-05
-9.753859e-07 2.0229634e-06 1.0615778e-06 2.504133e-06 1.6105137e-06 -1.1866107e-06 -1.4437657e-06 1.5365184e-06
-6.8256577e-06 -1.24287935e-05 -3.3924825e-06 -1.8690783e-06 -1.6769213e-06 -4.873962e-06 6.14275e-06 1.2719429e-06
2.1301516e-06 5.4640367e-07 -8.616387e-07 -8.562747e-06 1.2152627e-06 3.0211522e-06 -1.3463285e-06 5.715265e-07
-9.899272e-07 -1.5008189e-06 -8.719371e-06 2.3976204e-07 1.935082e-06 4.865299e-06 6.2754793e-07 2.7256813e-06
1.2150688e-05 -3.218157e-07 -1.2106967e-05 1.527319e-06 3.2481298e-06 -9.888256e-06 9.10097e-06 -1.1466323e-06
7.862752e-06 7.431e-08 3.245525e-06 -2.7305086e-06 1.8603354e-06 -1.2836891e-05 1.6503927e-06 2.073204e-07
1.4575033e-06 -2.8022677e-07 -1.4373155e-06 -1.1608183e-06 5.720885e-06 -1.0623712e-05 -1.6198717e-06 2.2764534e-06
9.309732e-06 -8.288296e-07 2.6503185e-06 9.526564e-06 1.274034e-05 2.0365767e-06 -1.1188499e-06 -1.5277599e-06
1.1955321e-05 1.1763778e-05 -1.33279e-06 -1.2706384e-05 -2.6800462e-06 -2.5179395e-06 -1.2629225e-05 2.393368e-06
00000000: 6bc1 d4b5 e94e c6b5 6abf 4636 5fd3 2f37
00000010: cf22 4437 203d efb6 4515 cc36 f6b2 8136
00000020: a66e 4d37 0b50 1eb7 3966 9c36 cec3 7135
00000030: f70b 08b4 7fb2 d4b5 2f49 c235 29d4 33b6
00000040: b053 f5b5 609f f235 6c02 9b36 83f1 efb5
00000050: 6424 22b7 17ee a835 ce58 0337 c8ef f235
00000060: 6053 cf35 6459 7835 9cc9 5737 a01f a6b6
00000070: 0881 2437 15b3 95b6 2dce 2237 5294 51b5
00000080: bd59 edb5 5a0e ee35 b8c1 a336 b3ac bcb6
00000090: 300b af35 fc87 8db5 10cc 07b6 c030 0736
000000a0: 631e 1ab6 2dbb e635 a09a 0a36 7623 14b5
000000b0: af98 fdb5 17a5 fd35 407b 06b6 fba6 4cb7
000000c0: f2cb 33b6 a4b0 99b5 854a dbb5 7105 3637
000000d0: 27bf 5bb5 eccb 3bb6 de97 f5b5 ae0a 0136
000000e0: 153a 2032 a822 4137 b862 92b5 700d 05b6
000000f0: 8663 90b6 6329 3ab3 5625 6ab4 39af d535
00000100: 5134 ffb6 9b4d cab6 3b2d d235 209c 5db5
00000110: 171d 2e37 e226 a335 b43b 0fb6 a03f fb35
00000120: 394f 6bb6 f215 0bb6 a52a 3cb7 65c1 deb5
00000130: 4633 a6b6 13b1 7e35 b3a2 e935 30be 46b7
00000140: e1a3 1c37 6347 4ab4 2769 9336 4f77 c1b5
00000150: 9f34 b733 6119 e1b5 11ad f135 0407 41b4
00000160: 485f ae35 4927 c8b5 9660 0236 0a43 0037
00000170: 1aa7 4eb7 8aac 1337 d11a e5b6 d5fb 32b5
00000180: 6b2c c335 69c6 19b5 a713 0c37 e4bb 0a36
00000190: a288 0136 ec15 0bb6 a31a abb5 96cb 7735
000001a0: a5cf 4136 601d aa35 daa5 b635 5ba5 6e36
000001b0: b109 c7b5 811e d4b5 d3e8 3ab5 a7d1 3636
000001c0: 8f24 dbb5 dce3 c336 bd48 72b5 a99b e936
000001d0: 77b9 82b6 f093 d636 6b4f 8934 10c7 7a34
000001e0: 54c7 96b6 7f29 d735 9ff8 5637 6775 13b7
000001f0: 2667 a3b4 712f c135 c5a2 a034 1652 31b7
00000200: 1ccb a335 bd65 3cb6 db82 9fb5 bf18 d333
00000210: 9fd5 4c35 4896 db35 5df8 3937 9e10 2b37
00000220: f74c 3a37 e1df ba35 ca2e 00b7 1674 e935
00000230: 6464 4a37 e060 8cb5 ba55 d8b5 326a a236
00000240: 8972 49b7 44fc deb5 b942 8fb5 be03 1537
00000250: 8879 26b6 8757 9a36 670f 8436 e86e 3db7
00000260: 4efc 57b6 f8e3 da36 7ca5 27b6 5b57 01b6
00000270: 2265 eb36 7452 54b7 de0d 19b6 a22c 0836
00000280: 885d 3ab5 4b14 0037 4ebb 4535 3081 a434
00000290: b351 8b35 d8a1 4fb7 6cf6 ea35 4e7d 5737
000002a0: dde6 31b6 ffea 54b7 bb11 1db7 a00b 2a36
000002b0: 01a9 2b37 83d5 18b7 ceb2 8a35 ec04 ecb4
000002c0: 5f56 b6b6 fe74 3a36 0002 ccb5 15e4 90b6
000002d0: 9ab8 5437 2bc7 adb6 8de1 04b7 91cf 57b7
000002e0: 01ea 82b5 3fc2 0736 897b 8e35 ad0c 2836
000002f0: d428 d835 a243 9fb5 69c7 c1b5 5f3a ce35
00000300: f407 e5b6 4385 50b7 68aa 63b6 0bdd fab5
00000310: 9412 e1b5 048b a3b6 d21d ce36 a0b7 aa35
00000320: baf3 0e36 93ac 1235 5c4b 67b5 b8a8 0fb7
00000330: 1c1c a335 00bf 4a36 7fb3 b4b5 016b 1935
00000340: a4dd 84b5 bf6f c9b5 6a49 12b7 a5b8 8034
00000350: 75dc 0136 9a40 a336 c474 2835 d9ea 3636
00000360: cfda 4b37 03c6 acb4 071f 4bb7 48fe cc35
00000370: 72fa 5936 bce5 25b7 5eb0 1837 fce5 99b5
00000380: 43ea 0337 5b94 9f33 b2cd 5936 c83d 37b6
00000390: a3b0 f935 075e 57b7 1083 dd35 cc9b 5e34
000003a0: 6f9f c335 1372 96b4 c9e9 c0b5 6acd 9bb5
000003b0: 07f6 bf36 7f3c 32b7 5e6a d9b5 2cc5 1836
000003c0: ff30 1c37 bd7c 5eb5 20dc 3136 48d4 1f37
000003d0: 58bf 5537 1fac 0836 642b 96b5 6e0d cdb5
000003e0: b693 4837 0b5d 4537 51e2 b2b5 812d 55b7
000003f0: d8da 33b6 dff9 28b6 1ce2 53b7 c09d 2036

b_classifier.q.0.bias f4 [128]
-1.2855623e-05 1.1920594e-05 -2.3914452e-06 -2.263283e-06 1.152311e-06 -1.2643586e-05 2.9794421e-06 5.06948e-06
-1.955983e-06 -7.706913e-06 -1.1936692e-05 -1.0765723e-05 -9.468863e-07 1.2982549e-06 -3.6384893e-06 -1.17362015e-05
1.965047e-06 2.6557243e-06 3.6317801e-06 -2.2666998e-06 -9.946928e-07 -2.1236692e-06 -2.1148774e-06 -9.375681e-06
-6.898786e-06 -1.9878958e-06 -1.1669173e-06 -3.2963378e-06 -5.64108e-06 3.894162e-07 -1.0837839e-05 1.2440148e-05
-1.1633927e-06 -1.2389425e-05 -1.4540711e-06 -5.51183e-06 -1.1070628e-06 -4.4112244e-06 -1.826061e-06 -2.1100818e-06
1.6973187e-06 2.4950914e-06 1.0228378e-05 1.1950873e-05 7.4908285e-06 -8.602187e-06 -5.010993e-06 2.151852e-06
-5.8132396e-06 -1.93066e-06 1.3813869e-06 -3.3176866e-07 8.045469e-07 3.4443238e-07 4.618864e-06 8.874846e-07
-2.7967917e-06 -1.9100626e-06 -2.3575042e-06 -1.2043962e-05 -1.9330314e-06 -8.536119e-07 -1.794977e-06 1.2619639e-05
-1.2326048e-05 -3.3921433e-06 -1.1629355e-05 3.705669e-07 2.687967e-06 1.245429e-05 1.0931981e-06 3.2475564e-06
-8.592202e-06 2.4763888e-06 -1.2812628e-05 -5.9325193e-06 -2.7154874e-06 -1.166989e-06 2.960573e-06 -1.1692175e-05
-3.374734e-06 -1.0223221e-06 -1.2862198e-05 -1.2853345e-05 -5.2573287e-06 7.4109053e-06 -6.805425e-06 -9.942064e-06
-1.1602054e-06 -1.2677932e-05 1.0904917e-06 -1.3020285e-06 -6.0679504e-06 -1.1268998e-08 -1.0461629e-05 1.0103238e-06
1.0984011e-05 2.0950702e-06 2.774593e-06 1.8106462e-06 1.955826e-06 -7.2828067e-07 3.295582e-06 3.508285e-06
8.6801276e-07 9.256926e-06 8.233463e-06 -1.0449023e-05 2.4164672e-06 9.753423e-06 9.965371e-07 -8.630482e-06
-1.8736163e-06 2.42345e-06 3.852474e-08 9.112899e-07 -4.397187e-06 1.2008156e-06 -1.2824453e-05 -1.1572722e-05
-8.574138e-06 -9.058255e-06 -1.642853e-06 -2.660548e-06 1.1834832e-05 -1.1423583e-07 1.5460262e-06 -2.8149318e-06
00000000: 7bae 57b7 90fe 4737 b77c 20b6 e8e2 17b6
00000010: 1ba9 9a35 ca1f 54b7 6df2 4736 801a aa36
00000020: 8843 03b6 f04c 01b7 b443 48b7 6e9e 34b7
00000030: 882d 7eb5 b33f ae35 c52c 74b6 9ae6 44b7
00000040: 40df 0336 ff38 3236 82b9 7336 9b1d 18b6
00000050: 6281 85b5 5c84 0eb6 51ed 0db6 3e4c 1db7
00000060: 1f7c e7b6 ca67 05b6 f99e 9cb5 a736 5db6
00000070: 8248 bdb6 f410 d134 2ad4 35b7 07b6 5037
00000080: de25 9cb5 2ddc 4fb7 8129 c3b5 42f2 b8b6
00000090: 6396 94b5 2104 94b6 fa16 f5b5 ee9a 0db6
000000a0: 6dcf e335 5871 2736 8d9a 2b37 9c80 4837
000000b0: ba59 fb36 1d52 10b7 1a24 a8b6 8968 1036
000000c0: 590f c3b6 7c90 01b6 1868 b935 f01d b2b4
000000d0: 0bf8 5735 6dea b834 bdfb 9a36 7a3b 6e35
000000e0: 84b0 3bb6 a02e 00b6 9d35 1eb6 6c10 4ab7
000000f0: 3ab9 01b6 c323 65b5 f1ea f0b5 f0b8 5337
00000100: f9cb 4eb7 94a4 63b6 b31b 43b7 54f2 c634
00000110: ec62 3436 c5f2 5037 00ba 9235 98f0 5936
00000120: 3a27 10b7 0930 2636 d1f5 56b7 f40f c7b6
00000130: b83b 36b6 70a1 9cb5 42ae 4636 8229 44b7
00000140: 7d79 62b6 b836 89b5 b8ca 57b7 b2a4 57b7
00000150: 1c68 b0b6 31ab f836 285a e4b6 d7cc 26b7
00000160: 5bb8 9bb5 4eb3 54b7 025d 9235 5cc1 aeb5
00000170: 4c9b cbb6 9499 41b2 5b84 2fb7 769a 8735
00000180: f847 3837 0899 0c36 2533 3a36 5405 f335
00000190: d640 0336 117f 43b5 ab29 5d36 e16f 6b36
000001a0: 6201 6935 324e 1b37 7422 0a37 364e 2fb7
000001b0: 972a 2236 a2a2 2337 c1c0 8535 a3cb 10b7
000001c0: f778 fbb5 8ea2 2236 6676 2533 5d9f 7435
000001d0: 8c8b 93b6 b62b a135 9b28 57b7 7628 42b7
000001e0: a4d9 0fb7 e9f8 17b7 0080 dcb5 de8b 32b6
000001f0: 378e 4637 d051 f5b3 0e81 cf35 29e8 3cb6

b_classifier.q.2.weight f4 [128, 128]
8.979867e-06 9.063295e-06 -2.3197929e-06 -2.6141672e-06 -5.2335026e-06 2.2075985e-06 3.7175903e-06 -5.2612104e-06
-1.2926414e-06 -5.0450913e-06 -2.6425353e-06 1.589134e-06 4.724311e-07 4.332289e-06 -3.6637632e-06 2.2430481e-06
8.0487325e-06 1.0311396e-05 1.3827731e-06 -5.7662346e-06 -2.0608326e-07 -3.095777e-06 -2.1187907e-06 -5.0370517e-07
2.8038235e-06 -1.2590521e-05 -1.2869616e-05 2.2504303e-06 -7.715846e-06 4.306568e-06 -8.219874e-06 2.8102636e-06
1.1369132e-05 1.2732712e-05 -1.2634768e-05 -7.6582e-06 1.9881081e-06 4.072979e-06 -4.871998e-06 2.3223383e-06
2.978267e-06 5.551436e-06 -1.2202925e-07 2.1232172e-06 3.3083936e-06 -8.546876e-06 6.782814e-08 5.5631053e-06
-3.244198e-06 7.578243e-07 -6.9032208e-06 1.27550775e-05 2.5648776e-06 4.4195613e-06 1.5655813e-06 4.2315123e-06
-9.21273e-06 -1.8935782e-06 1.0049854e-06 -1.3338358e-06 1.7461211e-06 -3.022637e-07 -2.3505934e-06 3.109215e-07
2.1870649e-06 9.485496e-06 -1.9512295e-06 -1.1690819e-05 -1.2128364e-05 1.2092734e-05 -1.2846842e-05 7.400319e-06
-4.1129356e-06 3.3164395e-06 5.056531e-07 -2.0053944e-06 1.6107082e-06 -8.9684204e-07 2.0856105e-06 9.500936e-06
-1.6696391e-06 -9.3762054e-07 -1.2640734e-05 -8.299958e-06 1.1501708e-05 -1.2624216e-05 -1.1068621e-05 -8.695127e-06
-4.392845e-06 2.5340507e-06 -1.5631908e-07 2.094723e-06 3.393257e-06 1.4170497e-06 -4.443702e-06 -8.710292e-06
-7.4692534e-06 -1.1126706e-06 1.2513808e-05 1.038396e-05 -3.6839344e-06 1.5082857e-06 1.2346079e-05 3.4354266e-06
-1.22877345e-05 -1.6900731e-06 -9.854839e-06 1.1453062e-05 9.572061e-06 1.3158784e-06 -4.5715065e-06 1.0576113e-05
-1.8492958e-06 -9.1263355e-06 -3.31454e-06 1.0118996e-05 1.9866911e-06 2.7105445e-06 -1.18109e-05 -7.374834e-06
-1.1408704e-06 -1.7499243e-06 -6.9248936e-06 8.807435e-06 -1.7669689e-06 -1.5296313e-06 3.2315538e-06 1.0464726e-05
8.330185e-06 -2.5923755e-06 2.752327e-06 1.1024034e-05 -9.205169e-06 1.2459008e-05 -1.5678186e-06 1.1851542e-05
-1.1348837e-05 2.2733057e-06 1.0946596e-05 3.3679198e-06 -6.1410174e-06 -4.7122367e-06 -4.2952224e-06 9.520446e-06
-4.7533326e-06 3.1622244e-06 1.084659e-05 -7.5496536e-07 -2.4317956e-06 -1.2059762e-05 -1.9466934e-06 1.2133899e-05
9.962528e-06 -8.174005e-06 3.043886e-06 -9.33711e-06 -1.2415563e-05 -1.2769451e-05 -3.926064e-06 5.769054e-06
-1.6295753e-06 -3.0712433e-06 -3.9723295e-06 6.219148e-06 -1.4530034e-06 7.753784e-06 1.0156012e-05 -1.7822309e-06
-1.3554076e-06 -4.2078773e-06 9.491709e-06 7.655199e-07 -8.543605e-06 -1.7513378e-06 -7.1273876e-06 -3.5375086e-07
2.0563468e-06 -2.3737414e-06 4.816885e-06 2.2367726e-06 -9.66302e-06 -1.271094e-05 -1.7924792e-06 2.2122726e-06
1.107738e-05 1.8210807e-06 2.62313e-06 -1.0174228e-05 1.1264112e-05 -1.4438536e-06 3.7555737e-06 8.696368e-06
-1.2357798e-05 1.6240623e-06 1.03531975e-05 -1.4330565e-06 -7.062993e-06 -7.746436e-06 -1.3447171e-06 -1.6601822e-06
-2.2657123e-06 -5.4731163e-06 -1.951929e-06 1.981145e-06 -1.4038565e-06 1.6475508e-06 -1.3393103e-06 4.8204583e-06
-8.207894e-06 9.835711e-06 8.289936e-06 4.5114825e-06 -1.7521373e-06 -2.0118018e-06 2.4622832e-06 -1.21634785e-05
9.65093e-06 -3.4401894e-06 -8.4953635e-06 -1.8872139e-06 1.219425e-05 1.7877377e-06 1.0690885e-06 -4.181328e-06
-3.839497e-06 5.673288e-06 6.844308e-08 -6.2795275e-06 -2.0046741e-06 -1.7004842e-06 -3.0705323e-06 1.1753533e-05
6.790995e-06 1.2204756e-05 1.0813108e-05 -3.6259514e-06 6.752552e-06 -4.4268504e-06 6.920286e-07 1.5202284e-06
2.2406023e-06 1.061721e-06 -9.519308e-07 -4.4883473e-06 1.4271334e-06 1.9987629e-06 -8.823926e-07 -1.2590674e-05
1.1939676e-05 -6.0417083e-06 1.3235097e-06 -2.3896864e-06 3.7755308e-06 -3.436654e-06 -5.104729e-06 1.2600917e-05
00000000: 3ca8 1637 8e0e 1837 bdad 1bb6 0d6f 2fb6
00000010: 729b afb6 4126 1436 b77b 7936 7489 b0b6
00000020: d27e adb5 0149 a9b6 6956 31b6 3a4a d535
00000030: 70a2 fd34 145e 9136 f9de 75b6 4687 1636
00000040: 0b09 0737 1cff 2c37 b997 b935 947b c1b6
00000050: bc47 5db4 0bc1 4fb6 8c30 0eb6 5b36 07b5
00000060: 5229 3c36 e03b 53b7 94ea 57b7 1906 1736
00000070: 4e73 01b7 2381 9036 17e8 09b7 f697 3c36
00000080: 0dbe 3e37 959e 5537 eaf9 53b7 b87b 00b7
00000090: 706b 0536 a0aa 8836 257a a3b6 78d9 1b36
000000a0: 3dde 4736 7946 ba36 2507 03b4 987c 0e36
000000b0: c505 5e36 8e64 0fb7 eaa8 9133 b6aa ba36
000000c0: e6b6 59b6 4a6d 4b35 37a2 e7b6 a4fe 5537
000000d0: 4320 2c36 be4b 9436 f720 d235 6afc 8d36
000000e0: 6090 1ab7 da26 feb5 09e3 8635 4006 b3b5
000000f0: 445c ea35 ce46 a2b4 e3be 1db6 baec a634
00000100: 7dc5 1236 e523 1f37 def1 02b6 af23 44b7
00000110: ed7a 4bb7 e6e1 4a37 c488 57b7 4250 f836
00000120: d901 8ab6 ff8f 5e36 37bc 0735 6a94 06b6
00000130: 832f d835 84be 70b5 84f6 0b36 3666 1f37
00000140: 5d18 e0b5 cbb0 7bb5 8a13 54b7 0c40 0bb7
00000150: 76f7 4037 98cc 53b7 5db3 39b7 49e1 11b7
00000160: 4066 93b6 a90e 2a36 a9d8 27b4 1193 0c36
00000170: b6b7 6336 7531 be35 1c1b 95b6 6b22 12b7
00000180: 66a0 fab6 1257 95b5 65f2 5137 c536 2e37
00000190: 8339 77b6 4d70 ca35 0122 4f37 2e8c 6636
000001a0: 6b27 4eb7 78d6 e2b5 3656 25b7 8726 4037
000001b0: b097 2037 3d9d b035 f164 99b6 0f70 3137
000001c0: 5235 f8b5 501d 19b7 5d6f 5eb6 c2c4 2937
000001d0: 1853 0536 cde6 3536 6e27 46b7 5775 f7b6
000001e0: 0220 99b5 f1de eab5 625c e8b6 a5c3 1337
000001f0: 9728 edb5 bb4d cdb5 acdd 5836 a891 2f37
00000200: dfc1 0b37 acf8 2db6 9eb4 3836 def3 3837
00000210: e66f 1ab7 0807 5137 d66d d2b5 fcd5 4637
00000220: e266 3eb7 188f 1836 46a7 3737 6c04 6236
00000230: f00e ceb6 ce1d 9eb6 ae1f 90b6 01ba 1f37
00000240: d17e 9fb6 9a36 5436 c0f9 3537 d3a8 4ab5
00000250: ee31 23b6 4954 4ab7 f0a3 02b6 b392 4b37
00000260: bb24 2737 1623 09b7 9045 4c36 95a6 1cb7
00000270: 704c 50b7 603c 56b7 a2bc 83b6 cc93 c136
00000280: c8b7 dab5 8f1b 4eb6 0d4a 85b6 13ae d036
00000290: d104 c3b5 4016 0237 bd63 2a37 fd34 efb5
000002a0: 73eb b5b5 6431 8db6 943e 1f37 217e 4d35
000002b0: 8156 0fb7 820f ebb5 cb27 efb6 26eb bdb4
000002c0: c5ff 0936 914c 1fb6 baa0 a136 761b 1636
000002d0: 5b1e 22b7 1241 55b7 1e95 f0b5 8e76 1436
000002e0: fcd8 3937 db6b f435 0809 3036 fab1 2ab7
000002f0: fefa 3c37 6fca c1b5 4408 7c36 9ee6 1137
00000300: 5754 4fb7 5bfa d935 a5b2 2d37 7257 c0b5
00000310: a6fe ecb6 b0f6 01b7 217c b4b5 6dd3 deb5
00000320: a40c 18b6 b6a5 b7b6 e3fd 02b6 d0f3 0436
00000330: 246c bcb5 6a21 dd35 5ac2 b3b5 6cbf a136
00000340: a3b4 09b7 0f04 2537 0115 0b37 5761 9736
00000350: fb2a ebb5 7e02 07b6 b43d 2536 be11 4cb7
00000360: 6eea 2137 01de 66b6 4f87 0eb7 2d4c fdb5
00000370: e895 4c37 33f2 ef35 9a7d 8f35 564d 8cb6
00000380: 07d5 80b6 2c5d be36 fbfa 9233 bbb4 d2b6
00000390: 0a88 06b6 313c e4b5 580f 4eb6 0a31 4537
000003a0: 34de e336 07c3 4c37 f269 3537 5f55 73b6
000003b0: fb93 e236 5b8a 94b6 d8c3 3935 a60a cc35
000003c0: 415d 1636 7580 8e35 3088 7fb5 9c9a 96b6
000003d0: ee8b bf35 7c22 0636 8fdd 6cb5 883c 53b7
000003e0: 8550 4837 e1b9 cab6 72a3 b135 805e 20b6
000003f0: 205f 7d36 44a1 66b6 4a49 abb6 8768 5337

b_classifier.q.2.bias f4 [128]
-6.680603e-07 -1.7514187e-06 2.0098296e-06 -1.7262358e-06 8.1368063e-07 9.729178e-06 4.5479467e-07 -2.5623353e-06
-1.8394388e-06 6.231312e-07 -2.1706671e-06 4.164021e-06 4.420249e-06 -2.1442393e-06 9.795535e-07 3.9777437e-06
1.782583e-06 3.9276642e-06 2.0406044e-06 -2.1317014e-06 -1.6664446e-06 1.4770023e-06 1.0340551e-06 1.271805e-05
-1.1747929e-05 2.9360313e-06 5.480527e-06 1.2935477e-06 1.0549614e-06 -3.0378365e-07 -9.586317e-08 3.866107e-06
1.27193425e-05 2.092766e-06 1.1912862e-06 1.1548598e-06 -7.91591e-08 -2.032175e-06 -7.1247014e-06 1.8570016e-06
-2.7115418e-06 1.8363301e-06 -2.0610341e-06 1.2560076e-05 -6.4119117e-06 1.1919881e-05 1.4777712e-06 3.826986e-06
-1.8270864e-06 -1.1136928e-05 1.0920631e-05 2.0323332e-06 8.660135e-06 5.624343e-06 4.015069e-06 1.207908e-06
-8.4946237e-07 -1.1606952e-05 6.5110717e-06 -2.4539843e-06 4.5388106e-06 -3.231485e-06 -2.3387197e-06 1.9001093e-06
-7.860183e-06 1.8286141e-06 3.0101182e-06 5.7986595e-06 -2.3008315e-06 1.2539851e-05 9.3366225e-07 -4.2843053e-06
4.7460358e-07 2.0163961e-06 1.2192307e-05 -1.240808e-05 -1.2638049e-05 6.9527005e-07 -1.6791372e-06 9.860508e-06
-7.200096e-06 2.1908268e-06 3.2035973e-06 -2.4869817e-06 -1.0812124e-05 1.6566624e-06 1.1263359e-05 -1.286703e-05
-3.3347906e-06 6.4887613e-06 7.765363e-06 -3.5471305e-06 -2.1832157e-06 3.933986e-06 1.1952814e-05 5.6267622e-06
-1.546601e-06 -9.8512655e-06 -2.9152027e-06 -2.1760843e-06 2.5206568e-06 -1.682436e-06 -7.0963497e-06 8.613413e-06
-3.7624452e-06 3.5338717e-06 -4.406053e-06 1.4211314e-06 -2.3756863e-06 6.6216594e-06 9.17269e-06 -8.6979736e-07
2.958884e-06 2.737337e-06 1.7280536e-06 -1.1949931e-05 -1.1685213e-05 1.2304123e-05 -4.1131557e-06 -8.388173e-06
1.5975269e-06 -6.748079e-06 -5.158469e-06 -1.27818585e-05 -3.8051028e-06 -1.6295647e-06 5.7088923e-06 -1.543673e-06
00000000: c154 33b5 4a12 ebb5 9ce0 0636 03b1 e7b5
00000010: b56b 5a35 803a 2337 812a f434 96f4 2bb6
00000020: a3e2 f6b5 4045 2735 c7ab 11b6 abb8 8b36
00000030: a651 9436 c0e5 0fb6 3479 8335 8f78 8536
00000040: 1641 ef35 61ca 8336 51f1 0836 5a0e 0fb6
00000050: 9aaa dfb5 6a3d c635 ddc9 8a35 9c5f 5537
00000060: f918 45b7 a208 4536 5ee5 b736 f69d ad35
00000070: 3398 8d35 b517 a3b4 56dd cdb3 9bb9 8136
00000080: 2965 5537 7271 0c36 48e4 9f35 ae00 9b35
00000090: 2dfe a9b3 8060 08b6 b810 efb6 173e f935
000000a0: eff7 35b6 d277 f635 4c50 0ab6 1eb9 5237
000000b0: e725 d7b6 80fb 4737 d557 c635 8f69 8036
000000c0: 363a f5b5 bed8 3ab7 c137 3737 3863 0836
000000d0: ff4a 1137 bdb8 bc36 2eb9 8636 671f a235
000000e0: 9c06 64b5 7bbb 42b7 ae79 da36 21af 24b6
000000f0: 164c 9836 7ddc 58b6 e6f2 1cb6 4207 ff35
00000100: 3bdf 03b7 b46e f535 7001 4a36 1b92 c236
00000110: fc67 1ab6 4062 5237 c8a0 7a35 e7c1 8fb6
00000120: 05cd fe34 6c51 0736 8f8d 4c37 4c2c 50b7
00000130: 0208 54b7 98a2 3a35 b75e e1b5 8f6e 2537
00000140: 5b98 f1b6 1e06 1336 62fd 5636 05e6 26b6
00000150: b865 35b7 7d5a de35 c2f7 3c37 79df 57b7
00000160: 44cb 5fb6 09ba d936 fb47 0237 3d0b 6eb6
00000170: 5c83 12b6 af00 8436 f288 4837 85cd bc36
00000180: ce94 cfb5 dd46 25b7 cda2 43b6 d808 12b6
00000190: 8e28 2936 10d0 e1b5 2e1d eeb6 5482 1037
000001a0: 517e 7cb6 7427 6d36 b5d7 93b6 b4bd be35
000001b0: fb6d 1fb6 9f2f de36 67e4 1937 057c 69b5
000001c0: 3d91 4636 17b3 3736 78ef e735 907c 48b7
000001d0: 9c0b 44b7 ce6d 4e37 bd03 8ab6 eeba 0cb7
000001e0: 9b6a d635 8f6d e2b6 e916 adb6 aa71 56b7
000001f0: 2b5b 7fb6 6bb7 dab5 038f bf36 3330 cfb5

b_classifier.fcc.weight f4 [2, 2, 768]
-0.01443572 0.049314253 -0.02825494 -0.004141945 -0.012300536 0.021074116 0.004315672 -0.033321004
-0.015131721 0.02484174 -0.029776884 0.0066709896 0.028265437 -0.03935899 -0.021252723 0.03946668
-0.024133945 -0.01940799 0.023806902 0.0013210353 0.022853836 -0.017836727 0.020770852 0.04960476
-0.025023956 0.027635628 -0.0034613076 0.032527693 -0.012270601 0.04476304 0.013078096 0.00983611
-0.050081823 0.061197698 0.00934551 -0.035262596 0.007415726 0.0062648156 -0.03472562 0.032185975
-0.04574084 -0.014615888 -0.029947145 0.007112253 0.004388475 -0.012031657 0.055439904 0.008509668
-0.024987644 0.013363867 0.011627555 -0.015792513 -0.05309143 -0.011914188 -0.0036150308 -0.011780429
-9.0168405e-06 -0.010982229 0.021899637 0.006813562 -0.020509051 0.0043902043 0.0041065123 0.022019695
-0.011054762 -0.014476666 0.014907998 -0.013312855 0.0381548 -0.01013791 -0.032664996 0.025530165
0.005871025 0.04091682 0.0049762903 0.03766507 -0.0032796024 0.028363543 -0.0049784817 -0.013797711
-0.00704817 -0.033746995 -0.0248784 0.012312432 0.027506234 0.010402601 0.014128714 -0.0031013626
0.00667012 -0.031846676 -0.015979296 0.0045125606 0.010691604 -0.04645532 -0.032011513 -0.009831231
0.009366694 -0.06718727 0.03491648 0.03706894 -0.0016229361 0.04008503 0.01020773 0.021862783
0.0019789978 0.058838602 0.019633373 0.026768023 -0.036383074 -0.015924992 0.0057733157 -0.010272746
0.032080255 0.0132798795 0.013434354 0.0011445852 0.013829347 -0.04420199 -0.011368324 0.0023918028
0.025894418 0.0097761685 0.021324119 0.028540801 -0.016969781 0.015393577 0.030283922 0.035895035
-0.017549157 0.0066247135 -0.0020655077 -0.005456792 0.017354306 -0.0027014343 0.030072164 -0.0032684132
0.02690394 0.040602107 -0.044836096 -0.006815823 0.014039649 0.01358954 -0.023846023 -0.021896893
0.00493574 0.05098223 -0.036990155 -0.050378557 -0.0024154084 0.014394748 0.012943376 -0.025845943
0.02597684 -0.0046309223 -0.029639341 -0.07338672 -0.047745712 0.06379287 0.029752385 -0.013194227
0.000568675 0.019136662 -0.018623978 -0.001365434 0.017098032 0.008121878 0.022208922 -0.016502948
-0.0005222982 0.017263573 -0.020780291 0.0025252965 0.05440347 0.024590185 0.021806585 -0.024833372
0.018552404 0.014509627 -0.0050924956 -0.011144229 0.017060654 0.002572972 0.011238346 -0.0051802406
-0.01010564 0.02718158 0.016463198 -0.0022244924 -0.001603139 -0.005640255 -0.026917139 -0.004867695
0.0111849215 0.019678308 -0.010312223 -0.0015602853 0.00797547 0.036587838 0.007819447 -0.03829022
0.028169312 -0.02006249 -0.028438576 0.02190949 -0.009887365 0.029290255 -0.028083289 0.07874189
-0.0047763153 0.016380578 -0.027598472 -0.0066320007 0.007875494 -0.020556075 0.01283025 0.016851116
-0.030385293 -0.018482592 0.018590221 -0.0009223111 0.028823432 -0.020831726 -0.051343165 -0.02067065
0.018397676 -0.023904083 0.020726278 -0.046187032 0.035569843 0.011861292 -0.019235678 0.0020674898
-0.016430413 -0.05808954 -0.014487041 -0.024049629 0.0128556 0.0127429245 -0.04699365 0.028873144
0.011103946 -0.00031774843 -0.013698413 -0.050676376 -0.07001544 0.014656175 -0.027636044 2.8238663e-05
-0.011834538 -0.0059077316 0.028085563 0.0103461705 -0.015974993 -0.005690589 -0.032227624 -0.032193862
00000000: cc83 6cbc befd 493d e776 e7bc 27b9 87bb
00000010: 3088 49bc a0a3 ac3c 7b6a 8d3b 9b7b 08bd
00000020: 0aeb 77bc e880 cb3c a7ee f3bc 5198 da3b
00000030: eb8c e73c e436 21bd 311a aebc d0a7 213d
00000040: 8db4 c5bc 81fd 9ebc b106 c33c 9726 ad3a
00000050: f837 bb3c 541e 92bc a227 aa3c 5c2e 4b3d
00000060: 0aff ccbc 1d64 e23c 1bd7 62bb c23b 053d
00000070: a10a 49bc 7359 373d 8345 563c a327 213c
00000080: 9922 4dbd 70aa 7a3d e91d 193c 836f 10bd
00000090: 9eff f23b 1549 cd3b 743c 0ebd 71d5 033d
000000a0: bf5a 3bbd 7a77 6fbc b753 f5bc e70d e93b
000000b0: 32cd 8f3b 6d20 45bc f414 633d 226c 0b3c
000000c0: e3b2 ccbc 1ff4 5a3c 8081 3e3c 4d5f 81bc
000000d0: 6676 59bd ba33 43bc 27ea 6cbb b302 41bc
000000e0: 0947 17b7 cfee 33bc de66 b33c 4d44 df3b
000000f0: 9902 a8bc b4db 8f3b ec8f 863b a662 b43c
00000100: 081f 35bc 8a2f 6dbc ad40 743c 291e 5abc
00000110: 3548 1c3d 7a19 26bc bbcb 05bd a324 d13c
00000120: ba61 c03b 6598 273d 2610 a33b b046 1a3d
00000130: 99ee 56bb a95a e83c 8822 a3bb cb0f 62bc
00000140: 56f4 e6bb 4a3a 0abd c9cd cbbc 15ba 493c
00000150: c154 e13c ac6f 2a3c 1f7c 673c 3b40 4bbb
00000160: 0691 da3b a971 02bd 03e7 82bc 1ade 933b
00000170: d62b 2f3c ef47 3ebd 811e 03bd 2c13 21bc
00000180: c376 193c 7b99 89bd 9504 0f3d 9ad5 173d
00000190: b3b8 d4ba 3330 243d 533e 273c 9419 b33c
000001a0: 13b2 013b bf00 713d 2bd6 a03c 9d48 db3c
000001b0: 6b06 15bd 2175 82bc 152e bd3b 054f 28bc
000001c0: 9666 033d da93 593c c41b 5c3c e805 963a
000001d0: 7c94 623c 250d 35bd 3542 3abc cbbf 1c3b
000001e0: 8820 d43c 392c 203c ebaf ae3c 66ce e93c
000001f0: 3604 8bbc 5735 7c3c fd15 f83c ac06 133d
00000200: 40c3 8fbc 2014 d93b 785d 07bb e4ce b2bb
00000210: 9e2a 8e3c 8c0a 31bb e659 f63c e032 56bb
00000220: a765 dc3c 654e 263d 0ea6 37bd 4457 dfbb
00000230: 8e06 663c a9a6 5e3c bc58 c3bc 1d61 b3bc
00000240: fdbb a13b bed2 503d fd82 17bd bf59 4ebd
00000250: d44b 1ebb f3d7 6b3c 7410 543c dfba d3bc
00000260: 62cd d43c febe 97bb 34ce f2bc c74b 96bd
00000270: 0291 43bd d6a5 823d 46bb f33c 992c 58bc
00000280: 2213 153a 7dc4 9c3c 5091 98bc 5df8 b2ba
00000290: 2c11 8c3c a011 053c 7cef b53c 3131 87bc
000002a0: d7ea 08ba 566c 8d3c 6e3b aabc 727f 253b
000002b0: 2cd6 5e3d 5b71 c93c b9a3 b23c 5b6f cbbc
000002c0: 36fb 973c c9b9 6d3c f3de a6bb 4996 36bc
000002d0: c9c2 8b3c 4f9f 283b 0a21 383c 02bf a9bb
000002e0: 2092 25bc e8ab de3c d4dd 863c cac8 11bb
000002f0: 6b20 d2ba e3d1 b8bb 5581 dcbc 2f81 9fbb
00000300: f640 373c 6734 a13c 99f4 28bc 7d82 ccba
00000310: 8cab 023c 21dd 153d 231d 003c 35d6 1cbd
00000320: 54c3 e63c 175a a4bc 04f8 e8bc 887b b33c
00000330: 9dfe 21bc 1ef2 ef3c ed0e e6bc 6e43 a13d
00000340: a382 9cbb 9030 863c 3116 e2bc 4151 d9bb
00000350: 3708 013c 3765 a8bc f835 523c 5a0b 8a3c
00000360: 94ea f8bc ce68 97bc 854a 983c 40c7 71ba
00000370: 1e1f ec3c 4ca7 aabc 364d 52bd 7f55 a9bc
00000380: b9b6 963c 7fd2 c3bc 28ca a93c 9d2e 3dbd
00000390: afb1 113d dd55 423c 2494 9dbc b97e 073b
000003a0: 1399 86bc 4cef 6dbd 0e5b 6dbc ba03 c5bc
000003b0: 4ba0 523c b3c7 503c 6a7c 40bd 5f87 ec3c
000003c0: 53ed 353c 7997 a6b9 4f6f 60bc 0892 4fbd
000003d0: 4164 8fbd 7420 703c fc64 e2bc 11e2 ec37
000003e0: a6e5 41bc a595 c1bb b213 e63c fc82 293c
000003f0: fddd 82bc 1f78 babb 1d01 04bd b6dd 03bd

b_classifier.fcc.bias f4 [2]
-0.0071438826 0.006141151
00000000: 3b17 eabb b53b c93b
