mil/weights/20241120/fold_2_6.pth (torch, 481804 bytes, 8 tensors)

i_classifier.fc.0.weight f4 [2, 768]
00000000: 9a5e 343d 0471 6abd 326c c53c d6bc 983d
00000010: be98 52bc 147a 093d d2e6 263b 618b 123c
00000020: 9212 6e3d 2ea8 543b 5ef4 ec3c d1b6 cdbc
00000030: a54d 6a3c d247 68bc b07d 093d fb9b 9a3b
00000040: c419 2f3d 5e65 dabc 603e 663c 3da8 df3c
00000050: 0565 e83c ed86 54bc 036d 023d de60 05bc
00000060: 4eeb cabc c3a2 b5bc d030 a93c 5d2c 05bd
00000070: 131f 33bd e535 2bbd 47b1 babc 4943 563c
00000080: f94c edbc 986d d0bc ab3b 9abb fc61 133d
00000090: 9893 39bb ba27 a13d 0b95 1c3d 96d8 dbbc
000000a0: 518f 013d 55da 63bc 9d3a a2bd e982 05bd
000000b0: d2dc 32bc cc48 22bd 3bdf 86bc b67c 9cbb
000000c0: fbc2 db3c ec10 acba 46ba c43c f063 1f3b
000000d0: e8ab b5bc 2bf5 0fbc 4a49 103c f8f2 033d
000000e0: 827b 1f3d f6ec 8bbd 692b 053d 3a00 0d3d
000000f0: 51b5 45bd a546 54bc dc02 e53c 4635 453b
00000100: d069 233c ef22 3abd 438f 59bd 2db5 d93c
00000110: ca3c 41bd 1c05 993c 304b 9b3d 626f 2abd
00000120: 8c07 c6bc faa1 48bd dd9d ed3c 7299 9fbd
00000130: b4ae a6bc 7549 083d d055 123d 9806 163c
00000140: 2c12 813d 6431 883d 18dd c53c dc89 e33c
00000150: e59e 8a3c c5b8 303c 9dcc dbbb 3e07 503c
00000160: 029a 393d bbed be3b 8708 c0bc 4504 94bc
00000170: aa99 2abd 6c9f 70bc 257d 25bc 76ec 243d
00000180: d8d4 89bc 516c f63c 885a d73b fa3f 433b
00000190: fa86 1cbd f5cc 4fbd 1840 853c 1084 b63c
000001a0: 51e0 91bc bedf 243d a03e 76bc 8e4b 2c3b
000001b0: d6dc f13c 6314 863c f38c 553d e3b5 1d3c
000001c0: 7dc6 523c af4c 4bbd bd31 ce3c 18a9 41bd
000001d0: d6b3 6bbd 6560 10bd 9e48 623b 8116 4dbd
000001e0: 9c43 333d 7ebf 843b 166f aebb aa7a b0bc
000001f0: 369a f3bc 2b15 62bd 8d37 08bb 9e06 d23c
00000200: ca75 4e3c 6918 cfbc fe34 48bd bdf3 f73c
00000210: 83f3 9abd 01d7 ddbc 7567 973c f72b d13a
00000220: 7719 e93c 4ca0 ce3c 2b65 2ebd a6ed 093d
00000230: 8ea3 b03d 0d28 433d 0ca1 88bc 21e6 023c
00000240: 27b0 e3bc e28f 743c d98d 98bd 72f9 75bb
00000250: e6ec e9bc 480b 08bb 06be 8c39 8c6c 1d3d
00000260: 15e7 433d 9057 293d 5632 94bb 4693 83bc
00000270: b1ff bd3c 4d52 b63c a56a d53c 7212 e8bc
00000280: ddcb adbb 449b bc3d add0 f0bc 5950 4c3d
00000290: 91f4 bbbc 50d1 4b3c a27e 78bc 891b ddbb
000002a0: 2e7c 01bb b016 1e3d 021d f6bc 343c 07bd
000002b0: de79 273d 1a5c 273c 8d07 f1bc 791c 383c
000002c0: 0936 edbc 4e96 a8bc 2cf7 123c 1ffd 683d
000002d0: ac17 9cbc 6ecd 2b3d f587 ecbc 548d 4abd
000002e0: c6dc 1dbd 9c74 a73c 9f1a 71bd a130 5fbd
000002f0: b674 e33c eb34 63bd 77ab 85bc dff3 543c
00000300: d85a 40bd 263c e43c d382 663d 39dc 8abd
00000310: b140 a1bc 6f79 053c cd17 10ba a2e6 693d
00000320: 27b9 953d 061a ab3c 1598 613d bce1 afbb
00000330: 8e61 70bd fb8b 873c 19e6 613d df9c b83c
00000340: dd85 ea3b c4e6 3cbd a650 0dbd b32d 073d
00000350: e6b0 e0bc 208a 4d3c f880 50bd 3946 09bc
00000360: 2b88 1d3d 7271 bbba 6575 f2bc b251 193c
00000370: 8d67 6bbc 44f5 bbbc 885d ccbd 5198 663d
00000380: 2c1a 68bd 9339 943c ece2 36bd fe27 283d
00000390: 37ef a93c 4dc6 b43c d3c4 b43c bc3e 13bd
000003a0: 725c 263d 0162 033c dd1e ffbc 195e 043d
000003b0: a01e ed3c 75db 88bb e361 e83c 7032 bbbb
000003c0: 80bd 0cba 1e08 663c 3fe3 2bbc 9637 313d
000003d0: a2f3 7b3d 811e bfbc c909 73bd ea1d 733d
000003e0: c7b5 b4bb 7ebe 343b fccc b4bb aab5 8e3d
000003f0: 7238 bd3c d9b1 3d3b 2075 5fbd 7df8 2a3d
0.04403553 -0.057236686 0.024099443 0.074578926 -0.012853799 0.03356369 0.002546717 0.008944363
0.05812318 0.0032448876 0.028925117 -0.025111588 0.014300738 -0.01417728 0.03356713 0.0047183014
0.04274918 -0.026659664 0.014052957 0.027301902 0.028368482 -0.012971622 0.031842243 -0.008140771
-0.024770405 -0.022172337 0.020653158 -0.03251301 -0.043730807 -0.041799445 -0.02278961 0.0130775655
-0.028967367 -0.025442883 -0.00470682 0.035982117 -0.0028316732 0.07868905 0.038228076 -0.026836675
0.031630818 -0.013907035 -0.07921336 -0.03259555 -0.0109169055 -0.039620206 -0.016463866 -0.004775609
0.026826372 -0.0013127602 0.024014603 0.0024321042 -0.022176698 -0.00878648 0.008806536 0.032214135
0.038936146 -0.06832306 0.032512102 0.034424044 -0.04826862 -0.012956296 0.027955465 0.0030091568
0.009973958 -0.04544347 -0.05311514 0.02657565 -0.047177114 0.018679194 0.075827 -0.04161013
-0.02417352 -0.048982598 0.02900594 -0.07792939 -0.020346977 0.03327318 0.03572637 0.0091568455
0.06302294 0.066500455 0.024153277 0.027775697 0.01692147 0.01078624 -0.0067077414 0.012697039
0.04531289 0.0058266795 -0.023441566 -0.018068442 -0.04165045 -0.014686447 -0.010100638 0.04026457
-0.016825125 0.030080946 0.0065720715 0.0029792772 -0.03821466 -0.05073257 0.016265914 0.02227977
-0.017807158 0.04025244 -0.015029579 0.0026290151 0.029524248 0.016367143 0.052136373 0.009625885
0.012864706 -0.049633678 0.025170201 -0.0472804 -0.05754455 -0.03524818 0.0034528146 -0.05007029
0.04376565 0.004051148 -0.005323301 -0.021542866 -0.02973662 -0.05519597 -0.0020785064 0.025637921
0.012601325 -0.025280194 -0.048878662 0.03026759 -0.075659774 -0.02708006 0.01848195 0.0015958537
0.028454525 0.02522292 -0.04257695 0.033673905 0.086249456 0.047645617 -0.016678356 0.007989437
-0.027793957 0.014926882 -0.0744893 -0.0037532714 -0.028555345 -0.0020758677 0.0002684446 0.038433596
0.0478278 0.04134327 -0.004522602 -0.016061436 0.023193212 0.022256041 0.026051829 -0.028329108
-0.0053038434 0.09209302 -0.02939638 0.049881313 -0.022943767 0.012440041 -0.01516691 -0.006747667
-0.0019757855 0.038595855 -0.030043129 -0.0330164 0.040887706 0.01021483 -0.029422546 0.011237257
-0.02895643 -0.020579483 0.008970063 0.05688202 -0.019054256 0.04194396 -0.028873423 -0.049451187
-0.038540624 0.020441346 -0.05886328 -0.054489736 0.027765613 -0.05547039 -0.016317112 0.0129975965
-0.046961635 0.027860712 0.056277107 -0.067802854 -0.019684168 0.008146628 -0.00054967107 0.057104714
0.07310706 0.020886432 0.055076677 -0.005367486 -0.058686785 0.01654624 0.05515108 0.02253574
0.007157071 -0.046118513 -0.03450074 0.033002567 -0.027428102 0.012545139 -0.050904244 -0.008378559
0.038459938 -0.0014300777 -0.029596994 0.009357857 -0.01436795 -0.0229441 -0.09978777 0.056297604
-0.056665584 0.01809386 -0.044650003 0.041053765 0.02074395 0.022067213 0.02206651 -0.0359485
0.040615506 0.008018971 -0.031142646 0.0323163 0.028945267 -0.004176552 0.028366989 -0.0057127997
-0.0005368814 0.014040021 -0.010491191 0.0432659 0.061511643 -0.023329975 -0.059335504 0.0593547
-0.0055148336 0.0027579363 -0.0055176 0.069682434 0.023098204 0.0028945117 -0.05455506 0.041740883

i_classifier.fc.0.bias f4 [2]
00000000: 89f5 3abc abf2 603d
-0.011411079 0.054918926

b_classifier.q.0.weight f4 [128, 768]
00000000: 417f c2b6 48d8 b7b5 74dc 9936 44ad dbb4
00000010: 3095 8cb6 1fdd 03b7 226c 8635 9159 1137
00000020: a7b4 d236 9c4d 1e37 fea5 3e37 4beb 9eb6
00000030: a1ba a1b6 9f59 69b4 6328 ecb3 90c2 ce35
00000040: 8b1c 1f37 589e 1236 c59f ca34 6a13 8b35
00000050: 4553 09b7 ac30 13b7 c2bc 83b5 9452 13b6
00000060: 90b3 0e37 1c56 8234 cfda 9636 e3a7 b2b6
00000070: 75df 44b5 e085 0fb7 33c5 4837 4a77 9a36
00000080: 2c60 1f37 c450 0bb7 8fe2 d935 fa0e fdb6
00000090: f496 b2b6 1b6e 5db3 1bb7 8f34 4166 ad35
000000a0: ceb0 4335 e09f afb5 176c ae36 9302 3536
000000b0: 1f38 9cb6 1d1b 32b6 db8c 0c36 43a4 38b7
000000c0: 55b1 5437 9de6 7236 5049 0a37 a956 ccb5
000000d0: 4133 5d36 bb63 d4b6 6948 fa35 da87 f535
000000e0: 787a 9936 393c 7235 98fb b635 d9fb de34
000000f0: 220c d3b6 5804 bf36 21c9 8ab6 99e4 f1b6
00000100: d1ce 3f36 2319 da35 405c 9435 c34f 2237
00000110: d38b bc35 e452 deb4 ccd4 2036 e5bf 0436
00000120: 9d0a fcb5 fcad 4b35 8413 16b7 fa59 ff35
00000130: e4a1 be35 3b41 f7b5 88ba c533 9428 dfb5
00000140: b513 b536 899a 5137 d502 9ab5 4985 bdb6
00000150: 3704 ac35 1cd1 01b7 7cb6 94b5 0812 75b6
00000160: 9f5e 52b7 8ac1 57b7 b1a3 f836 fc19 5237
00000170: 005f 9eb6 b142 2537 acec 9bb6 0b46 05b6
00000180: 2f2f f636 1d8b fe35 2d78 dd36 8aa3 85b5
00000190: 171a 05b7 7e81 b8b6 5721 5237 0094 d036
000001a0: 5829 1737 15d2 61b6 34cf b6b5 9b36 e7b5
000001b0: 59a4 9135 d976 82b6 d1bd 99b6 2149 ddb5
000001c0: f315 8235 d168 deb6 2a3d 3336 d097 5037
000001d0: cb0e afb6 7038 a936 aecc 62b6 9304 aab6
000001e0: 3925 4335 4f96 8f35 544c 8436 1043 3333
000001f0: 8b35 00b5 637a cfb5 05e3 82b6 0861 b536
00000200: 55f3 4836 3b34 f7b4 57ba 82b6 0b4c 1c36
00000210: 4aeb 76b6 8776 ed34 0874 50b7 cdd0 bfb5
00000220: 5424 cab5 a638 4a35 152c 8d36 974f 9ab4
00000230: 203b 2635 ce01 7736 7550 6db5 ed78 0737
00000240: 8cf5 0136 3b7e 25b6 7300 3337 57e1 3a37
00000250: 6d94 19b6 f3ae 0db7 c156 0436 983d 92b5
00000260: 141f 9136 3e52 2eb6 8fc4 08b6 f3c3 2db5
00000270: e2e4 06b7 70a2 a7b6 bc99 0736 aedc 3037
00000280: 75d3 ce36 f9ad 28b6 e3c5 cb36 6cae 9435
00000290: 769c fdb5 e9b7 22b7 cf1b 6fb5 0aef 4337
000002a0: a92c 4334 ec39 2336 9138 e5b6 7359 9bb5
000002b0: b58f 1f36 81e1 8eb5 7a83 9fb6 27e6 0136
000002c0: 7066 0cb7 a43b fcb5 3189 d9b5 a09e 3737
000002d0: 2b40 5737 df98 0a36 b06e 24b7 ef60 2db6
000002e0: 04dd 8736 ff13 ffb5 932d 54b6 5e87 1d37
000002f0: 6aec 9336 9578 f035 2a40 3135 7315 8bb5
00000300: 5361 ecb5 a720 23b7 bacc ee36 ef96 1935
00000310: 5f3d 1936 3de1 05b7 f16b be34 1a84 3136
00000320: 9343 bd35 a78b 82b6 c813 0137 8725 9eb5
00000330: 1b6e 16b6 b07f 9534 6a82 a4b3 ff92 dab5
00000340: 0aeb 6835 072b ba35 f820 f336 0122 27b7
00000350: f145 e8b5 31a7 85b5 7045 2537 bbf7 a8b4
00000360: b157 aeb5 930c 9736 599e 26b7 5d94 5fb6
00000370: 252a 8034 1745 7e36 a54e 8db5 dc8b 57b7
00000380: 74b9 b7b4 3180 1e37 8e2d fb35 8369 0334
00000390: 1342 b2b6 bf04 3db5 6dc1 8136 10e8 81b6
000003a0: 1f5c b9b5 76dd a9b4 c682 d4b3 4ee1 2735
000003b0: 6334 c536 bce5 3fb7 6c59 4436 2bc5 5cb6
000003c0: a5a8 b135 9f38 2536 e401 bd36 d2e8 a235
000003d0: 9fe0 9bb5 067f 12b7 a10d 85b5 a25e c0b6
000003e0: 9114 62b6 9917 d935 063e 1636 6546 cab5
000003f0: 9807 c235 821a aeb6 e8f2 0737 92ee 4b37
-5.796465e-06 -1.3697509e-06 4.5854194e-06 -4.0917996e-07 -4.189693e-06 -7.859692e-06 1.0015249e-06 8.663527e-06
6.2795184e-06 9.435604e-06 1.1363531e-05 -4.7361586e-06 -4.8199004e-06 -2.173242e-07 -1.0996953e-07 1.5404821e-06
9.483784e-06 2.1847864e-06 3.774168e-07 1.0361957e-06 -8.185224e-06 -8.773215e-06 -9.815196e-07 -2.1952774e-06
8.505667e-06 2.427704e-07 4.495821e-06 -5.324358e-06 -7.334086e-07 -8.554634e-06 1.1966843e-05 4.6034447e-06
9.49953e-06 -8.30385e-06 1.6233697e-06 -7.541731e-06 -5.3223866e-06 -5.1555713e-08 2.6769052e-07 1.2919264e-06
7.2900446e-07 -1.3085046e-06 5.1981874e-06 2.69726e-06 -4.6556956e-06 -2.653985e-06 2.0943614e-06 -1.10055e-05
1.2677473e-05 3.6195045e-06 8.24251e-06 -1.5224406e-06 3.29614e-06 -6.3297025e-06 1.8647526e-06 1.829346e-06
4.5740126e-06 9.023966e-07 1.363328e-06 4.1533966e-07 -6.2897025e-06 5.6927493e-06 -4.136135e-06 -7.208972e-06
2.85816e-06 1.6249581e-06 1.1053708e-06 9.674523e-06 1.4047786e-06 -4.1411033e-07 2.3965722e-06 1.978123e-06
-1.8778552e-06 7.5876574e-07 -8.945241e-06 1.9025167e-06 1.420322e-06 -1.8421919e-06 9.207457e-08 -1.6626605e-06
5.3965146e-06 1.2493351e-05 -1.1474718e-06 -5.6481554e-06 1.2816225e-06 -7.737686e-06 -1.1079969e-06 -3.651834e-06
-1.2539006e-05 -1.286006e-05 7.410032e-06 1.2523025e-05 -4.7198264e-06 9.850294e-06 -4.646912e-06 -1.9859315e-06
7.336864e-06 1.8964962e-06 6.6003035e-06 -9.956868e-07 -7.933492e-06 -5.498702e-06 1.2524738e-05 6.2161125e-06
9.009927e-06 -3.3649897e-06 -1.3620361e-06 -1.7226733e-06 1.0851173e-06 -3.8881376e-06 -4.581853e-06 -1.6487066e-06
9.692143e-07 -6.628318e-06 2.670868e-06 1.2433113e-05 -5.2171285e-06 5.0431627e-06 -3.3795764e-06 -5.0669273e-06
7.2697327e-07 1.0698076e-06 3.9427923e-06 4.1737678e-08 -4.776163e-07 -1.5458321e-06 -3.9007305e-06 5.4055163e-06
2.994396e-06 -4.6045338e-07 -3.8959947e-06 2.3290074e-06 -3.6793813e-06 4.423093e-07 -1.2424782e-05 -1.4291378e-06
-1.5060746e-06 7.53333e-07 4.2072593e-06 -2.8742645e-07 6.1925857e-07 3.6806919e-06 -8.840646e-07 8.074782e-06
1.9365425e-06 -2.4660392e-06 1.0669336e-05 1.113893e-05 -2.2885172e-06 -8.444988e-06 1.972003e-06 -1.0895774e-06
4.3249547e-06 -2.5975892e-06 -2.0379991e-06 -6.4732666e-07 -8.040313e-06 -4.995898e-06 2.0206053e-06 1.05417985e-05
6.1638953e-06 -2.5135216e-06 6.0729085e-06 1.1077623e-06 -1.8895505e-06 -9.698772e-06 -8.9074905e-07 1.1678561e-05
1.8177037e-07 2.4322608e-06 -6.831317e-06 -1.1574433e-06 2.3776495e-06 -1.0645455e-06 -4.753875e-06 1.9356464e-06
-8.368501e-06 -1.8792821e-06 -1.6207688e-06 1.0944583e-05 1.2829939e-05 2.0652585e-06 -9.800933e-06 -2.5835432e-06
4.049043e-06 -1.90048e-06 -3.161699e-06 9.389447e-06 4.4084636e-06 1.7916487e-06 6.603101e-07 -1.036255e-06
-1.7611695e-06 -9.72316e-06 7.116786e-06 5.721658e-07 2.28345e-06 -7.97986e-06 3.5468796e-07 2.6451949e-06
1.4101264e-06 -3.8905596e-06 7.693605e-06 -1.1782839e-06 -2.2415832e-06 2.7846318e-07 -7.660567e-08 -1.6285047e-06
8.676876e-07 1.3870603e-06 7.2458024e-06 -9.961893e-06 -1.7305703e-06 -9.957931e-07 9.850934e-06 -3.1472686e-07
-1.2989532e-06 4.5016145e-06 -9.931239e-06 -3.3315948e-06 2.3872522e-07 3.7889165e-06 -1.0528207e-06 -1.2847562e-05
-3.422134e-07 9.447381e-06 1.8714215e-06 1.223871e-07 -5.3125054e-06 -7.0414893e-07 3.8670173e-06 -3.871515e-06
-1.3810385e-06 -3.1639837e-07 -9.895807e-08 6.254021e-07 5.877156e-06 -1.1437976e-05 2.9258326e-06 -3.2897321e-06
1.323661e-06 2.4619874e-06 5.632859e-06 1.21377e-06 -1.1613773e-06 -8.731853e-06 -9.913239e-07 -5.7330626e-06
-3.3688596e-06 1.6174628e-06 2.2387844e-06 -1.507066e-06 1.4456336e-06 -5.18869e-06 8.103183e-06 1.2155289e-05

b_classifier.q.0.bias f4 [128]
00000000: 999e f2b6 7388 0b35 6a8d 04b6 ebf8 1b36
00000010: d84c e735 0c22 0b37 8314 ea35 b2d8 aab5
00000020: e20e 1db6 e987 56b7 81f6 adb5 80b0 29b4
00000030: bc80 d7b5 4fea 0836 7670 5737 eb6c 4eb7
00000040: 2359 4137 5366 30b7 ec3b 1cb6 a6bc 4036
00000050: eee2 9bb6 426b 5737 eda7 fa35 4be1 36b7
00000060: 2976 57b6 e24c 05b7 0e9e fdb6 162c a0b6
00000070: f823 56b5 abc0 5237 3e9e 45b7 720b e835
00000080: 18cb 0036 ed12 2636 0724 f0b5 0f26 0fb7
00000090: f111 10b7 febc acb6 72f5 df35 bb61 12b5
000000a0: 2986 3735 304d 5237 86ec e935 543f 06b7
000000b0: e80f 8434 b567 1b37 5d83 0036 547a 9c35
000000c0: 09c3 bc35 5286 ee36 5c98 56b7 9e9c 0937
000000d0: f2d4 20b6 89b4 6d33 36f3 06b6 352c 94b5
000000e0: 5f5f 2637 4754 5737 511c 2fb7 59d5 0b36
000000f0: baea f735 0ed0 2136 ea7c 5db0 1a7b 3337
00000100: d078 c9b5 e5c1 94b6 8743 3137 40fb 59b6
00000110: 4f55 20b7 efdf 2ab7 a5f8 35b6 d306 1936
00000120: a40c 0f36 dce7 4a37 1f50 e036 503a c4b0
00000130: 893c 3237 515f 64b6 7c8a c2b5 f336 38b7
00000140: a36a b8b5 ec7b 2b37 d593 f4b6 03d9 b4b5
00000150: 3d16 dbb5 60c0 c9b6 506f a836 7985 9cb4
00000160: 9d23 af36 ae81 3ab7 b788 0137 0daa 04b5
00000170: 44d2 57b7 3519 f7b6 4e98 1037 fb4e 95b6
00000180: 2ab2 1ab6 7add 57b7 30aa 54b6 71b7 a836
00000190: 3710 5a36 0548 3f33 bfdb b9b5 058c f8b5
000001a0: b491 5234 2f09 12b7 6ebf 1236 c843 5437
000001b0: f76d 1b36 5907 02b6 3cca e534 777b 55b7
000001c0: c63f f435 abbb 5737 5e76 6d36 3828 28b4
000001d0: bbc4 5e36 6796 3fb7 688b 5737 824a 09b6
000001e0: a021 1d36 be5c bfb6 b996 2837 0500 52b7
000001f0: 73c3 57b7 7850 abb4 0cf8 4036 21d4 9436
-7.230625e-06 5.1980095e-07 -1.9751847e-06 2.324169e-06 1.7233206e-06 8.292973e-06 1.7440328e-06 -1.2729054e-06
-2.3403486e-06 -1.2787038e-05 -1.2961247e-06 -1.5803562e-07 -1.6056215e-06 2.0401965e-06 1.2841183e-05 -1.2303916e-05
1.152445e-05 -1.0514242e-05 -2.328069e-06 2.8720037e-06 -4.645778e-06 1.28399715e-05 1.8675324e-06 -1.09005005e-05
-3.2106275e-06 -7.945318e-06 -7.5583876e-06 -4.773504e-06 -7.9773554e-07 1.2561834e-05 -1.1778959e-05 1.7288678e-06
1.9191702e-06 2.4746944e-06 -1.7891879e-06 -8.532325e-06 -8.587246e-06 -5.148001e-06 1.6686229e-06 -5.4531455e-07
6.836804e-07 1.2534947e-05 1.742869e-06 -8.001767e-06 2.459849e-07 9.262866e-06 1.914995e-06 1.1658508e-06
1.4063854e-06 7.1085897e-06 -1.2790868e-05 8.202302e-06 -2.3965808e-06 5.534506e-08 -2.0109123e-06 -1.1039725e-06
9.916576e-06 1.2834621e-05 -1.0437406e-05 2.0836799e-06 1.8471248e-06 2.4111973e-06 -8.0576845e-10 1.0697893e-05
-1.5010828e-06 -4.433316e-06 1.0565745e-05 -3.2481767e-06 -9.556606e-06 -1.0184928e-05 -2.7115832e-06 2.2802749e-06
2.1316018e-06 1.2094122e-05 6.6850475e-06 -1.427745e-09 1.0623721e-05 -3.403013e-06 -1.4494431e-06 -1.09800485e-05
-1.3740104e-06 1.0221247e-05 -7.2889766e-06 -1.3474204e-06 -1.6323244e-06 -6.012662e-06 5.0197486e-06 -2.9154378e-07
5.2195523e-06 -1.1116657e-05 7.720831e-06 -4.942129e-07 -1.2863955e-05 -7.364108e-06 8.61853e-06 -4.4497406e-06
-2.3051493e-06 -1.2866565e-05 -3.1689524e-06 5.0281456e-06 3.249397e-06 4.4536154e-08 -1.3847529e-06 -1.8518191e-06
1.961078e-07 -8.704416e-06 2.1867122e-06 1.2651966e-05 2.3160808e-06 -1.9375786e-06 4.280172e-07 -1.2724536e-05
1.8197977e-06 1.28586935e-05 3.538465e-06 -1.5660851e-07 3.319509e-06 -1.1419505e-05 1.2847457e-05 -2.045796e-06
2.3414395e-06 -5.70304e-06 1.0048673e-05 -1.251698e-05 -1.2860505e-05 -3.190978e-07 2.8754612e-06 4.4354388e-06

b_classifier.q.2.weight f4 [128, 128]
00000000: d915 1fb6 9722 4237 7797 c835 9671 e6b5
00000010: b0e3 2cb6 dd56 be36 ff11 ea35 ed2c 2c36
00000020: 7786 d335 28d6 fbb6 7732 f5b6 cb4e 45b7
00000030: eec4 3a37 fe99 4137 dc2e efb5 f4dd b3b5
00000040: 251d 8836 0065 36b6 949b da36 539c e235
00000050: 6824 e2b5 2344 56b7 8881 4437 6883 1ab7
00000060: 7e3a ccb5 3df2 0136 b691 40b6 9f54 01b5
00000070: d859 4fb5 6050 a136 cbcc 4836 25cd e335
00000080: 05c3 57b6 aa42 74b6 a726 ac36 e6b8 d6b6
00000090: 43f0 9eb6 7c76 cd35 b72f a2b5 377e 03b7
000000a0: 11b9 4d37 7d87 0a36 e5eb e335 e484 e2b5
000000b0: 080f fcb5 70d2 4f37 f4cc 5137 346a 0435
000000c0: 402c 9334 c9c1 4d37 f7a4 57b7 2849 4ab7
000000d0: 1221 c7b5 7580 b2b5 b29c 49b7 6462 56b7
000000e0: 7db4 94b5 ce8d 9535 775a 3236 1838 9e36
000000f0: 5b70 4d37 00ce c536 82f4 f735 7f58 03b6
00000100: 9a11 8236 3c39 0037 8d41 51b7 0c79 15b7
00000110: 3f03 4ab7 6938 2ab6 355e 7c36 508d 02b6
00000120: a64d 2db7 f32b ce36 e4c6 aeb6 6759 b435
00000130: 7d7e f335 d368 0636 3214 e5b5 a8a1 5b36
00000140: e095 1737 db9c b6b5 3d12 5637 75c4 3537
00000150: 60e9 3d37 7fbe 1536 43a4 4936 caaf 8bb6
00000160: 3395 c936 56ee c036 715c 0db6 2148 38b7
00000170: f7c7 3eb7 33d2 57b7 5f7f 7836 c488 8236
00000180: eb8c ab36 4ee9 0c36 3bf4 a935 2b75 3d37
00000190: 0841 fbb6 597f bc36 1dff 72b3 a3ba a3b5
000001a0: c864 d735 df34 96b6 09fb ceb6 8e9e 36b7
000001b0: 5644 3eb7 0f6b adb5 235d aa36 ea35 c335
000001c0: 9958 6735 77fe 1fb6 b0f6 5237 a863 3337
000001d0: 5d9a 0ab6 d439 3c37 ebbb 94b5 8085 a835
000001e0: da04 34b7 b30d 55b7 c5c6 2237 97cd 1036
000001f0: 8df2 1c37 e9e6 0f37 3138 5bb6 1ac7 6eb6
00000200: 259b 2db6 6eb4 4eb5 dd4e 0236 b29f 4736
00000210: a84f f735 e113 09b5 be12 42b7 9881 4137
00000220: d93b dfb5 3c17 3fb6 91e6 a935 2731 3bb6
00000230: 30f8 15b7 2367 09b6 809e 8cb6 efee 1037
00000240: a3d7 57b7 741c b9b6 7f66 5cb6 e508 ddb5
00000250: 6bda 30b6 60eb 2437 7bb7 55b4 565b 0136
00000260: 0806 d5b5 44cb 1834 c9b5 7eb6 f00a 1037
00000270: 3780 e336 859c 2bb7 8964 4435 4a17 0336
00000280: 2ab3 2a36 aea4 51b7 cc00 22b7 0016 acb6
00000290: 5805 2cb6 0735 6435 0506 1c36 2c3d 6036
000002a0: 0361 7836 8361 4ab7 1b30 2836 f956 4db5
000002b0: bafe afb6 2907 8235 3418 3e36 e55e 1cb7
000002c0: abb8 3fb6 f899 0b37 24db ba36 7896 35b5
000002d0: 41a5 57b7 95c6 5237 f39d 4737 577d 24b7
000002e0: f7c4 b935 de55 b0b5 b7f4 c9b5 9050 1ab6
000002f0: 47f0 3e37 ddde 21b6 adf8 8db5 8af8 49b7
00000300: 7293 0736 fe15 f035 d57b 2f35 326b a9b5
00000310: a825 e535 0c54 22b5 ec93 b5b6 d526 afb6
00000320: a12d df36 d57a 2637 189b 1836 68ef cf35
00000330: bd73 53b7 2d94 15b7 c2f5 50b7 84d9 9a35
00000340: 9664 34b7 13f2 a634 18b6 5037 8dc8 2136
00000350: 898f ef36 be0c f2b6 9ee9 2737 d8bb a435
00000360: 530c 0637 0ac3 25b7 6e22 0ab6 ad7a 1036
00000370: 1c43 6ab6 96d0 80b6 bd83 2eb7 4a7a 34b7
00000380: 62b1 0b37 8f09 f3b5 12cd 3c37 d659 4537
00000390: 7f22 1db7 0657 98b6 34f1 1cb6 b831 60b6
000003a0: 8b76 8936 fe81 c436 3d19 29b7 ae7f 57b7
000003b0: 390c 5936 730e e234 49e1 fe36 565a fd36
000003c0: af4b 1236 003c 5037 8620 0db6 b8ba 18b7
000003d0: cbdb 2837 bdb1 33b7 0883 1136 8501 b8b6
000003e0: 116b cdb4 bbfd c235 b287 0937 20eb 3e37
000003f0: 4592 55b7 111d 02b6 858f 69b6 7393 a936
-2.3705563e-06 1.1571355e-05 1.4945243e-06 -1.7169393e-06 -2.5762529e-06 5.6725535e-06 1.7439596e-06 2.5656147e-06
1.575986e-06 -7.505314e-06 -7.307444e-06 -1.176046e-05 1.1132315e-05 1.15395505e-05 -1.7820525e-06 -1.3401136e-06
4.0565087e-06 -2.7178903e-06 6.515018e-06 1.6883808e-06 -1.6848908e-06 -1.2771258e-05 1.1712669e-05 -9.209711e-06
-1.5216208e-06 1.93635e-06 -2.8695044e-06 -4.8179385e-07 -7.724425e-07 4.807531e-06 2.9921528e-06 1.6972523e-06
-3.2151013e-06 -3.6397637e-06 5.130499e-06 -6.399222e-06 -4.736737e-06 1.5308174e-06 -1.2083827e-06 -7.837595e-06
1.2262041e-05 2.0642467e-06 1.6981472e-06 -1.6876988e-06 -1.8779838e-06 1.2387158e-05 1.250509e-05 4.932838e-07
2.741308e-07 1.2264071e-05 -1.28534075e-05 -1.2057171e-05 -1.483628e-06 -1.3299419e-06 -1.2017017e-05 -1.2778302e-05
-1.1079388e-06 1.1142636e-06 2.6576724e-06 4.715297e-06 1.2245112e-05 5.895039e-06 1.8474095e-06 -1.9572033e-06
3.876351e-06 7.64272e-06 -1.2472633e-05 -8.9092755e-06 -1.2040894e-05 -2.536481e-06 3.7605762e-06 -1.9453764e-06
-1.03296825e-05 6.144395e-06 -5.208758e-06 1.3437065e-06 1.8141724e-06 2.0028572e-06 -1.7067707e-06 3.272764e-06
9.035197e-06 -1.3605708e-06 1.275964e-05 1.0834182e-05 1.1319615e-05 2.2313613e-06 3.0046947e-06 -4.1629874e-06
6.007636e-06 5.749792e-06 -2.1064445e-06 -1.09840485e-05 -1.137144e-05 -1.2863939e-05 3.702902e-06 3.8902235e-06
5.112602e-06 2.0997427e-06 1.2662562e-06 1.1292558e-05 -7.4879536e-06 5.617662e-06 -5.657704e-08 -1.2198765e-06
1.604808e-06 -4.4765034e-06 -6.1685028e-06 -1.0884962e-05 -1.1340793e-05 -1.2920663e-06 5.0772373e-06 1.4544323e-06
8.618313e-07 -2.3840964e-06 1.2574412e-05 1.0692434e-05 -2.0653454e-06 1.1219137e-05 -1.1081551e-06 1.2555829e-06
-1.0729966e-05 -1.2698979e-05 9.702232e-06 2.1577341e-06 9.354798e-06 8.577227e-06 -3.266625e-06 -3.5580656e-06
-2.5869315e-06 -7.700354e-07 1.9417414e-06 2.9746266e-06 1.8426117e-06 -5.1065405e-07 -1.1567665e-05 1.153387e-05
-1.6632213e-06 -2.8474742e-06 1.2658585e-06 -2.7893782e-06 -8.938878e-06 -2.0474624e-06 -4.190777e-06 8.6387e-06
-1.28652055e-05 -5.516742e-06 -3.2842215e-06 -1.6468372e-06 -2.635318e-06 9.829964e-06 -1.990392e-07 1.9275662e-06
-1.5871492e-06 1.4230051e-07 -3.7954762e-06 8.585615e-06 6.7800534e-06 -1.0228837e-05 7.316199e-07 1.9534077e-06
2.5436261e-06 -1.2495713e-05 -9.656138e-06 -5.1285606e-06 -2.5633108e-06 8.5013784e-07 2.3249315e-06 3.3414208e-06
3.7011348e-06 -1.2062842e-05 2.5061952e-06 -7.6495013e-07 -5.2450605e-06 9.687839e-07 2.8326294e-06 -9.320419e-06
-2.8568709e-06 8.320894e-06 5.5687433e-06 -6.7646715e-07 -1.2853475e-05 1.2563211e-05 1.18981e-05 -9.804345e-06
1.3840898e-06 -1.3138012e-06 -1.5046888e-06 -2.2994682e-06 1.1380826e-05 -2.4120593e-06 -1.0577693e-06 -1.2038401e-05
2.0202392e-06 1.7887794e-06 6.537278e-07 -1.2622679e-06 1.7072789e-06 -6.0472007e-07 -5.4114407e-06 -5.219927e-06
6.65123e-06 9.92297e-06 2.2740041e-06 1.5492378e-06 -1.26035275e-05 -8.915592e-06 -1.2454986e-05 1.15372e-06
-1.0752256e-05 3.1096042e-07 1.2440163e-05 2.4107605e-06 7.1394647e-06 -7.2136454e-06 1.0008369e-05 1.2273622e-06
7.989892e-06 -9.8801775e-06 -2.0583643e-06 2.1529079e-06 -3.490778e-06 -3.83898e-06 -1.0401881e-05 -1.0757309e-05
8.326346e-06 -1.8107693e-06 1.125342e-05 1.1763032e-05 -9.365961e-06 -4.540084e-06 -2.338621e-06 -3.3407541e-06
4.0967184e-06 5.8563883e-06 -1.0079061e-05 -1.2844726e-05 3.2342634e-06 4.2106294e-07 7.5960165e-06 7.550504e-06
2.179975e-06 1.2411736e-05 -2.1029568e-06 -9.10338e-06 1.0064755e-05 -1.0710614e-05 2.1682954e-06 -5.483804e-06
-3.8262127e-07 1.4527972e-06 8.19743e-06 1.1379627e-05 -1.2729845e-05 -1.9388428e-06 -3.4803245e-06 5.053758e-06

b_classifier.q.2.bias f4 [128]
00000000: a749 2137 7f21 a4b6 13a3 1437 a198 9bb5
00000010: b56e e9b5 928a 44b4 a2ed 5e37 c44d e735
00000020: acca 8035 f7f7 98b6 a5dd e8b6 7267 fb35
00000030: 75a5 2237 a8dc ef35 332c 90b4 d58d 4cb6
00000040: 3207 3736 61f3 88b5 d8e2 53b7 7b28 9b36
00000050: 2558 4c36 e77c 1837 4bea 4d37 a546 00b6
00000060: bcc4 d0b5 3745 85b6 b068 b636 d180 f935
00000070: 583d a3b6 cd9a 2eb5 ab0f c636 4555 2bb6
00000080: 24f2 9fb5 45ad d935 500f 2737 635c ce35
00000090: 7ee9 4537 2cd0 0036 1973 42b7 924b 53b7
000000a0: 89a3 5936 62f9 f3b4 68d2 0c37 827b fd32
000000b0: 8793 a536 089a a7b6 3ec8 51b7 6979 1d36
000000c0: 2950 ad36 a35c d935 02d7 57b7 2ced 59b7
000000d0: 7cf9 bd36 73cf 3db7 abab 1036 3421 3535
000000e0: 46a4 8a35 60e5 ccb5 a9fd 17b7 f91c c136
000000f0: 428f 3d36 dd13 e435 468b 09b6 79b2 ad36
00000100: f354 97b5 a28d 8e34 0c4c cc35 bde3 a835
00000110: a305 5137 f445 6436 92e1 9633 da13 28b7
00000120: 56e8 50b6 b0d0 e5b5 f131 4b36 5873 4537
00000130: 6889 e2b6 40b9 4037 2d3d 96b6 aea8 09b7
00000140: 5924 fab5 ff58 e3b5 333a 37b7 6dfa 5537
00000150: ccaf 0eb6 e63e fdb5 4095 3636 45bf 02b6
00000160: d6d8 34b7 dfe5 7536 85cd 8036 9f89 cf33
00000170: 64a6 4236 f6aa 5ab7 6e2b 00b6 d8c6 4eb7
00000180: 5964 20b7 7263 1537 8665 ffb5 1898 4f37
00000190: b131 bdb6 8953 b2b6 4dce 1d37 958b 8835
000001a0: 15e3 39b7 7832 ee35 67eb 53b7 b078 9936
000001b0: 778c 4a37 ac43 3eb7 6abe c735 5c97 5637
000001c0: 9c9f 1a36 c2af 4037 a078 0fb5 b797 fb35
000001d0: ca2e 4cb7 c3a1 5437 72cc f135 4493 0db6
000001e0: 1c6f 4237 45e0 1b36 c30c a7b6 e818 8f36
000001f0: 8035 01b6 08f3 ee35 079e ae36 f04e 02b6
9.613496e-06 -4.8914803e-06 8.859456e-06 -1.1592821e-06 -1.7392073e-06 -1.8304334e-07 1.3287559e-05 1.7233474e-06
9.595728e-07 -4.55882e-06 -6.9399416e-06 1.8731064e-06 9.694476e-06 1.7871107e-06 -2.685425e-07 -3.0480926e-06
2.7273313e-06 -1.0203622e-06 -1.2629396e-05 4.6240725e-06 3.0449676e-06 9.088987e-06 1.2273503e-05 -1.9114607e-06
-1.5554465e-06 -3.9717665e-06 5.43621e-06 1.8589436e-06 -4.86492e-06 -6.5045316e-07 5.902684e-06 -2.553062e-06
-1.1916895e-06 1.6218188e-06 9.957541e-06 1.5375084e-06 1.1796479e-05 1.9194658e-06 -1.1590099e-05 -1.2594175e-05
3.243071e-06 -4.5443727e-07 8.393639e-06 2.9509241e-08 4.9345576e-06 -4.9949194e-06 -1.2503993e-05 2.3465493e-06
5.1651336e-06 1.6194721e-06 -1.2865059e-05 -1.2989429e-05 5.6616827e-06 -1.1313578e-05 2.1557596e-06 6.747607e-07
1.0329611e-06 -1.5265941e-06 -9.059361e-06 5.755221e-06 2.8246582e-06 1.6993105e-06 -2.0495659e-06 5.1765787e-06
-1.12751e-06 2.6552613e-07 1.5221317e-06 1.2583256e-06 1.2458683e-05 3.4015366e-06 7.02595e-08 -1.0018202e-05
-3.1129653e-06 -1.7122566e-06 3.0278427e-06 1.1768971e-05 -6.751321e-06 1.1487224e-05 -4.47747e-06 -8.20511e-06
-1.863703e-06 -1.6938719e-06 -1.0921201e-05 1.2754096e-05 -2.1261976e-06 -1.8868275e-06 2.7206988e-06 -1.9482843e-06
-1.0779322e-05 3.6641648e-06 3.838623e-06 9.664222e-08 2.9005105e-06 -1.30336175e-05 -1.9098766e-06 -1.2324854e-05
-9.560107e-06 8.904246e-06 -1.9028528e-06 1.2373574e-05 -5.6384238e-06 -5.314538e-06 9.405962e-06 1.0173413e-06
-1.1079731e-05 1.774707e-06 -1.2631389e-05 4.573805e-06 1.2072843e-05 -1.1340639e-05 1.4882073e-06 1.2790635e-05
2.3040693e-06 1.1485014e-05 -5.3447184e-07 1.8745112e-06 -1.21702415e-05 1.2673848e-05 1.8015401e-06 -2.1096357e-06
1.1589171e-05 2.3227342e-06 -4.9784735e-06 4.2646316e-06 -1.925364e-06 1.7803113e-06 5.204001e-06 -1.9417457e-06

b_classifier.fcc.weight f4 [2, 2, 768]
00000000: 3f46 3cbd d6be 073d c405 2d3d 9777 1a3c
00000010: 134b e63c ae2f 2f3d be47 ca3c 77cd 6d3c
00000020: 0d23 a2bc bfc3 21bb e893 77bd 03cd ec3c
00000030: 891a bcbc 1198 d23c 142f adbc 49aa 073d
00000040: 50a1 a0bb 3e57 46bb 480a 993c 0516 863c
00000050: 049e b73b 4e5c 823c c4d1 0a3d 22a0 1c3d
00000060: 4fa2 0abd 0638 9f3b 19cf 1fbc a94d 183d
00000070: 99ad c0bc e843 e23c 567d 013c 98ab 54bb
00000080: 08eb 91bc 34e3 d23c 7ee8 4b3d 4561 433d
00000090: aeff 8bbc f6fc 703c 8464 5dbd d8d6 c23c
000000a0: dc95 b0ba 80c4 7fbc 983d f6bc e830 81bc
000000b0: c4a9 00bd bbd8 bf3b fbab 263b 6e37 973c
000000c0: b874 f63a c500 003d 9bee 69bc 29e9 84bb
000000d0: c700 77bc 55c6 bc3c 6318 99bc 9754 f6bc
000000e0: e759 443c b59b c0ba d970 dbbc 86d3 893c
000000f0: 7e70 2d3d 0775 0c3b 93ac 0e3d 5210 99bc
00000100: cb73 75bc c797 b1bc e7ab 0d3d 4136 76bc
00000110: be4f 803d 1d4f 893c c483 17bc a221 823c
00000120: 8bc7 dfb9 8581 3a3d 4cb3 9e3c a64c d1bc
00000130: d2d7 333b ec50 953c 12c2 d93b 2aef 8f3c
00000140: 3421 f83c 92ae 45bc 819e 83bc 5323 83bc
00000150: f7cd 04bd 01e9 e53b 7106 b03c c9f1 2bbc
00000160: 6ed0 40bb 7360 adba 0cc1 d0bc 92e5 07bc
00000170: 9a49 a83b 999a ccbc e3f2 86bc 09c2 863b
00000180: 4a00 b1bb 9453 5cbd 7699 e73c 4638 883c
00000190: c774 ca3c 9045 22bc 71ee 203d d1de 39bd
000001a0: dd77 a3bb f3b5 163d 5e6c 97bc e5ee 5c3c
000001b0: 3a93 673b e921 d93c f8a4 2f3c b9aa 9f3c
000001c0: 8aa8 083c 05e2 cfbb 9b8f e4bc de9e 59bc
000001d0: e232 ffbb 6571 e63b 95fe 143c f5f6 14bd
000001e0: 1cb3 41bb d76d da3c b1aa d4bc 1e68 33bb
000001f0: 077a ce3c 75c6 893c 2100 d23c 13f8 463b
00000200: 184d b939 622f 05bc 5847 40bc fd82 a4bb
00000210: 647c 8c3c 9992 9c3c 6136 9e3c e01f 05bd
00000220: 9738 b4bc 4eea e03c 500e 11bd 2490 0a3b
00000230: 4539 93bc 5285 b1bc f6bf aabc 2eec 57bd
00000240: 43e9 df3c d35d 4937 fa9b d2bc 2f5e f0ba
00000250: b96f 06bc 6e2b 1cbc 9f05 d7ba 2bde 713d
00000260: b18d b1bc 8caf 033b 00df d93a 6ec7 ecbc
00000270: 516c 04bc 6478 50bc 7c96 84bc bd3e ef3c
00000280: f3ce ccbc 8205 b83c d2a7 923b b53e 8238
00000290: f72e 5dbc 2c28 203d 78e5 713a 9730 e5bc
000002a0: e378 b8bc bfbd 3a3d e871 253c 7f20 f8bc
000002b0: def1 22bd d1c8 8cbc 5330 e03c b88a 823b
000002c0: ce7e 343d 647c cb3c a558 3c3b cb05 573c
000002d0: db4e 1bbd efb7 ab3c c290 0dbb 048a ff3c
000002e0: ef49 393c adfb 413c 9f3b 88bc 4bb0 0ebd
000002f0: a230 5eba 2951 b4bb 8aeb 86bd 18c5 c3bc
00000300: 856a dcba b5a0 86bc 118f 393d 664d a03a
00000310: 9ed8 17bd 6dba 4fbc 372f 963c 4ff2 a83a
00000320: 3aae a6bc 3d5b a13c 794e bc3b b999 073b
00000330: ecf6 94bc e21a 88bc 11e6 333d 8672 efbb
00000340: c27e 18bd 9ba6 d7b9 d5ed e8bb b778 a83d
00000350: f0e3 8abc 5996 2abd fed5 243d 4245 d03c
00000360: d170 a0bc d6df 77bd cc52 f23c 5339 933c
00000370: cfda d03b bcd2 01bd 630c 6fbc a5ea 88bc
00000380: ca7b 713c 0951 0e3b 442c 4bbb 9ab0 a53b
00000390: b43f 333d c231 a6bc 6cbf a23c ce65 123d
000003a0: 4610 c2bc d266 52bd fd09 e03b ae50 c03b
000003b0: 7aa3 e23c 0c84 843d 0f0c 9ebb c10d 16bd
000003c0: 642a 7b3c 1c54 e9bc 6d2f 073d fd40 973b
000003d0: 28dd 9a3c 4222 923c b5a4 9dbb 329c 8bbc
000003e0: 9396 ad3b 2cc3 3f3c 3018 b2bc d354 b6ba
000003f0: 9a3b 933c 56e8 08bc 5773 043d df8d 5bbc
-0.04596543 0.03314098 0.042241827 0.0094279265 0.02811197 0.04277008 0.024692412 0.014514319
-0.019792104 -0.0024683324 -0.06044379 0.028906351 -0.022961872 0.025707277 -0.021140613 0.03312138
-0.0049020424 -0.0030264403 0.01868166 0.016367922 0.0056035537 0.015913155 0.033891454 0.038238652
-0.033846196 0.0048589734 -0.009753966 0.037183437 -0.023520278 0.02762027 0.007903418 -0.003245091
-0.017812267 0.025743105 0.04978227 0.047700185 -0.017089691 0.014708748 -0.054050937 0.023784086
-0.0013472396 -0.015610814 -0.030058667 -0.01577039 -0.0314119 0.0058546937 0.0025432098 0.018459048
0.0018803095 0.031250734 -0.014278079 -0.004056115 -0.015075869 0.02304379 -0.018688386 -0.030069632
0.011984325 -0.0014694842 -0.026787208 0.016824495 0.04234361 0.0021432058 0.03483255 -0.01868454
-0.0149812205 -0.021678818 0.034587767 -0.015027584 0.062652096 0.016761357 -0.009247724 0.015885178
-0.00042682546 0.045533676 0.019372605 -0.025549244 0.0027441871 0.018227063 0.0066454494 0.017570097
0.03028927 -0.012065547 -0.016066791 -0.016008055 -0.032422986 0.0070163016 0.021487447 -0.010494658
-0.0029421109 -0.0013227597 -0.025482677 -0.00829448 0.005135727 -0.024976062 -0.01647324 0.0041124863
-0.005401646 -0.053790644 0.028271418 0.016628396 0.024713887 -0.00990428 0.039289895 -0.04537851
-0.004988654 0.036794614 -0.01848429 0.013484691 0.0035335557 0.026505427 0.010720484 0.019490587
0.008340964 -0.0063440823 -0.027900508 -0.013282506 -0.007788048 0.0070325607 0.0090939 -0.03636833
-0.002955622 0.026663704 -0.025960298 -0.002737529 0.025204672 0.016818264 0.025634827 0.0030360266
0.0003534339 -0.008128973 -0.01173576 -0.005020498 0.017149158 0.019112872 0.01931304 -0.0325011
-0.02199964 0.027455475 -0.03541404 0.0021143043 -0.017971644 -0.021670017 -0.020843487 -0.052715473
0.027332908 1.2002379e-05 -0.025709141 -0.0018338616 -0.008205348 -0.009531839 -0.0016404873 0.059049767
-0.021674009 0.0020093648 0.0016622245 -0.02890369 -0.008082465 -0.012724016 -0.016185038 0.02920472
-0.025001025 0.022463564 0.004475572 6.210563e-05 -0.013499967 0.03910081 0.0009227614 -0.027977271
-0.02251858 0.045591112 0.010097958 -0.030288933 -0.039781444 -0.0171856 0.027366793 0.0039838217
0.044066243 0.024839588 0.002873936 0.01312394 -0.037917 0.02096173 -0.0021601175 0.03119374
0.011309131 0.011839789 -0.016629992 -0.034836095 -0.0008475875 -0.005502839 -0.06587894 -0.023897693
-0.0016816413 -0.016434053 0.045302454 0.0012230098 -0.037071817 -0.012678725 0.01833306 0.0012889596
-0.02034675 0.019696826 0.0057466594 0.002069099 -0.018184148 -0.016614381 0.04392058 -0.0073073534
-0.03723026 -0.00041132126 -0.00710843 0.082261495 -0.016954392 -0.04164729 0.04024314 0.02542365
-0.019585045 -0.0605162 0.029580496 0.01797167 0.0063737403 -0.031695113 -0.014590356 -0.01671345
0.014738986 0.0021715781 -0.0031001726 0.005056453 0.043761924 -0.020287398 0.019866668 0.03574162
-0.0236894 -0.05136759 0.006837128 0.005868993 0.027665842 0.064704984 -0.004823215 -0.03663421
0.015329931 -0.02848249 0.033004213 0.0046159015 0.018904284 0.017838601 -0.0048108944 -0.017042253
0.005297491 0.011704247 -0.02174005 -0.0013910778 0.017972756 -0.008356174 0.03233656 -0.013400524

b_classifier.fcc.bias f4 [2]
00000000: b412 07bc ef47 073c
-0.008244205 0.008256896
