mil/weights/20241120/fold_3_6.pth (torch, 481804 bytes, 8 tensors)

i_classifier.fc.0.weight f4 [2, 768]
00000000: da57 73bd f797 1cbd fa2b 8dbc f850 883a
00000010: 1164 fc3d 7364 a9bc d99a 8b3c 3140 7c3c
00000020: b341 d9bc a8cf 40bc 71b6 103d 65cf fcbc
00000030: 7d22 0ebc 61da ca3c 91ab afbc 22c4 cfbd
00000040: 3b0a 8e3c b456 ecbc a3b5 3fbc 8259 d8bb
00000050: 9337 753d e469 3bbd 7cfd de3c e004 8fba
00000060: f195 47bc ba22 d13c e31a 8bbc 4e4b 2bbb
00000070: 5275 23bc 66bf 00bd b501 0bbd 01f3 443d
00000080: 84a1 fe3d 4934 31bd 10e8 d5bc c47d 90bd
00000090: ca32 663b 4d20 fe3c b28a f0bb df59 423c
000000a0: 00cb a5bc 8080 7e3c 1c9d 023c 937b 4b3a
000000b0: 43fb cabc 1a11 77bc 2c1f 33bb fcb7 773d
000000c0: 3c25 4f3d ec81 83bd b6dd 733c f473 36bc
000000d0: 47f6 0ebc 79b3 dbbc 8971 3c3d b983 a3bc
000000e0: db81 b0bc 2963 29bd f3db 17bd 5a80 0bbd
000000f0: d30c 6dbc c10d 8bbc 89f9 18bd 524b d63c
00000100: da3a 823b 586c 0bbd e9a0 fa3a 347e 2bbc
00000110: 4931 063d 768d ab3c 2fa6 82bc 54da 60bd
00000120: 6c6e 393d adf5 d43b 8871 51bc 08f6 343d
00000130: 404c a5bd 7182 3dbd 5beb 623c 6e29 903d
00000140: 9c3b f43c dafd fdbc e222 92bc 2422 32bd
00000150: 10d9 fa3b 4035 893d 4829 183d 0615 913d
00000160: f1b2 3d3c baf0 c2bb b817 643c a356 90bb
00000170: f0ef d8bc 23a5 24bd bebf fabc bcfb 533d
00000180: 6689 f43c 7273 ac3d 3cc3 a13d c7f1 443a
00000190: fde3 86bc d2b5 843b 698a 723c fab3 933d
000001a0: bef8 f23c bd58 093d ab49 333d a4db d0bc
000001b0: 9fbb 80bd c32a eebc 30a4 be3c dff2 5ebc
000001c0: 8408 3bbc bb2a 183c f8f5 8cbc 4889 19bc
000001d0: 747e b4bd c954 99bd 9740 3e3c 533a 94bc
000001e0: 20e3 35bd a821 70bc decc 053c dfd3 a23c
000001f0: d2c3 e43c 073d d63c 07f4 183d c235 c9bb
00000200: 254a 6bbd f4d8 16bb 08de a0bb 9f9a 0b3c
00000210: 019a 303d e4a4 b53b d5d9 2c3d f9bc 8bbd
00000220: 16a5 2b3c 076d 403d b54d e13c b2f2 5bbd
00000230: 4f6f 12bd a541 cf3c 2464 963d e67a 0e3c
00000240: 4eb2 eb3c a1e8 95bc c749 1e3d 1f21 183b
00000250: f57c 083d 6d79 d03a f9d6 c43c baf5 99bb
00000260: fae4 8dbc 7832 19bc 8227 3b3d 015c abbd
00000270: 6b7c 6d3d 3906 afbb a098 613d e6e9 463c
00000280: d61b 4bbd 9f3a a9bc 1de9 12bd 5261 87bc
00000290: c8c6 efbc bff7 d2bc f0d2 83bc 8a90 37bd
000002a0: 44ec ab3c 8154 a0bc 5ccc 9d3c 9b0e 81bc
000002b0: b0c7 b13c fa00 84bd ab00 213d a50f eebc
000002c0: 1fbc 49bd 5754 90bd a0a5 5e3c c910 adba
000002d0: 79eb 1b3d a6df fe3c b7ad 9dbb d367 8f3d
000002e0: caa3 6abc d58c 023d 032b 223d 8602 4d3c
000002f0: 2d2f 893c 46d6 333d e2b6 a8bc 9a06 76bd
00000300: 2410 57bc 4f81 b53c dac9 fdbc ddec df3b
00000310: 6963 fc3c 19cc 2f3c d472 083d c0bc 3e3d
00000320: 8e87 423d df8a eabc 8d31 bb3c 721c 513c
00000330: 3a2b 4bbc 8c55 683d 6044 4f3b 52f6 f1bc
00000340: a9b2 96bc a79d a8ba 846d 59bd 7cee 063d
00000350: 3651 39bc 5dc0 d73c 07bb ba3d f1e9 0e3d
00000360: ee5a a0bd 537c bb3c 0405 49bc 7b1d a5bc
00000370: 982d 53bc 2e46 47bd f189 54bc a55b 20ba
00000380: 2b60 113d 1521 95bc c4bb 73bc f4c7 133d
00000390: ce18 64bb b55b a23d 5d8f 3bbd 2398 11bd
000003a0: e242 383d c567 d73b 1cda b0bd ab7e a4bb
000003b0: eec4 f43c d221 3ab9 e0ae b43c 6935 2fbb
000003c0: a839 3fbd 6f95 cf3c c6bc b836 0923 143c
000003d0: c071 33ba 9d33 3fbc de9a a9bc 5d07 5eba
000003e0: 05c4 803d c835 d33c 7d02 f2bc 0961 25bc
000003f0: 2b7b 263c 29b8 c5bc a556 a1bc 6e0b 30bd
-0.059409954 -0.038230862 -0.017232884 0.0010400107 0.12323774 -0.02067778 0.01704161 0.015396164
-0.026520586 -0.011768259 0.03533024 -0.030860612 -0.008675215 0.024762334 -0.021444114 -0.10144831
0.017338863 -0.028849937 -0.01170102 -0.006602467 0.059867453 -0.045755282 0.02722048 -0.0010911487
-0.012181745 0.025529254 -0.016980594 -0.0026137414 -0.009976702 -0.03143253 -0.033937175 0.04808331
0.124331504 -0.043262754 -0.026111633 -0.07055238 0.0035125487 0.031021262 -0.0073407525 0.011862247
-0.0202384 0.0155335665 0.007972028 0.00077622494 -0.024778014 -0.015079761 -0.0027331812 0.060478196
0.05057262 -0.06421265 0.014884403 -0.011136044 -0.008725709 -0.026818978 0.046006713 -0.019960271
-0.021546295 -0.041354332 -0.037074994 -0.034057952 -0.01446839 -0.016974332 -0.03734735 0.026158962
0.003974301 -0.03403887 0.0019121441 -0.010467101 0.032761846 0.020941477 -0.015948383 -0.054895714
0.045271322 0.0064990134 -0.012783416 0.044179946 -0.08071184 -0.046266977 0.013850058 0.07039152
0.02981358 -0.031004835 -0.017838899 -0.04348959 0.0076552704 0.0669961 0.037148744 0.07084088
0.0115783075 -0.005949107 0.013921671 -0.004404859 -0.026481599 -0.04019655 -0.030609008 0.051753744
0.029850673 0.08420457 0.07898566 0.0007512834 -0.016466135 0.004049995 0.014803507 0.07212062
0.029659625 0.033531893 0.043771427 -0.025495358 -0.06285786 -0.029073125 0.02327165 -0.01360771
-0.0114156045 0.0092875315 -0.01720713 -0.009371109 -0.088131815 -0.074868746 0.011612079 -0.018094217
-0.044406056 -0.014656462 0.00816652 0.019876419 0.027925406 0.026152147 0.037342098 -0.0061404416
-0.057443757 -0.0023017498 -0.0049092807 0.008520751 0.04311562 0.005543338 0.04219993 -0.06823153
0.010476371 0.046978977 0.027502874 -0.05369825 -0.035750683 0.025299856 0.07343319 0.008696293
0.028771546 -0.018299403 0.03864458 0.00232131 0.033322293 0.0015905328 0.024028288 -0.0046984823
-0.017321099 -0.009350412 0.045691974 -0.08367158 0.057979982 -0.005341318 0.055077195 0.012140727
-0.049587093 -0.020657836 -0.035866845 -0.016525898 -0.029269591 -0.0257529 -0.016091794 -0.044815578
0.020986684 -0.019571545 0.019262485 -0.015754035 0.021701664 -0.06445499 0.039307278 -0.029060194
-0.049251672 -0.070473365 0.013589293 -0.0013203855 0.03806636 0.031112503 -0.004811968 0.07002225
-0.014321277 0.03187259 0.0395918 0.012512809 0.016746128 0.04390552 -0.020595018 -0.06006489
-0.013126407 0.022156386 -0.03098004 0.006833656 0.030809121 0.010729813 0.033312634 0.046566725
0.047492556 -0.028630672 0.022850776 0.01276313 -0.012400443 0.05672221 0.0031626448 -0.0295364
-0.018395739 -0.0012864367 -0.053082958 0.03294228 -0.011310866 0.026336843 0.09117704 0.034891073
-0.078298435 0.02288643 -0.012269262 -0.020155659 -0.012889288 -0.048650913 -0.012972341 -0.0006117172
0.035492104 -0.018204251 -0.01487631 0.036079362 -0.0034804824 0.07927648 -0.04579102 -0.03554548
0.04498566 0.0065736496 -0.08635351 -0.005019983 0.02987906 -0.00017750941 0.022056043 -0.0026734716
-0.046685845 0.02533981 5.5056034e-06 0.009041556 -0.0006845258 -0.01167002 -0.02070373 -0.0008469725
0.06287388 0.02578248 -0.029542202 -0.010093936 0.0101612015 -0.024135666 -0.019694636 -0.04297965

i_classifier.fc.0.bias f4 [2]
00000000: e933 2fbc ef3f 333d
-0.010693529 0.043762144

b_classifier.q.0.weight f4 [128, 768]
00000000: 3f37 f735 22d5 fb36 4067 0f34 697f b534
00000010: fba7 b035 ba78 0336 a159 5637 16d2 8db5
00000020: 8cd4 5237 44d3 5437 0837 15b6 ea47 57b7
00000030: 2eb9 06b7 b1a0 4136 9cc2 1fb7 79f9 0bb6
00000040: f4e0 28b7 6df6 99b5 5569 bd36 15d6 93b6
00000050: 1b55 09b6 690c 4d37 5479 45b7 2e15 b5b6
00000060: 8995 2ab7 ea6d b836 108f 3137 475e a4b5
00000070: ddef 3fb7 7d42 ee35 8deb 87b6 c049 b7b5
00000080: 3179 0236 35bb 57b7 dbbf 10b6 9744 4337
00000090: d222 5137 ac63 1637 8daf 51b7 d422 2836
000000a0: f89f 89b6 8bed c9b5 ac79 a6b6 8a18 2eb7
000000b0: 8c2f 2736 4b3f 2237 0e80 4cb6 99e6 fd35
000000c0: da45 2637 9746 ecb6 5dad 49b7 ffde f2b5
000000d0: 2f3e 04b7 8625 1d37 9089 3f37 2732 00b6
000000e0: 3207 eab5 8e65 3e37 3abc 53b7 cab7 88b6
000000f0: 2b41 4936 c187 62b6 470a 3ab7 7d36 eeb5
00000100: f0de aa35 fdd0 08b7 3b9e 4b37 c80c f236
00000110: 43fc eab5 e2c6 d9b6 d786 3237 caf5 34b6
00000120: 7f28 3b34 c45e c8b5 6fe1 6bb6 31b5 3d37
00000130: 1e7a 0ab7 3ecb 0236 f836 97b5 ad1c ebb5
00000140: 015c 4bb7 b67b da36 be12 8734 65bc edb5
00000150: dedc 0037 fefe dc35 88dd 25b7 7f7e 4437
00000160: a213 51b7 5bde 3e37 5eca 0a36 d248 20b6
00000170: adb0 2ab7 41de 4cb7 752c 4e37 7716 4437
00000180: bef9 4bb7 287a 2eb7 a269 46b7 6542 1a36
00000190: 13c2 9735 71a6 8a34 d887 1337 c635 9cb5
000001a0: 076f cf36 9a1b 3db7 ddb1 d6b6 86fc 96b6
000001b0: a5c4 5737 2ee4 6cb6 0951 f5b5 6647 e735
000001c0: 6445 03b6 2241 c6b6 519c 56b7 45c2 fdb6
000001d0: ef9e 1437 eeea c0b5 b85c c336 3461 fd35
000001e0: 5d26 54b7 abd8 0837 ea48 e2b5 f45e 0b37
000001f0: 1a94 7036 fa73 0537 0e8e 0e37 d213 3037
00000200: a77c 3436 21cd 2037 5f1a 1d37 f617 53b7
00000210: 9bbb 9db6 8d45 0337 d882 1835 dd6b f536
00000220: bc7f 34b6 acab 18b7 cd19 c4b6 47ed 15b4
00000230: 910a 2c37 468f 55b7 204b d9b5 528d 06b6
00000240: 5dae 1637 49a3 e5b6 c0ec d435 5550 54b7
00000250: 02fa 05b6 54ae a9b5 057d 1136 8fc7 8535
00000260: bd15 6135 6d71 1db7 2de7 b2b5 1028 bdb6
00000270: 6eb3 50b5 49ea 4bb7 8445 5437 a297 8136
00000280: 2621 53b7 1b6d e835 8f4d 10b7 d645 1fb7
00000290: 40fa 8636 63d6 5637 236e 08b6 9317 3e37
000002a0: 080d e036 f915 b2b6 3a70 cd35 72ec 15b7
000002b0: 300a fe36 5184 57b5 d5e6 e2b6 85ae 79b6
000002c0: 5356 f535 fd0e ff35 5c80 86b6 f4be 2537
000002d0: 861c 02b6 04b5 b036 49c3 78b6 db7a 6f36
000002e0: fff5 f3b6 19e3 4737 650c 2ab7 a4ab 54b7
000002f0: 9baf 4bb7 5eaa 7534 f593 36b7 bb2d f1b6
00000300: 3b42 0db6 e494 5737 cfbb 57b7 02d8 fab5
00000310: ece0 9eb5 898d 4db7 73e1 1d36 f4d7 8636
00000320: 07e3 d3b6 c617 5137 ab04 3db6 60ba 4db7
00000330: 5bbc 8135 2453 5737 3489 3937 d575 f5b5
00000340: d03d 44b7 f00d 12b6 621d 30b7 7c98 0d36
00000350: 28a3 63b4 64fb 55b6 c718 f935 f73a c236
00000360: a5a0 1eb5 85ce 5737 fa0a 00b6 a632 cfb5
00000370: f148 22b7 166c 33b6 a1fc 2eb6 b5bb da35
00000380: 91f9 f135 e32a 4236 3ff3 d8b5 4c21 0bb7
00000390: 55f0 19b6 484d 35b6 b372 56b7 369f 0f37
000003a0: 626d ed34 db02 7235 5575 e3b5 24c2 87b6
000003b0: cb7f 26b6 44f4 3337 e044 31b7 48f3 e835
000003c0: ca77 8836 26ef 0537 1abf a435 0be1 f3b5
000003d0: cf6a 4cb5 616a a135 6304 f4b5 3f96 7c36
000003e0: 2dc8 5637 3623 8eb6 f0ab 27b7 1684 08b6
000003f0: af28 7535 54a9 2e37 b1cc 5737 dab5 40b7
1.8419013e-06 7.505195e-06 1.3355475e-07 3.380658e-07 1.3161911e-06 1.9590793e-06 1.2776262e-05 -1.0566462e-06
1.2566463e-05 1.2685374e-05 -2.2234763e-06 -1.2831742e-05 -8.030138e-06 2.8852776e-06 -9.52245e-06 -2.0857826e-06
-1.0065956e-05 -1.1471108e-06 5.644901e-06 -4.405864e-06 -2.0464129e-06 1.2221842e-05 -1.1770364e-05 -5.396686e-06
-1.0167606e-05 5.496423e-06 1.05833315e-05 -1.224639e-06 -1.1440335e-05 1.7751732e-06 -4.0507352e-06 -1.3656027e-06
1.9442052e-06 -1.2858586e-05 -2.1569347e-06 1.1638876e-05 1.2465478e-05 8.963903e-06 -1.2498244e-05 2.5054223e-06
-4.101541e-06 -1.5044801e-06 -4.96135e-06 -1.0376922e-05 2.4912615e-06 9.670689e-06 -3.0472906e-06 1.8917082e-06
9.910635e-06 -7.041566e-06 -1.2020898e-05 -1.8095305e-06 -7.882291e-06 9.366666e-06 1.1416516e-05 -1.9102679e-06
-1.7436453e-06 1.1348528e-05 -1.2620405e-05 -4.0745117e-06 2.9989267e-06 -3.3755643e-06 -1.1088857e-05 -1.774824e-06
1.273087e-06 -8.154891e-06 1.2136584e-05 7.21365e-06 -1.7507776e-06 -6.490257e-06 1.0641022e-05 -2.6965158e-06
1.7430465e-07 -1.4928742e-06 -3.5148948e-06 1.1307465e-05 -8.253874e-06 1.9489812e-06 -1.1266375e-06 -1.751721e-06
-1.2121164e-05 6.511308e-06 2.5159346e-07 -1.7712706e-06 7.680819e-06 1.646549e-06 -9.886346e-06 1.17119625e-05
-1.2461942e-05 1.1376654e-05 2.0681396e-06 -2.3884245e-06 -1.0173925e-05 -1.2211095e-05 1.2288908e-05 1.1687741e-05
-1.21578905e-05 -1.039965e-05 -1.1826314e-05 2.2986435e-06 1.130686e-06 2.5825605e-07 8.793511e-06 -1.1638556e-06
6.182006e-06 -1.1271704e-05 -6.398403e-06 -4.499746e-06 1.28607835e-05 -3.5299558e-06 -1.8277507e-06 1.7231621e-06
-1.9560912e-06 -5.9084423e-06 -1.2791789e-05 -7.5626035e-06 8.858492e-06 -1.4373488e-06 5.8222467e-06 1.8878259e-06
-1.2645117e-05 8.156679e-06 -1.6859533e-06 8.307154e-06 3.5848993e-06 7.954421e-06 8.496934e-06 1.0495032e-05
2.6894647e-06 9.5845035e-06 9.364069e-06 -1.2582159e-05 -4.7008048e-06 7.824402e-06 5.6814815e-07 7.314126e-06
-2.6896441e-06 -9.0998765e-06 -5.844259e-06 -1.3963027e-07 1.0254459e-05 -1.2729148e-05 -1.6189624e-06 -2.0049815e-06
8.981294e-06 -6.8437407e-06 1.5864134e-06 -1.2654888e-05 -1.9964068e-06 -1.2642217e-06 2.1679455e-06 9.967351e-07
8.3850665e-07 -9.384338e-06 -1.3329314e-06 -5.637303e-06 -7.774714e-07 -1.2154292e-05 1.265237e-05 3.862152e-06
-1.2584298e-05 1.7317101e-06 -8.601127e-06 -9.4933985e-06 4.022644e-06 1.280531e-05 -2.0329687e-06 1.1330371e-05
6.6772373e-06 -5.3073713e-06 1.5306352e-06 -8.936144e-06 7.570976e-06 -8.0286287e-07 -6.7621972e-06 -3.7205475e-06
1.8279046e-06 1.9003343e-06 -4.008454e-06 9.879226e-06 -1.9388112e-06 5.2662817e-06 -3.706855e-06 3.5685287e-06
-7.270602e-06 1.19142e-05 -1.0135675e-05 -1.2676148e-05 -1.2140629e-05 2.2879382e-07 -1.0882494e-05 -7.1876834e-06
-2.1049188e-06 1.2849665e-05 -1.2858726e-05 -1.8689318e-06 -1.1837378e-06 -1.2251906e-05 2.3526052e-06 4.0186515e-06
-6.3147195e-06 1.2462906e-05 -2.8165912e-06 -1.2262346e-05 9.666068e-07 1.2834356e-05 1.1058804e-05 -1.8288216e-06
-1.1696902e-05 -2.1763808e-06 -1.0497259e-05 2.1099395e-06 -2.1200378e-07 -3.1885802e-06 1.8559157e-06 5.788515e-06
-5.9093355e-07 1.2863083e-05 -1.9079876e-06 -1.5437442e-06 -9.672935e-06 -2.6735993e-06 -2.607507e-06 1.6296896e-06
1.8028533e-06 2.8933216e-06 -1.6164048e-06 -8.292798e-06 -2.2938668e-06 -2.7016085e-06 -1.27820995e-05 8.560533e-06
4.4224277e-07 9.015618e-07 -1.6946966e-06 -4.0459145e-06 -2.4810313e-06 1.0726104e-05 -1.0566058e-05 1.7356151e-06
4.067061e-06 7.983099e-06 1.227457e-06 -1.8170407e-06 -7.615135e-07 1.2026395e-06 -1.8180693e-06 3.763838e-06
1.2802001e-05 -4.236029e-06 -9.994008e-06 -2.0342463e-06 9.1328815e-07 1.0410633e-05 1.2862657e-05 -1.1486432e-05

b_classifier.q.0.bias f4 [128]
00000000: 1943 03b7 028b 2737 baad 57b7 9c91 2eb7
00000010: 7d18 4bb7 6940 4037 9cba 47b7 a8c1 43b5
00000020: e543 36b7 eb32 6d36 8f9c 4c37 58e2 0837
00000030: a298 d4b5 21de 1636 f2a4 96b6 cb48 3bb5
00000040: dead 5637 10a9 1736 a5f5 bbb6 74d7 56b7
00000050: fe91 ab36 d161 3336 4da5 e636 f738 1736
00000060: 452d 0936 b880 d335 bc99 e835 c193 35b7
00000070: 1aa5 52b7 0f63 56b7 af17 57b6 4308 ce36
00000080: 07b8 3d37 8ce6 56b7 7404 c7b5 9bae 30b7
00000090: 7bf1 1b36 cc91 ea36 531c db36 2000 00b6
000000a0: 72d5 fcb6 b266 98b6 c4d3 feb5 e420 6d36
000000b0: 265c 55b7 8445 77b6 1c8b 4437 74bd 4437
000000c0: 30f1 f1b5 1f20 1637 a905 8e35 94c7 03b6
000000d0: f60d c6b5 fc9d 0c37 40ff f8b5 97ec f736
000000e0: 75b4 4337 401f 26b7 b2c5 34b7 a4f9 5537
000000f0: 9c37 4f37 e49c 2737 f96d 48b6 b284 25b5
00000100: 506a aeb4 9c8f 2036 d673 f836 ac13 c0b5
00000110: 69fb 1736 b59b 2537 4164 9235 d95b 3b37
00000120: c3c8 9f36 8612 5536 2512 2ab7 e2a0 9034
00000130: 899d e7b6 98f7 2537 b869 bb36 bbc7 5537
00000140: 20d4 5737 c35c 9636 dfd0 5036 72aa 4b37
00000150: eb27 2eb7 88c6 bab5 716f dfb6 5e66 6036
00000160: 4239 0636 bfac ef36 046c c236 26a3 dd36
00000170: a1aa 4437 de09 9336 01ae 0136 81d1 0bb7
00000180: 7e90 feb6 9276 0535 63cd 0336 cd6e 4b36
00000190: 4801 b1b6 fec5 2f37 aee8 dcb5 8b3d 57b7
000001a0: f14e 07b6 750f 5737 38e0 42b7 8e65 48b7
000001b0: 0ddd abb6 1052 36b7 e852 02b7 45a1 9b35
000001c0: 54ef 05b6 bbfd f836 76a4 f2b5 40b4 adb5
000001d0: aae7 feb5 f790 feb6 ad4e 9436 ffa9 fa35
000001e0: ae62 5637 34fd 2137 30b4 8936 af86 bd35
000001f0: 8574 e636 3154 56b7 dee1 1737 9f59 fcb5
-7.823831e-06 9.986341e-06 -1.28554475e-05 -1.04051105e-05 -1.21054445e-05 1.14590885e-05 -1.1904773e-05 -7.292497e-07
-1.0863853e-05 3.534539e-06 1.2195799e-05 8.158931e-06 -1.5839653e-06 2.2481038e-06 -4.4895505e-06 -6.9768856e-07
1.2795876e-05 2.259916e-06 -5.601631e-06 -1.2805558e-05 5.113193e-06 2.6730015e-06 6.8737777e-06 2.2533911e-06
2.0440941e-06 1.5758187e-06 1.733009e-06 -1.0822842e-05 -1.2555416e-05 -1.2778458e-05 -3.2051282e-06 6.14024e-06
1.1308125e-05 -1.2809072e-05 -1.4827951e-06 -1.0531071e-05 2.323736e-06 6.9907164e-06 6.530006e-06 -1.907356e-06
-7.5350335e-06 -4.5419083e-06 -1.8986107e-06 3.5334897e-06 -1.2717244e-05 -3.6846332e-06 1.1714899e-05 1.1726621e-05
-1.8026094e-06 8.9481755e-06 1.0581472e-06 -1.963669e-06 -1.4756213e-06 8.381434e-06 -1.8551727e-06 7.3887163e-06
1.1664922e-05 -9.901647e-06 -1.0774866e-05 1.2753913e-05 1.2351109e-05 9.990505e-06 -2.9866335e-06 -6.1660387e-07
-3.2487378e-07 2.392545e-06 7.404461e-06 -1.431084e-06 2.2647093e-06 9.87102e-06 1.0907025e-06 1.11674535e-05
4.761941e-06 3.1750255e-06 -1.0137014e-05 2.6939148e-07 -6.902676e-06 9.892414e-06 5.5853416e-06 1.2742293e-05
1.2864388e-05 4.4811472e-06 3.1115994e-06 1.2139428e-05 -1.0380502e-05 -1.391586e-06 -6.6588914e-06 3.3438187e-06
2.0000884e-06 7.1428653e-06 5.794225e-06 6.605306e-06 1.1722238e-05 4.38209e-06 1.9323782e-06 -8.333825e-06
-7.586611e-06 4.9718903e-07 1.9640072e-06 3.0313852e-06 -5.27516e-06 1.04769115e-05 -1.6458996e-06 -1.2829328e-05
-2.0162518e-06 1.28185975e-05 -1.1615506e-05 -1.1944574e-05 -5.121931e-06 -1.0867152e-05 -7.767907e-06 1.1595336e-06
-1.9957852e-06 7.420514e-06 -1.807827e-06 -1.2941964e-06 -1.8991898e-06 -7.586666e-06 4.419903e-06 1.8675927e-06
1.277837e-05 9.655301e-06 4.1038948e-06 1.4120795e-06 6.868099e-06 -1.2774996e-05 9.05289e-06 -1.8801546e-06

b_classifier.q.2.weight f4 [128, 128]
00000000: 7037 f6b5 44a3 f836 4ebd 4eb7 8935 feb5
00000010: 5836 e935 b6f5 00b7 21ba 4b35 c2c4 fb35
00000020: 5bc0 88b5 1af1 10b5 46e9 b3b5 d8cf 10b7
00000030: 2105 00b6 6000 f3b5 e434 f6b5 7a30 0a36
00000040: a5dd 5037 7a7d 8036 2ff0 1eb6 36a3 3137
00000050: 9a2e 4436 6d0d 24b6 593d b635 46d1 6236
00000060: ddab ceb5 57a9 3f37 86ae 9fb5 aa21 9b34
00000070: c014 72b5 246d 1a37 43fd e2b5 4064 ecb6
00000080: 7e17 3ab6 a6ba 0d36 3a2f 0437 b9d5 aab6
00000090: 53d1 2d36 15b3 af35 1d89 2937 61d3 4cb6
000000a0: d3e7 1d36 c32e 0eb6 9038 1a36 be7f 6b35
000000b0: 2d42 feb6 d07f 43b7 7f47 c136 ca9e 0bb6
000000c0: e8ac 10b6 ef26 cab5 7913 a435 4e51 0336
000000d0: bb7e 38b6 ae4e 52b6 a7ef e0b5 6e3a 09b6
000000e0: 1eb5 06b6 495d 3937 4411 2c36 454f fe35
000000f0: 1161 1bb7 42b9 78b6 6268 6936 a379 1836
00000100: 7532 2ab6 19a3 9536 d027 0d34 3bd5 2eb7
00000110: b111 2736 f1db 5437 516f 91b6 ddd4 5337
00000120: 0aa5 4db7 a43b 3837 6e50 da35 f8f8 9536
00000130: f09c 9bb5 18ce fdb5 2bf1 4237 ebe5 b736
00000140: af55 deb5 5a1c fb34 489e 3eb6 5c99 0937
00000150: 50c2 0ab6 be6f 1d37 c85b 05b6 8e35 d335
00000160: 68f0 0d37 cc38 adb6 4af0 d0b5 97e2 47b7
00000170: fd99 4736 80c2 1136 0ba1 1eb7 e6f1 0cb7
00000180: 2474 ffb6 ef3a 8236 a8c4 4d37 9530 31b7
00000190: 3b21 e9b5 aeb0 51b7 5089 8fb6 17fe 8236
000001a0: 2a5b 50b7 dc9a 02b6 280d 15b7 a6ea ae36
000001b0: b211 4c37 c3e2 2c36 300e 5537 9ddc 1137
000001c0: 5700 1fb7 0392 0ab6 3b8f 5137 61f3 1236
000001d0: d1bf 2137 a9ad 3037 5406 4db7 c5dc 51b7
000001e0: 0f78 0fb7 75dc 1f37 aa0f 49b7 ac0b efb5
000001f0: 50ab b6b6 10a3 d4b5 88b8 9535 75cd a8b5
00000200: 52f6 08b6 3039 8136 15be 57b7 1a30 0ab7
00000210: 4735 fab5 8267 55b7 35a4 4e36 7d66 f6b6
00000220: 7e46 1f37 8a06 9735 34c3 ebb5 d2a8 6ab5
00000230: ded9 f2b5 ee95 4637 69d8 a2b6 0f8a 4a37
00000240: 9d34 5737 3727 5336 ab58 49b7 9257 42b7
00000250: 990b 3437 03fe 8936 138a 2637 748e 2437
00000260: 3727 0137 a70b 0337 3861 1136 c92c 09b7
00000270: 2ca6 2a36 109d cab6 76a7 e7b4 bee2 f4b5
00000280: b2f1 f635 f554 e5b5 669f bab5 5701 d435
00000290: cd61 2236 040b 5637 3e6b 7336 01e3 8036
000002a0: 3d13 4fb7 9a6c b1b6 2f85 0936 66b7 19b6
000002b0: 48d0 4d37 bcd7 5537 fd85 f9b6 eebf 0f37
000002c0: 372e fe35 f59f b534 3295 0b37 5590 2336
000002d0: f547 87b5 ff04 f1b5 9fcd db35 3e9c 17b3
000002e0: 9c1a 8036 558c 6336 b913 36b6 6543 1e37
000002f0: 6561 1eb7 f3f3 ea35 8dbd 3736 e7ef 7635
00000300: e2f7 f934 6216 6bb5 1c34 4fb7 0d7a 92b6
00000310: 2ad6 a136 f79e feb6 b25d 21b7 890b 38b6
00000320: 0aeb 2937 7c63 cf36 3ad7 f9b5 f71b 0036
00000330: d649 83b6 f44a f235 76b9 5137 4e09 e7b6
00000340: 4ee1 1637 9fda 96b5 a636 10b7 3184 ed36
00000350: 763c 7036 1b1f d536 cc4a e8b5 e70c 0fb5
00000360: a9c1 2a36 9ed2 8c36 373e 2535 31ad 3cb7
00000370: 0d3a 6fb6 eebd 2836 37ae 5434 4d3b 4bb6
00000380: 24a0 b2b6 60e6 cc36 7c5f 7936 b9d3 0236
00000390: 01dd 5eb6 4a6d 1836 9e4e 16b6 4f46 b9b6
000003a0: 225f ef35 4294 24b5 0d79 31b7 2944 cd36
000003b0: 2cd9 84b6 ed88 3db7 dc68 8b36 225d 45b7
000003c0: f1b0 9b36 90a7 0bb6 0e8e d5b5 5bf1 8b36
000003d0: bdbc 83b4 54d9 4137 4cd2 17b7 b263 2fb7
000003e0: 1bb8 3237 cd65 6635 4aa0 08b6 217f 98b5
000003f0: 6baf 1837 95fb 4db7 e571 12b6 af48 2e36
-1.8344563e-06 7.4099826e-06 -1.2322633e-05 -1.8940055e-06 1.7375669e-06 -7.686604e-06 7.5894246e-07 1.8758221e-06
-1.0188772e-06 -5.399503e-07 -1.3404431e-06 -8.631461e-06 -1.9076472e-06 -1.810502e-06 -1.8343821e-06 2.059182e-06
1.2449372e-05 3.8293047e-06 -2.368364e-06 1.0588023e-05 2.9233402e-06 -2.444572e-06 1.3577911e-06 3.3798437e-06
-1.5398215e-06 1.1423915e-05 -1.1897216e-06 2.8895494e-07 -9.018222e-07 9.204527e-06 -1.6912021e-06 -7.0450187e-06
-2.7729834e-06 2.111928e-06 7.878809e-06 -5.0912754e-06 2.5900852e-06 1.3090636e-06 1.0105109e-05 -3.0521408e-06
2.3529763e-06 -2.1186868e-06 2.2980712e-06 8.773021e-07 -7.5774938e-06 -1.1652664e-05 5.7601715e-06 -2.0805041e-06
-2.1558317e-06 -1.5061504e-06 1.222462e-06 1.9567847e-06 -2.7491903e-06 -3.1338236e-06 -1.6759049e-06 -2.0448601e-06
-2.007298e-06 1.1048579e-05 2.5640047e-06 1.8947545e-06 -9.26132e-06 -3.7062714e-06 3.4780464e-06 2.2720567e-06
-2.5361344e-06 4.459533e-06 1.3146132e-07 -1.0420855e-05 2.4895237e-06 1.2687394e-05 -4.3342957e-06 1.2626141e-05
-1.2257378e-05 1.0981141e-05 1.6265674e-06 4.46953e-06 -1.1594075e-06 -1.890995e-06 1.1619452e-05 5.480591e-06
-1.6565226e-06 4.6773022e-07 -2.8404338e-06 8.201543e-06 -2.0676707e-06 9.383946e-06 -1.9871968e-06 1.5736312e-06
8.460229e-06 -5.162414e-06 -1.5567141e-06 -1.1914081e-05 2.9742944e-06 2.1719898e-06 -9.45503e-06 -8.400972e-06
-7.6131128e-06 3.8811627e-06 1.226474e-05 -1.05613335e-05 -1.7369524e-06 -1.2498507e-05 -4.2777174e-06 3.903882e-06
-1.2418992e-05 -1.946165e-06 -8.884155e-06 5.2129208e-06 1.21634675e-05 2.576199e-06 1.2699093e-05 8.694039e-06
-9.477218e-06 -2.0648592e-06 1.2490719e-05 2.189736e-06 9.641009e-06 1.0530851e-05 -1.2220426e-05 -1.2508773e-05
-8.5514175e-06 9.528468e-06 -1.1984181e-05 -1.7810285e-06 -5.443966e-06 -1.5842688e-06 1.1155071e-06 -1.2576771e-06
-2.0408957e-06 3.851157e-06 -1.2859256e-05 -8.2366405e-06 -1.8641957e-06 -1.2719889e-05 3.0791973e-06 -7.3433025e-06
9.493551e-06 1.125228e-06 -1.7565676e-06 -8.741746e-07 -1.8093813e-06 1.1836628e-05 -4.8531697e-06 1.20722825e-05
1.2827249e-05 3.1464276e-06 -1.2001178e-05 -1.158369e-05 1.0731536e-05 4.112489e-06 9.926519e-06 9.808329e-06
7.69813e-06 7.8109215e-06 2.1663272e-06 -8.176264e-06 2.5428699e-06 -6.0383536e-06 -4.3148947e-07 -1.8245407e-06
1.8398771e-06 -1.7086555e-06 -1.3904471e-06 1.5795621e-06 2.4196809e-06 1.2757959e-05 3.6272245e-06 3.841124e-06
-1.2342641e-05 -5.287654e-06 2.0492114e-06 -2.2905529e-06 1.2267446e-05 1.2746019e-05 -7.4363766e-06 8.568151e-06
1.8937925e-06 3.383026e-07 8.319783e-06 2.4372905e-06 -1.0079226e-06 -1.7957353e-06 1.6376615e-06 -3.529953e-08
3.817795e-06 3.390732e-06 -2.7131593e-06 9.433225e-06 -9.44021e-06 1.7505357e-06 2.7379458e-06 9.1991245e-07
4.6560223e-07 -8.7576893e-07 -1.2350294e-05 -4.3653476e-06 4.823106e-06 -7.588296e-06 -9.618163e-06 -2.742485e-06
1.0127909e-05 6.1806622e-06 -1.8614585e-06 1.9089764e-06 -3.9127e-06 1.8052219e-06 1.2500552e-05 -6.8854197e-06
8.993155e-06 -1.1239498e-06 -8.595793e-06 7.0785395e-06 3.579798e-06 6.351516e-06 -1.7307116e-06 -5.3290427e-07
2.54447e-06 4.196844e-06 6.1557824e-07 -1.12459975e-05 -3.5647565e-06 2.5144504e-06 1.9807418e-07 -3.0283875e-06
-5.323456e-06 6.106493e-06 3.715947e-06 1.9494748e-06 -3.320922e-06 2.271338e-06 -2.2397503e-06 -5.5216146e-06
1.7834575e-06 -6.1310504e-07 -1.05782065e-05 6.117411e-06 -3.9591887e-06 -1.1297158e-05 4.15473e-06 -1.1763799e-05
4.6399587e-06 -2.0810148e-06 -1.591108e-06 4.1706203e-06 -2.4537977e-07 1.1554297e-05 -9.049265e-06 -1.0454025e-05
1.0652492e-05 8.5829816e-07 -2.035888e-06 -1.1361882e-06 9.100749e-06 -1.2277528e-05 -2.182199e-06 2.5970328e-06

b_classifier.q.2.bias f4 [128]
00000000: f23c 2ab6 cc13 6936 7fca dfb5 3747 5036
00000010: e574 9b34 3a40 07b6 41b9 db36 b3a4 f5b6
00000020: e876 a6b6 39da 1c37 e28e 28b7 9681 fcb5
00000030: 2967 abb5 6ac7 dbb6 81a9 47b7 816c 3eb7
00000040: 112f 2bb6 7685 f9b6 dc2c 6c36 2381 41b7
00000050: 6d43 08b6 371a d5b4 3ae9 4eb7 52a9 24b7
00000060: 929f 08b6 2a90 57b7 4d38 a4b6 41a1 70b6
00000070: 01c3 1eb6 330d 4636 389a 35b5 2496 4ab7
00000080: b1ea aab6 c7d2 e2b6 20e6 38b5 6830 f233
00000090: 6c97 50b7 3c3e 2cb6 3bbd 1437 7740 c435
000000a0: 1cbb f035 f66e 47b6 85ba de36 d3f8 50b7
000000b0: 3ac5 0fb6 c9f1 91b6 4cf2 33b6 a1ad 4d36
000000c0: 96f7 0d36 f50e 5d35 eba9 5c36 d591 57b7
000000d0: 63d0 a0b6 27e7 f9b5 156e 2eb7 5bfd 10b7
000000e0: be02 2db7 0b4b 24b6 d0d7 8fb6 6707 4db7
000000f0: d405 0536 60bc 0736 debd 4d36 3515 d636
00000100: 8710 3737 3e09 23b6 b3dc 39b7 5bd3 72b6
00000110: ec09 f8b5 c584 e036 5b52 13b7 1619 f1b6
00000120: 3b3b e6b6 74ba edb5 5238 e436 92b3 1c37
00000130: 714a 00b7 8919 1db7 a8ed 0636 b2eb 7136
00000140: 4db7 14b6 a3ce 91b6 d7bf bf36 84af a536
00000150: 9774 21b7 54cb 0136 b572 0937 7b5d 8736
00000160: 771d 1136 ea1d 06b7 8f45 dcb5 7a70 1cb6
00000170: 80e3 c2b6 0b6e a636 b2e2 b4b5 96b4 dfb5
00000180: 6165 dab5 68be 2537 765d 7fb6 63fd 01b6
00000190: 30eb a236 cbb4 4337 f28b a8b6 2612 18b7
000001a0: a5d6 0f37 9ab5 feb6 6e16 e836 ed5f 9b36
000001b0: 6db4 8d36 e70a 4f37 c846 4e37 1f43 80b6
000001c0: 139e 51b6 0f85 33b6 ae3f 0db6 561a eb35
000001d0: f46c 06b6 9cb3 21b7 450a 0e36 9493 7436
000001e0: 642a 2c37 4263 28b5 c527 9e36 da9b eab5
000001f0: b940 2836 1827 0a36 06da 4cb7 dd94 23b6
-2.536745e-06 3.473123e-06 -1.6673729e-06 3.1035868e-06 2.8956052e-07 -2.0153952e-06 6.548275e-06 -7.3207425e-06
-4.961028e-06 9.3491335e-06 -1.0046848e-05 -1.8813178e-06 -1.2770516e-06 -6.5499235e-06 -1.190079e-05 -1.13501455e-05
-2.5508382e-06 -7.436315e-06 3.5192852e-06 -1.1533763e-05 -2.0304826e-06 -3.9693415e-07 -1.2332859e-05 -9.814585e-06
-2.0358461e-06 -1.2848564e-05 -4.894135e-06 -3.585665e-06 -2.3657342e-06 2.9511982e-06 -6.765217e-07 -1.2075096e-05
-5.0937165e-06 -6.7598626e-06 -6.888022e-07 1.1277808e-07 -1.2433022e-05 -2.5666222e-06 8.865546e-06 1.46219e-06
1.7935849e-06 -2.9717899e-06 6.6378293e-06 -1.24557e-05 -2.1423461e-06 -4.3494842e-06 -2.6814114e-06 3.0648446e-06
2.1154751e-06 8.235068e-07 3.288146e-06 -1.2848953e-05 -4.792631e-06 -1.861922e-06 -1.0396839e-05 -8.642058e-06
-1.0312242e-05 -2.4481585e-06 -4.286856e-06 -1.2220676e-05 1.9821937e-06 2.0226216e-06 3.0657898e-06 6.380166e-06
1.0911498e-05 -2.4294272e-06 -1.1078245e-05 -3.6183835e-06 -1.8480328e-06 6.6911766e-06 -8.781058e-06 -7.18528e-06
-6.8614295e-06 -1.7712141e-06 6.801486e-06 9.340134e-06 -7.646727e-06 -9.363875e-06 2.010589e-06 3.6048991e-06
-2.2160414e-06 -4.3453924e-06 5.7145767e-06 4.937816e-06 -9.6234935e-06 1.934085e-06 8.192544e-06 4.034196e-06
2.1623835e-06 -7.993987e-06 -1.6411522e-06 -2.3311281e-06 -5.808135e-06 4.959996e-06 -1.3477022e-06 -1.6667352e-06
-1.6271771e-06 9.879099e-06 -3.8052362e-06 -1.9369988e-06 4.8553557e-06 1.1665e-05 -5.023082e-06 -9.0641315e-06
8.57344e-06 -7.590931e-06 6.91675e-06 4.630527e-06 4.223132e-06 1.23407e-05 1.2295037e-05 -3.822511e-06
-3.1235438e-06 -2.6750529e-06 -2.1047704e-06 1.7516529e-06 -2.0030975e-06 -9.638166e-06 2.1165627e-06 3.6444735e-06
1.0261869e-05 -6.2729316e-07 4.7133967e-06 -1.7479717e-06 2.5071624e-06 2.0586358e-06 -1.221011e-05 -2.4375543e-06

b_classifier.fcc.weight f4 [2, 2, 768]
00000000: 1123 41bd a70c 32bb 4718 47bc ce45 1cbd
00000010: e967 50bc 1c45 f53c 95cb 033d 7f51 56ba
00000020: 2667 a0bc 019f a13c fc38 90bc 9275 82ba
00000030: 4d9b fb3c c449 d0bc 7688 ae3b dd26 d43c
00000040: b771 b0bc d457 b23a 27a0 74bc e7ee b5bc
00000050: 81c7 d83c 2ebe 8dbc 0a3d 243d 5ef2 37bc
00000060: d537 dd3c 0461 363d b34e 453c 60fe 21bd
00000070: db1f 1c3c 155c 583a c6a5 ecbc 212d 29bc
00000080: d68c ee3c 7d23 5bbb e155 33bc f8cc 763b
00000090: 5988 913d f1b2 4ebd 558d 4abc 9293 b1bc
000000a0: 6c72 aebb d8d4 bb3c 6453 0bbc f461 4f3b
000000b0: ea60 a63d d91c 8e3b 73cd e73c 4e1c dbbc
000000c0: 5495 2abd 836a e2bc d4a2 cc3b ec8f 96bc
000000d0: 26a5 e7bc 1453 ed3b 59e1 0d3c c03d 8d3a
000000e0: 4498 2b3d 5d58 b63c 0b80 0dbd 815a 2e3b
000000f0: f5e0 f8bc 0b38 1cbd 053c 5c3c a3b1 623d
00000100: 9005 0cbd e8ba e8bc 07a4 edbc bcf3 92bc
00000110: deff a7bc dbf1 68bc 577c 56b8 a519 693d
00000120: 82c9 78bc 3618 ae3c a898 503c 38ec 5abc
00000130: bf25 923c 442f c5bc 327c 183c 1f7f 65bc
00000140: 1e42 8b3c dd37 abbc 0f5c 803c 8e44 623c
00000150: 949f ea3c 351c 773b 98c7 423c a0a9 25bc
00000160: 0080 3fbd 2f65 32bc 1d67 b3bb 721f e7bc
00000170: 9270 f0bc 3d04 23bd f13c dcbb b585 c23c
00000180: 4daa 3cbc 94a8 f5bc 1f82 583c 06e5 b03c
00000190: 162e 883c 1395 5b3d 4358 cd3c 0e9c 853c
000001a0: 1a2a 543c ee72 083c eb5e bbbc 22b1 4e3c
000001b0: e681 9dbd 97eb 353d d249 d13a d418 0b3d
000001c0: 2ec5 8ebc 3d23 dcba a93a 9a3b 4c07 bcbc
000001d0: 1c68 183b 84cb 86bc 39d0 563c 89e0 1c3d
000001e0: ef74 303c c990 453b 7cdc 21bd 625d 843d
000001f0: b46f 8abb 6c41 1bbd c3db 183d aa7a ea3c
00000200: 9f21 a5bc 40a9 59bc 7fa2 e1bc 8bc3 f2bc
00000210: e636 a83b 5701 13bc 5a36 c8bb 7dcb b83b
00000220: 092b 56bc 9d15 503d 4072 42bc 5f99 76bb
00000230: 8000 92bb c7df bdbc e398 413c 7795 8ebc
00000240: 38ca 50bb f7a0 9f3d a271 b5ba 35df 91bd
00000250: 86f7 673c 11eb 4dbd 4562 e33b 151a 063d
00000260: 964a b039 df98 01bc 672a 61bd 69ae 883c
00000270: 4bc9 bfbc 498e 50ba cc0c 48bc e381 5dbc
00000280: 5866 6b3c 8fb2 12bc 934b 05bc 8e5a 6bba
00000290: 976a 2c3c ed93 b1bb 3403 d03b cd30 03bd
000002a0: 27c0 f63c 51ee a93c 7922 683b a15b 79bd
000002b0: b2f3 36bc 122e 3e3c d094 5cbc cbb8 f5ba
000002c0: 92ac 7e3b b455 143d f625 2bbb 5f11 c53c
000002d0: 0e92 493c b406 c83c dc34 d53c a20e 913b
000002e0: 6ca0 0b3d 5352 31bc 5960 b13b d1a8 02bc
000002f0: 93db f6bc 5fd1 94bc 49a0 7abc c13b 07bc
00000300: 7027 9d3c 8177 50bb 0497 ca3a 75bd 603d
00000310: 67b4 83bd 0053 b33b 4a72 db3b 5ebe fdbc
00000320: a421 333d 58d2 cdbb 1d20 38bc caa8 95bc
00000330: 1cae c0bb 0f01 be3c 7765 61bc 3760 223d
00000340: d309 9bbb 481f 85bc 7975 99ba a1af 47bb
00000350: 02e9 373c efd7 c2ba 3452 023d fe21 64bc
00000360: 0f6e 15bd 5078 4fbb d1e2 513d 56f7 a53b
00000370: 1a43 59bc 6e68 bdbb 3966 f8bc b2e0 c33c
00000380: 5a17 e8bb 3789 bb3c 5d78 93bc a01e a53a
00000390: e7b7 d83c 02fc 9d3b bd01 a43b fba7 453c
000003a0: c1f8 33bd a19b dbbc 6a5c 0dbd 16ab e1bc
000003b0: 629e 92bc 0083 cf3b 42f6 8dbc b7d6 32bc
000003c0: a96c 673b e0f4 fabb b6ec 7dba 1edc ad3a
000003d0: fdf8 ad3c 6d23 23bc 7d8e 7abc 80f8 b73c
000003e0: d836 c43c 1a05 dcbc 2ad8 9dbc 6090 1abd
000003f0: 323d 583d af57 203d a74a c43c 9c2d 643a
-0.047152583 -0.0027168186 -0.012151784 -0.03815251 -0.012720087 0.02994018 0.032176573 -0.0008175596
-0.019580435 0.01972914 -0.017605297 -0.0009953252 0.030713702 -0.0254258 0.005326326 0.025897438
-0.021538598 0.0013606497 -0.014930761 -0.022208644 0.026462318 -0.017302599 0.040097274 -0.011227218
0.027004162 0.044526115 0.012042689 -0.03954923 0.009529079 0.00082534674 -0.02888764 -0.010325701
0.02911989 -0.00334379 -0.010945768 0.0037658792 0.071060844 -0.05046362 -0.012362798 -0.021676812
-0.0053236987 0.02292864 -0.008503769 0.0031644078 0.08123954 0.004336935 0.028296208 -0.026746895
-0.041646317 -0.02763868 0.0062449966 -0.018379174 -0.028276991 0.0072425697 0.008659684 0.0010775849
0.04189326 0.022258932 -0.03454594 0.0026604238 -0.030380705 -0.038139384 0.013442044 0.05534519
-0.034184992 -0.028409436 -0.029008878 -0.017938487 -0.02050775 -0.014217819 -5.1137376e-05 0.056909222
-0.015184762 0.021251779 0.012731709 -0.013361983 0.017840264 -0.02407039 0.009306954 -0.014007359
0.0169993 -0.020900661 0.015668897 0.01381029 0.028640546 0.0037706022 0.011888407 -0.0101112425
-0.04675293 -0.010888382 -0.0054749385 -0.028213236 -0.029350553 -0.039798964 -0.006721132 0.023745397
-0.011515212 -0.02998761 0.013214617 0.021593582 0.016623538 0.053608965 0.0250665 0.016309764
0.012949491 0.008328183 -0.022872409 0.012615474 -0.07690792 0.04441413 0.0015967435 0.033959225
-0.017428007 -0.001679517 0.0047067 -0.022952698 0.0023255413 -0.016454466 0.013111168 0.03830007
0.010770067 0.0030146113 -0.03951691 0.06463124 -0.004224742 -0.037904188 0.037318956 0.028622944
-0.020157633 -0.013284981 -0.027543304 -0.029634258 0.0051334975 -0.008972487 -0.006109995 0.005639492
-0.013071784 0.050801862 -0.01186806 -0.0037628037 -0.004455626 -0.023177994 0.011816236 -0.017405255
-0.0031858813 0.077943735 -0.0013843069 -0.071226515 0.014158135 -0.050273005 0.006939205 0.032739718
0.00033624907 -0.007909982 -0.05497208 0.016684728 -0.023411414 -0.00079557725 -0.012210082 -0.013519737
0.014367662 -0.0089537045 -0.008135694 -0.0008978032 0.01052346 -0.0054192455 0.006348038 -0.032028962
0.030120922 0.02074352 0.0035420938 -0.0608784 -0.0111665 0.011607664 -0.013463214 -0.0018747089
0.0038860184 0.036214545 -0.0026115156 0.024056135 0.012302889 0.024417259 0.026026182 0.004426793
0.034088537 -0.01082285 0.005413097 -0.007974819 -0.030133998 -0.018166242 -0.015297004 -0.008253993
0.019183844 -0.003180951 0.0015456383 0.05486818 -0.064308934 0.005472541 0.006696974 -0.030974563
0.043733254 -0.0062811784 -0.011238125 -0.018268961 -0.0058801305 0.023193864 -0.013757101 0.03964254
-0.0047313957 -0.016250268 -0.0011707983 -0.0030469673 0.011224987 -0.0014865379 0.031816676 -0.01392412
-0.036481913 -0.0031657405 0.0512417 0.005064885 -0.013260627 -0.0057802713 -0.030322181 0.023910854
-0.007082862 0.022892578 -0.01800173 0.0012597628 0.026454879 0.0048213014 0.00500509 0.012063975
-0.043938402 -0.026807608 -0.03451196 -0.0275474 -0.017897788 0.006332755 -0.017329339 -0.01091545
0.003531257 -0.007658586 -0.0009686457 0.0013264453 0.02123689 -0.009957177 -0.015292761 0.022457361
0.023951933 -0.026857901 -0.019268114 -0.037735343 0.052792735 0.03914612 0.023961378 0.0008704306

b_classifier.fcc.bias f4 [2]
00000000: 72c2 01bc 3e00 2a3c
-0.0079198945 0.010376034
